exp/hyperparameters/window/10/state.pt (torch_old, 586261 bytes, 12 tensors)

conv1.weight f4 [128, 4, 1, 3]
000000 d9 8f 10 3f dc 9f 89 3e 37 4a 7a be 07 1e fd 3e
       0.56469494 0.26879776 -0.24442373 0.49436972
000010 e0 3a 3e 3e 59 be ca bd 01 c5 c1 3e 9a 25 3c be
       0.18577147 -0.09899587 0.37845615 -0.18373719
000020 d3 8e ae be 11 91 22 bd e8 b9 71 be 53 9b e1 3d
       -0.3409334 -0.039689127 -0.23606074 0.11015954
000030 05 b3 8c 3b 47 d3 f0 3e 9b df a3 bd 1d 12 7c bd
       0.0042938017 0.47036192 -0.08001634 -0.06154071
000040 d8 6f 8d 3d 81 e9 da 3e c6 15 58 be c2 c4 00 3e
       0.06906098 0.42756274 -0.21102056 0.12575057
000050 b9 40 23 be b9 4f 82 bd 7c f2 cd be 09 8d 83 3c
       -0.15942658 -0.06362862 -0.40224063 0.016058462
000060 c1 d9 a0 bd 35 a1 d8 3c e4 2f 40 bc 2b b1 a1 be
       -0.07854033 0.026444057 -0.011730168 -0.3158048
000070 b5 b3 90 be c0 51 0b 3e df a8 7e be 32 8c 85 3e
       -0.28262106 0.13605404 -0.24869107 0.26083523
000080 77 3d dd 3e 8a db 1e be 72 66 aa 3d f4 6f 31 3e
       0.43210956 -0.15513435 0.08320321 0.17327863
000090 38 32 4d 3e d5 54 d4 3c 8d 25 4a 3e 6d 81 5d 3e
       0.20038688 0.025919357 0.19740887 0.21631403
0000a0 b3 86 03 3f ca 75 91 3d d0 de 9f be c1 5f b5 be
       0.5137741 0.071025446 -0.3122468 -0.35424617
0000b0 e0 a4 19 be d8 f3 a6 3d b9 63 1b bd 34 48 8d be
       -0.15004301 0.08151978 -0.0379369 -0.2759415
0000c0 26 a8 12 bf fd d6 a9 3e 9f 9f b6 3d cc 88 9a bd
       -0.57287824 0.33171836 0.08917164 -0.07545623
0000d0 0c 94 5f 3e 21 89 50 3e 2d ed e6 be 42 ea c2 3e
       0.21833819 0.2036481 -0.45102826 0.3806935
0000e0 45 57 a9 be 26 ff 6f be f3 9e 67 3e 0a c1 2e be
       -0.33074394 -0.23437175 0.22619228 -0.17065826
0000f0 b0 71 9d be 42 f0 8c 3d f5 32 5e 3e 4e 37 cc be
       -0.307508 0.06881763 0.21699126 -0.39885944
000100 ae 48 a9 be f8 75 db be 0d 5c 91 3d 6e 47 ab bd
       -0.33063263 -0.4286344 0.070976354 -0.083632335
000110 0c b5 6c bd 3a 23 32 be 43 d4 65 bd 19 c1 8b bd
       -0.057789847 -0.1739625 -0.05611063 -0.0682394
000120 7e 8b f3 3c e7 7a 90 bd 74 65 d0 bd ea 4f 03 3f
       0.029729601 -0.07054692 -0.10175601 0.51293814
000130 51 c3 64 3e fd ae 4c 3e fb a2 af be fd 6c dc bd
       0.22340132 0.19988628 -0.34304032 -0.10762975
000140 e1 79 eb be ef 7c 38 be 75 98 4b 3e 9a 22 ea ba
       -0.45991424 -0.18016408 0.19882376 -0.0017863095
000150 9b 8f 4a be 5a a3 5e 3c a4 84 11 be 64 03 b1 be
       -0.19781344 0.013588751 -0.14210755 -0.345729
000160 ed 2d d9 bd 9c 94 b8 be 7b 77 0a bd f5 9d 99 3e
       -0.10604463 -0.3605088 -0.03380535 0.30003324
000170 4c 73 d7 3e 42 dd 3e bd 81 ae 3f be fc a1 1b be
       0.42080152 -0.046597727 -0.18718912 -0.15198511
000180 b4 23 a2 be b3 8d 95 3e d1 d8 bd bd c0 5e 07 be
       -0.31667864 0.2920967 -0.0926987 -0.13219738
000190 b3 41 dd bd 98 03 da 3e 6c f9 8a be de c9 43 be
       -0.10803547 0.42580867 -0.2714342 -0.19119975
0001a0 1a 6d eb 3e e9 f2 6c be 6e 7c b0 bd f8 ce 5f 3e
       0.45981675 -0.23139538 -0.08617483 0.21856296
0001b0 f6 6a 21 be 83 fe 06 3d 8c 0f 03 3f f4 cf 95 bd
       -0.15763459 0.032957565 0.511956 -0.073150545
0001c0 7a 4d d9 3d b5 ba a0 3e c5 2b 78 3e aa c0 81 3c
       0.106104806 0.31392446 0.24235447 0.01583894
0001d0 c0 c7 f2 3c 5a 7a 3b 3d 6a 29 50 be 17 0b a5 be
       0.029636264 0.04577098 -0.20328298 -0.32235023
0001e0 f6 b6 3e be 5c e9 0e 3f 7f 81 54 3e 42 d1 c4 3e
       -0.18624482 0.5582483 0.20752524 0.384409
0001f0 28 e8 e2 bd 52 57 98 be 44 ca fd 3e 84 72 fe 3e
       -0.110794365 -0.2975412 0.4956838 0.49696743
000200 68 3d 6d be 92 f5 24 3f 5b 40 c0 3d 85 39 03 bf
       -0.23167956 0.6443721 0.09387275 -0.5125964
000210 6b 58 82 be 63 dd 0e be b8 78 ae 3e 8e 18 21 3e
       -0.25458083 -0.1395164 0.34076476 0.15732023
000220 a4 78 f4 3e 68 c2 e3 bd a3 d0 d0 be 02 e2 ce 3d
       0.47748291 -0.111210644 -0.40784177 0.10101701
000230 1a 4f 9a be 83 63 0c 3e 1e 76 8f 3e 96 11 46 be
       -0.30138475 0.13709836 0.28019804 -0.19342646
000240 33 2d ab 3e f4 4f b4 bd 75 bf d9 3e 61 24 3c 3e
       0.33432922 -0.08804312 0.42528883 0.18373252
000250 1a c2 cb 3e 32 5f 02 3e 47 45 2d 3e e1 0f ad bd
       0.39796525 0.12731627 0.16920958 -0.08450294
000260 c5 15 ac 3e c8 f2 f7 bd b0 e1 1e be 9d 3b dd bd
       0.3361036 -0.12106854 -0.1551578 -0.10802386
000270 c8 ee 7e 3e 4d e6 93 be b6 7f 0d 3e c5 0f 8c 3e
       0.24895775 -0.28886643 0.13818249 0.2735578
000280 46 0a 3c 3e 6d 8d 13 3f c2 11 4c be b6 ea 18 be
       0.18363294 0.57637674 -0.19928649 -0.14933285
000290 a8 92 99 3e 7e 1c 8f be 39 c7 04 3e fe e9 b6 be
       0.29994702 -0.27951425 0.12966622 -0.35725397
0002a0 57 06 5d bd e8 53 dc bc 30 1f e8 3e 01 e7 34 be
       -0.053961124 -0.026895478 0.45336294 -0.17666246
0002b0 d9 30 d8 3c 14 0a b6 3d 37 ae fd 3d 58 a7 e6 3c
       0.02639048 0.08888641 0.123867445 0.028155968
0002c0 44 85 cb be 81 53 43 3d d6 d4 d4 3e 25 3a 21 bf
       -0.3975011 0.047687057 0.4156863 -0.62979347
0002d0 c4 bb dd 3e 46 73 4b bc b8 4e 00 be bc fc 27 3e
       0.43307316 -0.01241762 -0.12530029 0.16405004
0002e0 1a 73 19 bd 61 b1 13 3f 0c 4e ca be 3d c8 83 3b
       -0.037463285 0.57692534 -0.3951267 0.004021673
0002f0 ba 58 90 3e f6 ec 9e be 70 46 c4 3e 15 a1 f5 3d
       0.28192693 -0.31040162 0.3833499 0.119936146
000300 66 92 a0 be cd dc 55 3e bf 2d 2d 3e a7 4a 70 be
       -0.31361693 0.2088501 0.16911982 -0.23465978
000310 7a 0b cc 3d 07 af 05 3f 86 2f 9f 3d dd c3 a8 3e
       0.099631265 0.52220196 0.07772736 0.32961932
000320 48 08 83 be d2 ab c0 3d e8 8a c5 be 89 b7 ad 3e
       -0.25592256 0.09407772 -0.3858254 0.3392909
000330 de dd a0 3e 0e 0b aa bd af ce 2d be fe 65 99 3e
       0.3141927 -0.0830289 -0.16973375 0.29960626
000340 92 0b d3 3e 7f e2 86 3e 7f b6 ec bb 41 a8 28 3e
       0.41219765 0.26344678 -0.0072239037 0.16470434
000350 75 15 cb be cf c5 79 bd dc 7d 14 3e 08 39 11 be
       -0.39664808 -0.06097966 0.14501137 -0.14181912
000360 66 9f 54 be 4a d0 3d 3f dc 2c f2 bd 32 59 a2 3e
       -0.2076393 0.7414595 -0.118249625 0.31708676
000370 1b e8 fc 3e 89 38 24 bd f9 af 52 be 73 d5 46 3d
       0.49395832 -0.04009298 -0.2057494 0.048543405
000380 22 92 c3 3e 53 de b4 be 24 94 31 be 21 9f 3d be
       0.38197428 -0.3532587 -0.17341667 -0.18517734
000390 a9 a6 3a 3c 68 64 1f 3e d9 f6 2a be c6 44 2a be
       0.011392274 0.15565646 -0.16695727 -0.16627797
0003a0 63 fb 13 3f 4e af 96 3e c3 45 7a 3d 44 c2 b2 3e
       0.5780546 0.29430622 0.061101686 0.34913838
0003b0 3a ae f5 be 3a 6e 8b bd 48 48 71 3e 91 d6 b7 be
       -0.47984487 -0.068081334 0.2356273 -0.3590589
0003c0 52 fd 70 3e 81 97 de bd b1 a8 37 3e c3 4f 66 3e
       0.23534134 -0.10868741 0.17935444 0.22491364
0003d0 4b be ec 3d 64 40 14 3e 0f 4e e0 3e e4 44 1e be
       0.11559733 0.14477688 0.43809554 -0.15455967
0003e0 61 d5 3f 3e fd 27 79 bd cd 11 03 bf 4a a6 97 be
       0.18733741 -0.06082915 -0.51199037 -0.29619056
0003f0 99 ca 61 3e 88 f2 c2 be 1a 80 95 bd 74 7d 37 bd
       0.22049941 -0.38075662 -0.07299824 -0.044797376

conv2.weight f4 [64, 128, 1, 3]
000000 6d 5c 71 be 91 72 30 3e a8 52 63 bd 45 93 0e 3e
       -0.23570414 0.17231204 -0.05549875 0.13923366
000010 19 3a 8b 3b 43 05 0c 3e 88 1d 80 be 1a 6b 73 3d
       0.004248869 0.13673882 -0.2502253 0.059428312
000020 9e d2 a0 3c e2 35 57 3d 39 c5 67 3e 37 54 72 3e
       0.01963168 0.05254162 0.22633828 0.23664938
000030 59 11 fd 3e d8 09 27 be 8b 49 27 3e 66 0b 06 be
       0.49427298 -0.16312349 0.16336648 -0.13090286
000040 89 33 0c be 8e 1d 00 be 2c 2e 43 3e 5f d8 92 3e
       -0.13691534 -0.12511274 0.19060582 0.28680703
000050 e7 51 9f 3e d3 fe 73 be 9b e5 01 be 1d a8 1a be
       0.31117174 -0.23827676 -0.12685244 -0.15103193
000060 83 e1 1f 3e 95 5c 4b 3e 07 de f7 3d 50 11 c9 3c
       0.1561337 0.19859536 0.12102895 0.024544388
000070 ee 13 88 bd ec 38 be 3d 63 61 f1 be 99 8d fa bc
       -0.06644426 0.09288201 -0.47144613 -0.030585097
000080 a1 1f 79 3e f6 1c 1b 3e fd 06 cc bd b3 53 00 3e
       0.24328472 0.15147766 -0.099622704 0.12531929
000090 2a e3 99 be d1 1f f3 bd 0c 2d 64 bd 70 b2 5b be
       -0.30056125 -0.11871303 -0.055707023 -0.21454787
0000a0 3a 0a 24 3d 69 7c 1b 3e 1a ee 64 bd 77 f9 91 3b
       0.040048815 0.15184177 -0.055891134 0.0044547874
0000b0 76 bb 53 3d 33 c3 4e be 2d 84 00 3e 89 77 89 3d
       0.05169245 -0.2019165 0.12550421 0.06712253
0000c0 4e 39 c0 3d fa f2 27 be 1f 9f 50 3e 22 a5 5a be
       0.0938593 -0.16401282 0.203732 -0.21352056
0000d0 77 fa 42 bd af c5 79 3d e3 fc 32 3e 23 af 82 bd
       -0.047602143 0.06097954 0.17479281 -0.06381061
0000e0 dd 61 08 bd d3 67 bd bd 9b d3 5a be 68 d6 01 3e
       -0.033296455 -0.092483185 -0.21369784 0.12679446
0000f0 9e cd 31 be 0c 92 44 be 08 fc 31 bd 17 35 03 3e
       -0.17363593 -0.19196337 -0.043453246 0.12813221
000100 d3 a6 77 be f4 1b 8e bd 47 69 a5 bd a7 0a a1 3c
       -0.24184732 -0.069389254 -0.08076721 0.0196584
000110 a5 7d 15 3e 32 a7 73 be 19 48 97 bd dd 42 01 3e
       0.14598711 -0.23794249 -0.073867984 0.12623163
000120 00 70 0e 3d e6 77 9c 3d 86 e3 27 3e 8f ac 30 3d
       0.03477478 0.07640056 0.16395387 0.043133315
000130 9f b1 e5 3d a2 48 5a 3e 23 06 9a be 59 c4 c9 bd
       0.11215519 0.2131677 -0.30082807 -0.098519035
000140 cd 19 f4 bc 20 d4 b7 bd 4f e8 02 be f5 e1 89 3e
       -0.029797459 -0.089760065 -0.12783931 0.26930204
000150 cb 77 f9 bd 3d a6 52 bd a8 a3 fa 3d df 28 2d 3e
       -0.12181052 -0.05142807 0.12238246 0.16910122
000160 32 86 43 3e a0 c4 ee bc 9e 56 8f bd f4 5f 99 3a
       0.1909416 -0.029146492 -0.06998943 0.001170157
000170 de 3c 68 3e e9 5f 13 3e 41 c7 0f 3c 96 0a 92 bd
       0.22679469 0.14392056 0.008775533 -0.07130925
000180 19 4d a5 be 16 3b ac 3d af 03 a2 3a 74 99 b6 3e
       -0.32285383 0.08409707 0.0012360717 0.3566395
000190 63 fe 93 3d e6 ff 79 3e 7c 72 b7 be 5e 2b 6b bd
       0.07226255 0.24414024 -0.35829532 -0.057414405
0001a0 2d 1f cb bd 82 94 a7 3e e9 ca 84 bd 24 59 51 3d
       -0.09918056 0.3273049 -0.064840145 0.0511104
0001b0 67 14 0a 3b b2 2b 1a bd 14 c5 d1 3d e4 e7 e3 bc
       0.002106929 -0.037639327 0.10242668 -0.027820535
0001c0 c8 b4 e4 bd 89 a3 83 3e d2 b8 06 3d 3b 97 56 be
       -0.11167294 0.25710705 0.032891102 -0.20956127
0001d0 9a 79 5d 3e 0a 64 a5 bd 66 14 96 bc fa 4c 2e 3d
       0.21628419 -0.080757216 -0.018320274 0.04255388
0001e0 24 70 2a be 45 83 66 be 60 bd 29 be b8 33 d4 be
       -0.16644341 -0.22511013 -0.16576147 -0.41445708
0001f0 48 27 12 be 97 d3 54 3e a8 75 a8 be c3 eb 0b bd
       -0.14272797 0.2078384 -0.32902265 -0.034160387
000200 83 4c 1a 3d 3e cd b0 bd 06 10 47 3d 9b 25 e6 3d
       0.037670624 -0.08632897 0.048599266 0.112376414
000210 5e 20 e5 3e c9 0e a9 bc 88 c0 b7 3d ac 3d 48 3c
       0.44751257 -0.020636933 0.08972269 0.012221735
000220 dd b9 49 bc 42 45 14 3e 6c 3a 48 be 4b 2d 0c be
       -0.01231238 0.14479545 -0.19553536 -0.13689153
000230 61 ec b3 3d 58 bb fb bd 8a 95 70 bd 55 d8 a4 bd
       0.0878532 -0.12291592 -0.05873636 -0.080490746
000240 a5 0c 57 be c0 18 9f bd 97 25 20 bb 1d a1 a3 3e
       -0.21000917 -0.077683926 -0.0024436468 0.31958857
000250 d3 20 8b bd dc 83 92 3e cb ab 3f be 67 eb ee 3d
       -0.0679337 0.28616226 -0.18717878 0.11665993
000260 b2 6b 07 bd 89 b4 ae be 9c 86 84 be c4 1c aa bd
       -0.03306169 -0.34122112 -0.2588395 -0.08306268
000270 da 72 6c be 26 67 e3 bc 2d c0 56 be dc b7 c8 3d
       -0.23090687 -0.027759146 -0.20971747 0.098006934
000280 bc 0c 62 3e 0e 73 38 3c 48 52 bf be 9d fb 1d be
       0.2207517 0.0112579 -0.37367463 -0.15428014
000290 9a f6 ca 3d 31 df 0c bd 7d 14 a5 be b4 15 bb be
       0.09910317 -0.03439254 -0.32242194 -0.36539996
0002a0 b2 45 44 3e 3d 35 19 be bf 45 29 be ad c4 b8 be
       0.19167212 -0.14961715 -0.16530512 -0.36087552
0002b0 85 d0 96 be d0 06 08 be b8 91 20 be 37 d0 d1 bc
       -0.29455963 -0.13283849 -0.15680587 -0.02561198
0002c0 c4 e1 31 be f8 3b 7c 3c 4a 7b 46 be 7e a6 b6 bd
       -0.17371279 0.015395157 -0.19382969 -0.089184746
0002d0 c7 a2 04 bf 41 a8 6f be 9d b3 00 be cb 87 ca 3d
       -0.5181088 -0.23404028 -0.12568517 0.09889182
0002e0 b1 bd a4 3d 0c 01 b3 bc ea a4 96 3e 90 6f e4 3d
       0.08043993 -0.021851085 0.29422694 0.11154091
0002f0 4d 3a 97 3e 5d 7a fb 3c b0 c8 09 3e af c7 42 3d
       0.29536667 0.030697996 0.13455462 0.047553714
000300 f9 16 d6 bd 28 4c 38 3d 02 94 0a be a2 88 a3 3e
       -0.104536004 0.044994503 -0.13533023 0.3194018
000310 92 cb 19 3e 54 5a 88 3e 32 3c ae be 21 87 84 be
       0.15019062 0.26631415 -0.340303 -0.25884345
000320 8c 6e 15 be e3 e5 c7 bd 47 7b bc bd 17 53 1c be
       -0.14592952 -0.09760644 -0.09203201 -0.15266071
000330 37 46 56 3e 2f 9c 0b 3e af 59 8a 3e d7 89 a8 be
       0.20925222 0.13633798 0.27021548 -0.32917663
000340 3a 73 de bd 5a 38 03 3e aa da fe 3d 3e 67 aa bc
       -0.108618215 0.12814465 0.124440506 -0.020801183
000350 00 d7 2e 3e 4c 20 05 3e 16 88 7a 3c 8c 80 55 3e
       0.17074203 0.13000602 0.0152912345 0.20849818
000360 e8 fb a1 be 41 54 24 be 93 e5 1c bd 57 bd 23 3e
       -0.31637502 -0.16047765 -0.038304877 0.15990196
000370 9c 9b 40 be 71 75 fd bb 66 07 af be ba 0c b8 be
       -0.1880936 -0.0077349474 -0.34185332 -0.3594721
000380 ba 27 15 3c f1 b9 96 3a 41 a1 bc bd bc af 87 bd
       0.00910371 0.0011499507 -0.09210444 -0.066253155
000390 73 e3 23 3e d2 55 65 be 1d b6 00 3e 05 be 7e 3d
       0.16004734 -0.22396019 0.1256947 0.062192935
0003a0 71 77 dd 3c 51 9e 96 3d 6a 53 8b be 29 7a 0b 3d
       0.027034493 0.07354415 -0.27212077 0.034052048
0003b0 93 71 17 be 44 42 4c 3c 51 db 0f bd f5 40 d2 39
       -0.14789419 0.012466971 -0.035121266 0.00040102718
0003c0 f2 86 27 3e fb 8f 34 3e 59 f3 80 3e 0a 07 81 be
       0.16360071 0.17633049 0.2518566 -0.25200683
0003d0 e3 41 c9 3b b0 f6 95 38 5b d2 49 be 61 8d f7 bd
       0.0061418875 7.150823e-05 -0.1970915 -0.12087513
0003e0 43 72 06 3c dd 71 0b 3e 3c ac 07 3e 5f 42 10 3d
       0.008205953 0.13617654 0.13249296 0.035219546
0003f0 bf e7 e9 be e4 ee 34 be 1a 12 bf bd b0 a7 d0 bd
       -0.4568462 -0.17669255 -0.093296245 -0.10188234

conv3.weight f4 [32, 64, 1, 11]
000000 2b 27 e6 3e 23 7d 1c bd f4 08 8b 3d 39 cb 15 be
       0.44951758 -0.038205277 0.06788817 -0.14628305
000010 8b 3c a8 3d 0d bd e1 3c e0 c8 5d 3e 9f 2a 23 bc
       0.08214673 0.027555967 0.21658659 -0.009958892
000020 d4 e1 19 3e a6 9c 18 3d 92 fa 19 3e cb e3 2c 3c
       0.15027553 0.037258767 0.15036991 0.010552357
000030 73 9a e0 3c 50 2d 9d bb 04 94 c0 3b e5 73 1e 3c
       0.027417397 -0.0047966614 0.00587702 0.009671186
000040 7d 47 3c 3c 44 36 90 bc 61 83 f7 bc a2 e0 9c bc
       0.0114916535 -0.017604 -0.030214014 -0.019150082
000050 df 6e 83 3a 9b 2f 2a bd 2b a4 96 3c b1 51 3c bd
       0.0010027549 -0.041549306 0.018388828 -0.045976344
000060 48 64 94 3d 17 4f 82 3c 04 a6 e0 bc 06 03 08 3d
       0.0724569 0.015906854 -0.027422912 0.03320601
000070 86 a1 4e 3c aa 10 8a bb 04 3d d9 3b 04 53 05 bd
       0.012611752 -0.0042134123 0.006629588 -0.032549873
000080 75 cb b9 3c 4c fb 4a 3d 92 c3 84 3e 23 b9 1e 3e
       0.022680024 0.04955606 0.25930458 0.15500312
000090 ca 1b e4 bc eb 40 cc bd 90 5e 31 3e 1c b6 3b 3e
       -0.027845282 -0.099733196 0.17321229 0.18331188
0000a0 9b c7 24 bd 4c 63 3f be d0 a7 e0 bd 9f 1a 0b 3e
       -0.04022942 -0.18690223 -0.10969508 0.13584374
0000b0 dc 67 78 bd 37 63 a3 3e 72 e9 03 3e 5b c8 44 be
       -0.060645923 0.31911632 0.12882021 -0.19217055
0000c0 85 80 ae bd d5 73 a3 3e b5 10 11 3e dd aa a4 bd
       -0.08520607 0.3192431 0.1416653 -0.08040402
0000d0 00 40 c8 bd 20 2d 0b 3e a5 b5 a6 bd ba 40 42 3f
       -0.09777832 0.13591433 -0.08140115 0.75880015
0000e0 15 1b dd bc 8a 34 54 3e d4 61 7a bb 1b 48 19 3e
       -0.026990453 0.20723167 -0.0038205283 0.14968912
0000f0 b8 9e 91 bd c8 03 58 3e 58 31 17 be 4a 7a 26 3e
       -0.07110351 0.21095192 -0.14764917 0.16257587
000100 80 d8 8e bb b8 6b 90 3e c8 c5 3d 3d 65 85 85 3c
       -0.004359305 0.28207183 0.046331197 0.016298959
000110 61 13 0a 3d 76 2a b7 bc 1f 89 03 3d d0 46 3f 3c
       0.033709887 -0.022359114 0.03211319 0.011674598
000120 56 a5 d0 3c 25 a4 86 3c b0 31 b7 bc 93 af 22 3c
       0.025469463 0.016435692 -0.02236256 0.0099295555
000130 fc a7 a2 bc 55 2e 67 3c 97 07 c7 bc a2 3f 30 bc
       -0.019855492 0.0141101675 -0.024295611 -0.010757359
000140 b4 76 de bc 30 d8 0e 3c 98 27 9f 3c f9 f9 27 3c
       -0.027156211 0.008718535 0.01942806 0.010252469
000150 b1 fd 88 3c d8 18 bc bc 98 e4 24 3d 8f 42 ef bb
       0.016722532 -0.022961065 0.040257066 -0.0073016356
000160 5b ae 25 3d 6b 5f b4 3b ed c8 f7 3b 53 22 41 3c
       0.04044948 0.005504539 0.007561794 0.011787969
000170 eb 58 84 3b 4c 1b 4d bc a5 e2 23 3c ae a8 f8 3b
       0.00403892 -0.012518715 0.010002767 0.0075884676
000180 59 00 db 3b 0c 26 f7 3b bc 20 97 3b a0 15 89 bb
       0.006683391 0.0075423773 0.0046120565 -0.004183486
000190 8e fe 6f 3c 7b 54 80 bc a1 b2 f8 bc ef f7 26 bd
       0.014648093 -0.015665283 -0.030358614 -0.04076379
0001a0 07 c6 c6 3c 90 16 c6 bc 17 87 2b 3c 7d cb a7 b9
       0.024264349 -0.02418068 0.01046922 -0.00032004333
0001b0 c2 28 9e bc 38 64 53 bc de 11 83 3c dd f2 fd bc
       -0.019306544 -0.012902312 0.01599973 -0.030999595
0001c0 77 8b 7a 3c 8f 9a a2 3c 5e 81 61 bb 91 c5 8f 3c
       0.01529204 0.01984909 -0.0034409384 0.017550262
0001d0 85 b2 32 bb 90 10 ca bc c6 0e 0a bd e7 33 0c 3c
       -0.002726705 -0.0246661 -0.033705495 0.008557296
0001e0 bb 74 f2 bc 93 39 b3 bc 35 86 42 3e 74 6f 73 3e
       -0.029596677 -0.02187804 0.18996508 0.23772985
0001f0 a0 44 5d 3d 59 71 44 be 8d 22 a2 3d 9a 55 dc 3d
       0.054020524 -0.19183864 0.07916746 0.10758515
000200 6c d5 aa bd 61 97 c6 bd 18 7c 0a bc aa 4b b0 3d
       -0.08341488 -0.09696842 -0.008452438 0.08608182
000210 b2 0d dd 39 17 ea 03 3c a8 af 85 bc ca 47 c7 3c
       0.0004216261 0.008051417 -0.016319111 0.024326224
000220 b7 5d 0f bd 0f ba b6 bb 7a 16 a5 3c a1 12 ff bc
       -0.035001483 -0.005576379 0.02015232 -0.031136813
000230 7b 5b 03 3a bc 7a b4 3c 4e 72 31 3d 42 9a c4 3d
       0.0005010885 0.02203118 0.0433219 0.09599735
000240 fa 98 25 3e 77 f6 84 3e 95 0d 59 bd b6 24 d2 bd
       0.16171637 0.25969288 -0.05299147 -0.10260908
000250 95 6e b3 3d 85 57 1d 3e d2 f7 8b bb 97 ab 0b be
       0.08761326 0.15365417 -0.004271486 -0.13639675
000260 4e 8d df bd 3b c8 2a 3e f0 38 ff bc 5e 87 84 3e
       -0.109156236 0.16677944 -0.03115508 0.25884527
000270 78 e3 e1 3e e3 cf 8f 3d 98 7a 1a bd 09 d2 17 be
       0.44118857 0.07022073 -0.03771457 -0.14826216
000280 b7 0e e9 be 90 13 96 ba 92 ec 01 bf b0 c3 07 bf
       -0.4551904 -0.0011449922 -0.507516 -0.5303297
000290 e3 0a ac bd 2f e0 31 3c 0f 98 9e 3b f7 23 ab bc
       -0.08400514 0.010856672 0.004839904 -0.020891173
0002a0 ea 63 8a bb 21 41 72 3b 0e 6a 2f 3c e7 3d 7e bc
       -0.0042233365 0.003696509 0.010706438 -0.015517688
0002b0 e0 92 33 3d 34 fd a0 3b f3 23 a4 3b c5 ed 9f 3c
       0.043841243 0.0049129967 0.0050091683 0.019522557
0002c0 48 c2 c2 bc 95 ea 0b 3d 3b d2 41 bd a9 c8 46 bd
       -0.023774281 0.03415926 -0.047319632 -0.04853121
0002d0 52 93 ae bc 05 06 83 3c dc 37 90 bd 86 15 12 bb
       -0.021310482 0.015994081 -0.07041904 -0.002229066
0002e0 bf 33 9e bc ce 41 22 3d ec f1 96 bc 6a fc f3 bc
       -0.019311784 0.039613537 -0.018425904 -0.029783446
0002f0 dd 1f b3 bc 6d f6 01 ba 43 22 c3 bc bb 0d ea bc
       -0.02186578 -0.000495768 -0.023820048 -0.028571
000300 44 a3 df bc 2f a6 c7 3c 47 2c cb 3c bf a5 36 3c
       -0.02729953 0.024371235 0.024801387 0.011147915
000310 02 d0 20 bb b5 7a 2f bc ea c6 27 3d 60 fb 1e bb
       -0.0024538045 -0.010710408 0.040961184 -0.0024258718
000320 ee 11 5c bc b0 6d e4 3c cb 87 19 bc b8 9a ae 3b
       -0.013432009 0.027884334 -0.0093707545 0.0053285025
000330 3b ed 16 bd a5 c5 43 3c 48 76 b6 3c 28 30 fc bc
       -0.036847334 0.011948978 0.022273198 -0.030784681
000340 93 e1 26 bd 3b b7 0f bd 26 a4 77 3c 01 4c 0d 3b
       -0.040742468 -0.03508685 0.01511482 0.0021560194
000350 1e 6d 9d bc c5 7b 96 bc d3 a9 06 bd 3a dc 6b bc
       -0.01921707 -0.018369565 -0.0328768 -0.014395768
000360 3a 2e b8 bc cf 16 08 bd 61 d0 95 bb 2d ff 23 bc
       -0.02248298 -0.033224877 -0.00457196 -0.010009569
000370 94 8b 0f 3c 1e e2 86 3c fd 4e ac 3c 64 76 aa 3b
       0.008761305 0.016465243 0.021033758 0.0052021015
000380 c8 14 f5 3b fa 09 3d bc d6 68 a5 3c 6d ea 0f 3c
       0.007479284 -0.011538023 0.020191591 0.008783919
000390 38 76 e4 3b 0b 53 1a bd ec 69 d4 3c 0c d3 23 bd
       0.0069721006 -0.037676852 0.025929414 -0.03999619
0003a0 be 7c cf 3b 43 f8 da bc a2 c1 12 3d ff 43 92 3c
       0.006332009 -0.026729709 0.035829194 0.017854689
0003b0 7a 7f 52 bc 34 85 bc 3b 7f 8f cf 3c 8d 4f 90 bc
       -0.012847776 0.0057531837 0.025336979 -0.017616058
0003c0 f4 38 e4 3c 90 d8 35 3d c6 4b c3 3d 9e 80 03 3e
       0.027859189 0.044395983 0.09535937 0.12842032
0003d0 95 f9 49 3e 9f 6d ae ba d4 96 50 bd 20 3d 39 3d
       0.19724114 -0.0013307816 -0.05092509 0.04522431
0003e0 f1 2a fd 3d e7 1a 97 bb cb 05 df ba c6 58 fe bd
       0.12361706 -0.0046113613 -0.0017015276 -0.12419276
0003f0 36 11 cf 3d 7d 01 b6 3e 3a 08 c6 bd 40 7d 66 3c
       0.101107046 0.3554801 -0.09669538 0.014067948

conv4.weight f4 [1, 32, 1, 1]
000000 6b 6f af 3f 0d e1 b6 3f 25 ae 55 be 93 56 30 3a
       1.3705877 1.428743 -0.20867212 0.0006726768
000010 ea 49 01 be 9f c1 9b 3d 37 32 b2 3f 20 0d 6f 3c
       -0.12625852 0.0760529 1.3921574 0.014590532
000020 25 09 eb 3f ab 18 ec be 80 d9 1a bd 84 0a 94 3b
       1.8362166 -0.4611257 -0.03780508 0.004517855
000030 5e ef 4d bd c4 25 6c 3e 27 16 b4 3f 2f f7 b1 3f
       -0.050277106 0.23061281 1.406926 1.390356
000040 35 42 82 be ea 94 5d be fc 7f 69 bc 0e b3 b0 3f
       -0.25441137 -0.21638837 -0.014251705 1.3804643
000050 c0 61 36 be 0b 73 bc 3f 77 47 13 3e f8 6a 15 be
       -0.17810726 1.4722608 0.1438273 -0.14591587
000060 26 1c e7 3e 96 65 6c bd 1e b1 90 3c f6 2a 4f bf
       0.45138663 -0.057714067 0.017662581 -0.8092493
000070 9e bb b9 3f 54 a4 2b bd c9 45 ca 3f 60 67 dc 39
       1.4510381 -0.041904762 1.5802547 0.0004203869

exp_avg f4 [128, 4, 1, 3]
000000 aa 02 f8 b8 a5 7d 9e b9 89 2e 95 b9 ee 6d 5b b9
       -0.00011826058 -0.0003022972 -0.00028454166 -0.0002092642
000010 37 d3 90 b9 07 cf 88 b9 a2 24 8b b9 a8 2b a6 b9
       -0.00027623188 -0.0002609419 -0.0002653944 -0.00031694514
000020 f5 50 cd b9 90 64 86 b9 ce c7 8c b9 0d 1b b6 b9
       -0.00039160965 -0.00025633397 -0.00026851747 -0.000347339
000030 15 12 ce 38 ef 13 75 38 5e cb fa 38 ed b3 b9 b6
       9.8262135e-05 5.8431116e-05 0.00011958809 -5.5343758e-06
000040 7b be f2 36 84 45 e0 38 80 92 ae 38 78 03 94 38
       7.234337e-06 0.00010694101 8.324254e-05 7.057836e-05
000050 8e b3 3e 39 51 2c 01 38 52 7d f9 37 7a 13 cf 38
       0.00018186701 3.079727e-05 2.974147e-05 9.874157e-05
000060 60 ee 13 b8 53 e9 b5 37 fd cd e4 36 2a fc 39 38
       -3.5269535e-05 2.1685531e-05 6.8189097e-06 4.4342283e-05
000070 87 cf 4c 38 8d 84 aa 37 d8 37 7f b8 c7 f1 dd 36
       4.8830665e-05 2.0327303e-05 -6.0848746e-05 6.61446e-06
000080 71 1d 9a b7 f0 21 8f 36 f3 25 4b 37 bd dd 6e b6
       -1.837194e-05 4.265683e-06 1.2108579e-05 -3.5593832e-06
000090 cf 3a a0 b8 2e 57 4f b9 8f 48 a8 b9 5b 84 35 b9
       -7.6403485e-05 -0.00019773535 -0.00032097517 -0.00017310811
0000a0 00 ff 7c b9 a1 76 ab b9 ef df 1f b9 d0 39 9d b9
       -0.00024127588 -0.00032704047 -0.00015246843 -0.00029988447
0000b0 35 19 d2 b9 f2 46 36 b9 e9 12 94 b9 7f 07 dd b9
       -0.00040073102 -0.00017383302 -0.0002824285 -0.0004215799
0000c0 60 33 04 39 5a 84 26 b3 ed 80 c0 b8 2e 30 b5 b8
       0.0001260764 -3.877026e-08 -9.179288e-05 -8.639727e-05
0000d0 80 61 ca b8 d3 c3 2e b9 77 1a df 38 fb c3 af b8
       -9.6502714e-05 -0.00016666883 0.00010638398 -8.3811545e-05
0000e0 41 90 de b7 9a 04 c4 b7 84 64 1f b9 16 30 89 b8
       -2.6531636e-05 -2.3367164e-05 -0.00015200867 -6.541626e-05
0000f0 dd 90 d2 b8 b6 26 84 b8 bc 7b ae 37 8f 19 fc b7
       -0.00010040563 -6.301461e-05 2.0800035e-05 -3.0052643e-05
000100 83 ca 85 b2 8d eb 9e 38 f5 ad 08 b9 f2 90 83 b8
       -1.557533e-08 7.577902e-05 -0.00013034775 -6.273565e-05
000110 a5 7b 3f 38 d8 7c a5 b8 1b 42 49 b7 9f cc a6 38
       4.56531e-05 -7.891067e-05 -1.1995925e-05 7.9536105e-05
000120 52 a3 a7 b8 14 17 8a b9 d8 7c c0 b9 0e ba 4c b9
       -7.993601e-05 -0.00026338606 -0.0003671411 -0.00019524267
000130 c0 78 b3 b9 81 6a c0 b9 e4 3d 18 b9 d6 a5 e3 b9
       -0.00034231506 -0.00036700445 -0.00014518906 -0.0004342037
000140 b2 c7 fe b9 fb b7 66 b9 25 3e e9 b9 b7 dd e0 b9
       -0.0004859544 -0.00022003047 -0.00044487524 -0.000428898
000150 c8 26 69 b8 e4 55 f6 b4 6b 1c 97 38 0b e5 ee 35
       -5.5587647e-05 -4.5883564e-07 7.205534e-05 1.7799042e-06
000160 7f 1a 39 38 a0 61 d8 38 28 8a 33 b8 c8 42 dd 37
       4.4132114e-05 0.00010317867 -4.2805594e-05 2.637635e-05
000170 65 8c c3 38 8c 05 b4 35 4f ad 6c 38 07 87 06 39
       9.324475e-05 1.3412659e-06 5.642819e-05 0.00012829537
000180 6d 41 02 38 de 23 45 36 d4 55 9d 38 e9 b8 a6 b7
       3.1055348e-05 2.9376165e-06 7.50233e-05 -1.9874848e-05
000190 e6 b9 e7 b5 a4 7f 7e 38 9e c6 55 37 81 31 6d 37
       -1.7264945e-06 6.0677194e-05 1.27420335e-05 1.4137827e-05
0001a0 72 b1 94 38 81 24 7f b6 02 42 63 b6 e8 ed 4e 38
       7.090242e-05 -3.801921e-06 -3.3864058e-06 4.9335795e-05
0001b0 7a d5 17 37 49 dd 19 38 a3 6a 0e 38 05 51 25 38
       9.050005e-06 3.668413e-05 3.395475e-05 3.941452e-05
0001c0 fb fa a4 37 18 ec 5c 38 51 98 e4 b7 9b f9 dd b7
       1.9667195e-05 5.2671967e-05 -2.7250646e-05 -2.6461485e-05
0001d0 c4 08 01 37 13 df 67 35 d3 5f 12 36 be 97 fa 37
       7.69104e-06 8.637882e-07 2.1811472e-06 2.9872983e-05
0001e0 1c b7 2c b8 18 5d 06 b8 d4 a5 16 38 03 73 9e b8
       -4.117853e-05 -3.203479e-05 3.5917226e-05 -7.55545e-05
0001f0 e7 40 b9 b8 92 ff a3 b7 25 f5 3f b7 06 8a f7 37
       -8.8335764e-05 -1.9550123e-05 -1.1441564e-05 2.9508967e-05
000200 c1 79 99 38 86 e8 0b b8 89 8d a4 b7 b1 7e 10 b7
       7.318287e-05 -3.3356737e-05 -1.9616231e-05 -8.6125665e-06
000210 dc 3d e3 38 46 db 6e 37 8e 38 27 b8 d5 2b 4a 37
       0.00010835726 1.4236959e-05 -3.9868573e-05 1.2050344e-05
000220 d4 3b 57 b6 ea 66 8c b8 4e e3 6a 38 9f 70 99 b8
       -3.207232e-06 -6.6948895e-05 5.600164e-05 -7.316586e-05
000230 8c ec dd b7 af 14 94 37 2e 4c 83 b8 a3 6a 54 b8
       -2.6455404e-05 1.7652606e-05 -6.260756e-05 -5.0644052e-05
000240 fd fa 52 37 78 1d 16 35 37 9e 6d b8 36 07 f2 b7
       1.2575413e-05 5.5922237e-07 -5.6652552e-05 -2.8852006e-05
000250 ed b1 45 b8 b3 37 d4 b8 90 b0 c7 37 11 f8 d3 37
       -4.7134166e-05 -0.000101193225 2.3804867e-05 2.5268675e-05
000260 b7 07 1c b8 c0 e8 4d b7 08 ab 4b b7 fe 9f cb b8
       -3.7200483e-05 -1.22731435e-05 -1.2139564e-05 -9.709595e-05
000270 ce a3 9a b8 12 a4 91 b8 5d 7d 81 b8 71 d1 67 b8
       -7.373803e-05 -6.944699e-05 -6.17455e-05 -5.526975e-05
000280 34 25 c4 b8 b8 ff 27 b8 15 d9 31 b9 5e 68 2e b9
       -9.352938e-05 -4.005406e-05 -0.00016960905 -0.00016632813
000290 da 35 74 b9 2a dd 02 b9 22 f4 2a b9 0a aa 36 b9
       -0.00023289715 -0.00012480156 -0.0001630341 -0.00017420217
0002a0 64 38 b1 b8 07 ae 06 b8 fe 0b cc b8 b3 66 13 b9
       -8.450521e-05 -3.2110165e-05 -9.729712e-05 -0.00014057271
0002b0 8a de 02 b9 b7 44 af b8 33 b4 04 b7 9a 2a 5a b8
       -0.00012480668 -8.3574494e-05 -7.909769e-06 -5.2014926e-05
0002c0 79 c0 3b b8 76 13 9c b8 7a c2 9b b8 8f 2c 10 b8
       -4.476353e-05 -7.4422846e-05 -7.4272e-05 -3.4373774e-05
0002d0 3d 2d f4 b6 08 c3 71 b7 73 78 a0 b6 75 95 ae 37
       -7.277033e-06 -1.4410129e-05 -4.7823937e-06 2.0812013e-05
0002e0 3a 41 b7 b7 1b 7a 4f 37 58 75 16 b8 0a 3c 0b b8
       -2.1845673e-05 1.2366591e-05 -3.587207e-05 -3.31961e-05
0002f0 1a 9c 03 b8 7c 8e 74 36 c5 bc 84 b8 4f 81 b3 b6
       -3.1378215e-05 3.644177e-06 -6.3294116e-05 -5.349669e-06
000300 ea 2f a0 38 4b eb 58 38 e1 11 11 38 ee 98 37 38
       7.638319e-05 5.1717547e-05 3.4587345e-05 4.3773027e-05
000310 99 95 17 38 70 40 ca 37 26 c9 34 38 d6 8e 1c 38
       3.614053e-05 2.4110283e-05 4.310268e-05 3.7326325e-05
000320 37 64 c0 37 7c fe d2 37 ef 7b 15 38 b9 f8 20 37
       2.293485e-05 2.5152454e-05 3.563979e-05 9.594653e-06
000330 e5 41 6e b8 a7 d0 98 b8 bf 7c 89 b8 60 d4 c0 b8
       -5.680499e-05 -7.286789e-05 -6.555905e-05 -9.1948314e-05
000340 57 eb af b8 92 a9 96 b8 f5 31 bc b8 15 ef a6 b8
       -8.388486e-05 -7.184142e-05 -8.973844e-05 -7.960029e-05
000350 1d 5a e3 b8 55 c3 a5 b8 61 8a bd b8 fe 0e fc b8
       -0.000108409884 -7.9041965e-05 -9.0379974e-05 -0.00012019089
000360 75 4c 0f 39 30 6b c5 b7 8e 3a 4c b8 b9 aa 7f 38
       0.00013666025 -2.3534143e-05 -4.8691923e-05 6.0955736e-05
000370 29 c1 7a 37 a9 e2 1f 38 ca e6 67 b7 57 dd c2 b8
       1.4946135e-05 3.8119648e-05 -1.3822408e-05 -9.2918686e-05
000380 30 1b 0a b9 f9 5c 09 b8 5c f2 88 b8 e5 c5 96 b8
       -0.00013170834 -3.2749933e-05 -6.530128e-05 -7.189418e-05
000390 36 81 00 b8 8d b8 64 b8 84 b1 c6 b8 da 2b a2 b8
       -3.0637915e-05 -5.4531312e-05 -9.4744406e-05 -7.73293e-05
0003a0 bd 4c e1 b8 56 8d a8 b8 ac f1 82 b8 55 f3 0b b9
       -0.0001074313 -8.03719e-05 -6.243898e-05 -0.00013346721
0003b0 65 31 b8 b8 c9 0d c1 b8 ed 94 cc b8 d8 75 bb b8
       -8.783004e-05 -9.205525e-05 -9.7552176e-05 -8.938805e-05
0003c0 2f 54 86 37 e9 57 2a 38 6e c9 9b 38 27 be 82 b7
       1.6013246e-05 4.061303e-05 7.428495e-05 -1.5585754e-05
0003d0 a9 93 8f 37 45 98 1f 38 96 9a 84 38 b7 7b af 38
       1.7115688e-05 3.8050366e-05 6.323044e-05 8.367694e-05
0003e0 9a 24 f3 38 72 1c 29 38 90 77 7f 38 06 04 7e 38
       0.000115939605 4.031923e-05 6.090809e-05 6.0562066e-05
0003f0 99 c7 15 b7 e4 22 91 b7 a0 c9 90 b8 95 07 0f b7
       -8.9275645e-06 -1.7301594e-05 -6.904011e-05 -8.5252295e-06

exp_avg_sq f4 [128, 4, 1, 3]
000000 11 e3 40 34 6d 64 f0 34 31 af 57 35 36 b2 67 34
       1.7964e-07 4.4776553e-07 8.034868e-07 2.1578384e-07
000010 38 0b ea 34 06 13 37 35 81 19 f0 34 2e 29 6e 35
       4.359406e-07 6.8200495e-07 4.472204e-07 8.8721833e-07
000020 86 98 9c 35 e4 6a d9 34 56 e1 3f 35 3b 8d 76 35
       1.1667296e-06 4.0497173e-07 7.148095e-07 9.184766e-07
000030 83 fb 15 35 f5 1c 19 35 40 26 20 35 03 6a 06 35
       5.5872823e-07 5.703908e-07 5.9660306e-07 5.007316e-07
000040 2a e0 fa 34 64 13 fe 34 91 94 41 35 97 07 49 35
       4.672923e-07 4.7325295e-07 7.2114295e-07 7.488938e-07
000050 4a aa 5d 35 3e c5 20 35 8c b5 1a 35 0f 04 27 35
       8.257672e-07 5.989167e-07 5.7633656e-07 6.2218254e-07
000060 74 6b f4 34 88 87 e4 34 a7 18 f5 34 7b 2c e4 34
       4.5526724e-07 4.256692e-07 4.5652743e-07 4.2500673e-07
000070 5c 21 09 35 2d 0d 0d 35 a6 73 0e 35 03 63 f9 34
       5.108502e-07 5.2545766e-07 5.3067413e-07 4.6451905e-07
000080 7c b6 db 34 92 a8 f2 34 87 b8 ff 34 c9 7f ec 34
       4.0924704e-07 4.5198664e-07 4.7631713e-07 4.4051401e-07
000090 a6 e7 ba 35 a9 88 10 36 86 a5 50 36 c4 4c bd 35
       1.3925498e-06 2.1537219e-06 3.1090763e-06 1.4103939e-06
0000a0 12 4b 14 36 96 9a 47 36 f7 73 17 36 d4 8e 5e 36
       2.2097415e-06 2.9743292e-06 2.2568254e-06 3.3163715e-06
0000b0 14 74 8b 36 7a ac 07 36 a9 56 45 36 75 a2 6d 36
       4.156036e-06 2.0216962e-06 2.940573e-06 3.5410314e-06
0000c0 27 a9 cc 35 d5 15 25 36 8e f9 41 36 dd f1 b0 35
       1.5248414e-06 2.4599624e-06 2.89045e-06 1.3183413e-06
0000d0 8c 44 fe 35 a9 a3 3b 36 e8 0c 2f 36 33 64 67 36
       1.8944424e-06 2.7960434e-06 2.6084545e-06 3.4480006e-06
0000e0 1f fb ab 36 99 77 14 36 aa 58 2d 36 31 e2 8f 36
       5.1254315e-06 2.2123334e-06 2.5830618e-06 4.2880642e-06
0000f0 a5 59 1a 35 ea 65 1d 35 cc 68 4b 35 63 74 d4 34
       5.749992e-07 5.863536e-07 7.577589e-07 3.957276e-07
000100 28 5a f6 34 e1 2b 2f 35 b8 12 75 35 fb 62 87 35
       4.5886668e-07 6.525643e-07 9.129685e-07 1.0087091e-06
000110 b6 8f 9d 35 83 91 24 35 71 b1 47 35 2d 05 72 35
       1.1739237e-06 6.130651e-07 7.439149e-07 9.0159557e-07
000120 98 fd 85 36 63 a3 c9 36 91 8a 01 37 52 5d 8c 36
       3.993231e-06 6.0092875e-06 7.721262e-06 4.183189e-06
000130 d2 fe cc 36 df 5e 06 37 06 fe cf 36 05 1f 09 37
       6.1093388e-06 8.009111e-06 6.198653e-06 8.173059e-06
000140 e3 1c 2c 37 da da bd 36 7e 98 f5 36 48 d8 1e 37
       1.0258725e-05 5.6581166e-06 7.3193214e-06 9.467891e-06
000150 41 fe b3 35 7a 06 be 35 01 5a bb 35 9f bd 6c 35
       1.3410537e-06 1.4157988e-06 1.395878e-06 8.8192786e-07
000160 bc 86 7c 35 68 78 72 35 c3 0f 0f 36 26 94 08 36
       9.407338e-07 9.032724e-07 2.1317835e-06 2.0351813e-06
000170 7f 41 05 36 e2 46 c3 35 fd c8 c0 35 a4 e2 b5 35
       1.9856668e-06 1.4549262e-06 1.436361e-06 1.3551512e-06
000180 57 4d 57 35 1a e2 78 35 09 b6 77 35 f3 9b 2e 35
       8.0206286e-07 9.271622e-07 9.2279566e-07 6.504699e-07
000190 7b 99 58 35 e4 57 5f 35 45 5f a8 35 65 a5 a6 35
       8.0689614e-07 8.320187e-07 1.2544702e-06 1.24161e-06
0001a0 9a 3a 9b 35 ce 27 79 35 e7 d8 80 35 0a 62 8b 35
       1.1565455e-06 9.281765e-07 9.59987e-07 1.038484e-06
0001b0 1f 94 38 33 b7 4c 30 33 17 7b 1f 33 d2 09 73 33
       4.2975554e-08 4.1047965e-08 3.7132022e-08 5.6586778e-08
0001c0 b3 14 55 33 0b f0 be 33 19 2e 4b 33 10 50 44 33
       4.9611753e-08 8.891228e-08 4.7306546e-08 4.5707623e-08
0001d0 37 be a9 33 62 9b 44 33 09 d1 10 33 69 16 fd 33
       7.9042756e-08 4.5776126e-08 3.371773e-08 1.1785307e-07
0001e0 21 d5 49 34 94 ec 2d 34 85 cc eb 34 23 ce 87 34
       1.879712e-07 1.6197947e-07 4.3920969e-07 2.5295694e-07
0001f0 19 95 b5 34 25 20 e3 34 fb 62 1b 34 8c df 99 34
       3.382236e-07 4.2305433e-07 1.4471509e-07 2.8661123e-07
000200 45 23 6d 35 5b f4 0d 34 bf 62 ae 34 34 00 35 35
       8.8340704e-07 1.3220544e-07 3.2481873e-07 6.742805e-07
000210 5e 8a 59 35 8d c2 68 35 66 b3 80 35 7d d5 43 35
       8.104015e-07 8.6709844e-07 9.588955e-07 7.2953827e-07
000220 d6 c7 3f 35 fd cd 64 35 c7 94 86 35 bb b5 92 35
       7.1443844e-07 8.523637e-07 1.0027078e-06 1.0930738e-06
000230 c4 23 b1 35 78 d2 69 35 f5 e6 70 35 b4 6e 92 35
       1.3197937e-06 8.7105536e-07 8.9743054e-07 1.0910067e-06
000240 c8 c9 77 33 0c a4 15 33 e8 86 41 33 13 70 99 33
       5.7692688e-08 3.4840966e-08 4.505901e-08 7.145004e-08
000250 88 2a a9 33 d2 eb 15 34 b6 cb 5f 33 61 4f 3f 33
       7.877412e-08 1.3962497e-07 5.2106508e-08 4.4542848e-08
000260 ef d8 5c 33 44 2a 14 33 b9 5d 3c 33 f2 27 e1 33
       5.142004e-08 3.4497376e-08 4.38574e-08 1.0484645e-07
000270 9c 00 de 34 a1 0c df 34 e1 78 5d 34 9f 57 87 34
       4.1351166e-07 4.1546176e-07 2.0626204e-07 2.5209462e-07
000280 2a 13 3d 34 de b4 4d 34 a5 2b 62 35 6a 01 26 35
       1.7608969e-07 1.9157912e-07 8.425507e-07 6.1841877e-07
000290 f0 d3 ed 34 d9 44 e1 34 7e 34 82 34 d2 b6 bf 34
       4.4298895e-07 4.195961e-07 2.425258e-07 3.5709542e-07
0002a0 99 12 18 35 fd cd 1c 35 a7 b4 57 35 95 2c 2f 35
       5.6651476e-07 5.841428e-07 8.0356625e-07 6.5257456e-07
0002b0 c9 02 43 35 14 84 5a 35 2d 4f 20 35 fd 91 3c 35
       7.2647214e-07 8.140353e-07 5.971986e-07 7.02479e-07
0002c0 3a 34 7d 35 c9 6d 19 35 57 26 45 35 b3 4a 4d 35
       9.4325844e-07 5.71567e-07 7.344401e-07 7.647715e-07
0002d0 de df bb 34 8a 70 a8 34 e7 7f 22 34 f8 e9 9c 34
       3.499435e-07 3.1374321e-07 1.5133956e-07 2.92275e-07
0002e0 4f 1f 38 34 25 0e 27 34 23 9a 12 35 14 5d c3 34
       1.7147725e-07 1.5558233e-07 5.4613537e-07 3.6389304e-07
0002f0 1e 10 4d 34 31 69 be 34 62 8e 40 34 6a b6 11 34
       1.9097976e-07 3.5466795e-07 1.7933192e-07 1.3570539e-07
000300 03 bf b0 33 7e 15 96 33 ba f5 8f 33 e2 e9 ad 33
       8.2303835e-08 6.988829e-08 6.703654e-08 8.098483e-08
000310 27 86 a9 33 ae 65 02 34 db d4 d4 33 74 bc 90 33
       7.894078e-08 1.2144184e-07 9.9107375e-08 6.739802e-08
000320 f3 05 ae 33 73 91 9d 33 43 b1 87 33 6a 01 e0 33
       8.1035886e-08 7.337339e-08 6.318671e-08 1.043107e-07
000330 aa 7d 09 34 26 49 2f 34 f2 cc 8f 34 3c 84 24 34
       1.2804836e-07 1.6324756e-07 2.6784943e-07 1.5321797e-07
000340 c7 ef 82 34 f4 5e 92 34 00 a7 36 34 da 50 86 34
       2.4388848e-07 2.7263707e-07 1.7010825e-07 2.5018272e-07
000350 9f 02 e7 34 2f 09 32 34 51 53 71 34 6d da bb 34
       4.302901e-07 1.6580883e-07 2.2475184e-07 3.499039e-07
000360 f9 5e ac 34 23 aa 54 34 3e 94 8e 34 80 ce 61 34
       3.2106598e-07 1.9805934e-07 2.6557422e-07 2.1029882e-07
000370 a5 a5 43 34 8a 85 a2 34 21 cb b3 34 c6 e8 a8 34
       1.8221051e-07 3.0272014e-07 3.3489144e-07 3.1461803e-07
000380 a9 d5 e3 34 66 38 60 34 09 8d 7e 34 93 f3 c4 34
       4.2437503e-07 2.0882143e-07 2.3706902e-07 3.6685068e-07
000390 ff cf 52 35 ba b3 1f 35 6d e0 87 35 7c db f5 34
       7.853377e-07 5.949365e-07 1.01236e-06 4.5794502e-07
0003a0 74 27 01 35 3c 0a 61 35 12 1f 92 35 89 ce 90 35
       4.8113657e-07 8.3833925e-07 1.088689e-06 1.0788946e-06
0003b0 b7 ba f9 35 36 f1 2b 35 05 c6 65 35 b9 be c5 35
       1.8606287e-06 6.405347e-07 8.5597304e-07 1.4733151e-06
0003c0 3d fa 0f 34 d7 ed 5d 34 23 54 8f 34 84 a3 06 34
       1.3408949e-07 2.0668755e-07 2.6697043e-07 1.2539209e-07
0003d0 7c 9b 37 34 51 ae 81 34 8b f1 51 34 b9 f5 bf 34
       1.7099768e-07 2.4154954e-07 1.9552515e-07 3.575531e-07
0003e0 9b 93 dd 34 4e 36 30 34 5e d3 89 34 e0 46 b5 34
       4.1271855e-07 1.6411033e-07 2.5672028e-07 3.3765446e-07
0003f0 03 e2 87 33 72 a7 9e 33 6d dc f8 33 4c 00 c5 33
       6.327539e-08 7.3879065e-08 1.1588495e-07 9.1735814e-08

exp_avg f4 [64, 128, 1, 3]
000000 da ce a4 37 17 97 12 37 e0 a9 92 37 14 3c 96 b6
       1.9646646e-05 8.7374565e-06 1.748366e-05 -4.4773424e-06
000010 8d 1d 2c b6 5e 17 0f 37 ae bd 7a b6 05 5d 28 b6
       -2.5647198e-06 8.528905e-06 -3.736331e-06 -2.5088095e-06
000020 89 82 37 37 18 f5 cc 36 94 ef 40 37 4a 42 48 37
       1.0938043e-05 6.1082064e-06 1.1499873e-05 1.1936363e-05
000030 e4 89 9b b7 ea 55 09 36 be c9 18 36 ae b1 5b 37
       -1.854165e-05 2.04646e-06 2.2767194e-06 1.30947865e-05
000040 74 f1 de 37 28 ca 21 38 d1 64 ef 35 ee d0 9c 37
       2.6576898e-05 3.8573664e-05 1.7836229e-06 1.869394e-05
000050 44 3b 69 37 0a 19 15 37 4a 44 2c 37 9d a5 5b 37
       1.3901681e-05 8.886922e-06 1.0267899e-05 1.3091977e-05
000060 2c 87 81 b7 2f 3a ae b6 e3 eb ae 37 2f 71 8b b5
       -1.5440943e-05 -5.1923776e-06 2.085226e-05 -1.0389248e-06
000070 66 f0 a2 36 3d ba c8 36 5f 12 01 37 eb 26 f2 36
       4.8559623e-06 5.9821455e-06 7.6932765e-06 7.2166927e-06
000080 c3 64 21 37 4b 70 43 b7 ad 3a 9f 36 41 aa 80 36
       9.619808e-06 -1.1649051e-05 4.7454e-06 3.8345174e-06
000090 ce 5c 01 37 df 73 5e 36 b7 94 1a 35 47 ac 1b b6
       7.710607e-06 3.3148024e-06 5.758588e-07 -2.3197078e-06
0000a0 9f d8 52 36 b5 46 69 36 d1 56 79 36 8b 7f e8 37
       3.1418529e-06 3.4760862e-06 3.7154425e-06 2.7715947e-05
0000b0 7e 4f 62 37 26 ef 6e 36 20 bf bd b5 f5 c1 de 36
       1.3489158e-05 3.5603966e-06 -1.4137222e-06 6.638695e-06
0000c0 e7 07 cb b6 eb 24 5d b5 d0 45 6f 37 8a 11 43 37
       -6.0507914e-06 -8.238264e-07 1.4261765e-05 1.1626989e-05
0000d0 32 b4 31 37 1e 5c ec 36 b3 ad 87 b5 da fd 88 b6
       1.0591977e-05 7.044072e-06 -1.0108837e-06 -4.082668e-06
0000e0 ba 8e 40 35 bd ee bb 36 be 5a 6e 37 9d 44 48 37
       7.173327e-07 5.600827e-06 1.4207033e-05 1.1936904e-05
0000f0 e9 29 ca 36 7c ec 89 36 cc 6e f7 36 8b 81 08 35
       6.024948e-06 4.1104486e-06 7.374072e-06 5.085246e-07
000100 88 b5 75 36 f7 b3 25 36 a0 56 9f 35 e8 61 f2 35
       3.661351e-06 2.469167e-06 1.1871634e-06 1.80589e-06
000110 1f fe e2 36 d6 4d da b6 31 ad 30 36 e7 9f 13 b6
       6.7649084e-06 -6.5059676e-06 2.6326854e-06 -2.1997782e-06
000120 6a 92 1a b7 e3 a0 23 b6 b8 4e 9b 36 5c f8 62 b6
       -9.213205e-06 -2.4382541e-06 4.628524e-06 -3.3821188e-06
000130 06 fd 73 37 e6 f5 a9 36 b1 68 70 36 37 75 cf 36
       1.454284e-05 5.065219e-06 3.5823725e-06 6.1827263e-06
000140 4b ef 8c 37 ba 59 e3 b5 18 6d ea 36 fc 71 fa 36
       1.680073e-05 -1.6938932e-06 6.9864436e-06 7.46385e-06
000150 d9 69 9f b6 ad 68 2e 35 dc 76 22 37 ae 30 0e b5
       -4.7508915e-06 6.4972375e-07 9.683627e-06 -5.296996e-07
000160 2f 09 2b b6 fb 8f 35 37 d0 f7 e1 b5 24 b8 0e b6
       -2.5486331e-06 1.0821964e-05 -1.6835929e-06 -2.1266833e-06
000170 4d 03 04 37 7c 95 fb b5 77 d5 d2 36 f5 13 c2 37
       7.868582e-06 -1.8744463e-06 6.2833383e-06 2.3135895e-05
000180 f1 aa 52 36 b4 fe a1 36 83 e6 e1 b5 46 23 0f b7
       3.139194e-06 4.8278253e-06 -1.6830894e-06 -8.531677e-06
000190 3c 6d e4 34 57 f5 80 36 de 5b 69 37 2c b7 4c 35
       4.2547788e-07 3.8432586e-06 1.3909272e-05 7.626247e-07
0001a0 7a 5b 48 36 16 4a 32 b7 56 d1 73 b6 b0 58 db 35
       2.9855569e-06 -1.0626876e-05 -3.6331671e-06 1.6342583e-06
0001b0 21 99 44 b6 23 a3 5c b6 90 23 c3 37 d0 38 9e b6
       -2.9295409e-06 -3.2877513e-06 2.3262372e-05 -4.715381e-06
0001c0 88 b4 fc 37 4e df 90 37 eb 37 c2 b5 0c 52 98 36
       3.0124807e-05 1.7270122e-05 -1.4470401e-06 4.5395045e-06
0001d0 45 11 af 37 3d 8a 48 34 92 fd 9e 35 b2 51 34 36
       2.0869667e-05 1.8676742e-07 1.1845716e-06 2.6869643e-06
0001e0 eb 7a e0 36 33 f9 d6 36 41 b0 22 35 64 35 54 37
       6.6900297e-06 6.4067076e-06 6.0606186e-07 1.2648616e-05
0001f0 05 64 84 37 d7 b1 6b 37 e1 eb 53 36 28 04 c2 36
       1.5782201e-05 1.4048498e-05 3.157875e-06 5.7821344e-06
000200 a0 f9 9b 35 4c 4c 82 35 dc d4 4f 35 c0 2f 66 36
       1.162105e-06 9.70796e-07 7.742326e-07 3.4300465e-06
000210 35 bb 95 b6 68 d2 f9 b5 89 20 bc 36 8c 5d fa b6
       -4.46234e-06 -1.8613182e-06 5.606624e-06 -7.461471e-06
000220 b1 6a 58 b5 26 82 99 36 72 00 15 b7 6e 12 fe b4
       -8.0621527e-07 4.5749066e-06 -8.881196e-06 -4.7324596e-07
000230 53 5d 5f 37 25 d6 70 36 57 40 8a 36 cc 93 b2 37
       1.33135645e-05 3.5887435e-06 4.1202106e-06 2.1288077e-05
000240 88 17 75 36 14 50 6a 37 cd 60 17 38 65 f9 6e b7
       3.6521542e-06 1.39661315e-05 3.609136e-05 -1.4243972e-05
000250 c0 20 7e 36 ef 98 51 36 66 12 24 b7 28 97 2e b7
       3.7868012e-06 3.1232446e-06 -9.7794455e-06 -1.0406402e-05
000260 d4 35 8a 37 80 10 4c 37 2f 2b 52 35 b2 9c 4c 36
       1.6475948e-05 1.2163189e-05 7.8293937e-07 3.0489578e-06
000270 76 e2 17 37 ec 14 73 37 f0 02 c7 37 ff 83 30 b7
       9.053028e-06 1.44888e-05 2.3724017e-05 -1.052115e-05
000280 cc b2 f5 b6 78 a5 3a 37 34 94 f8 36 8a 74 88 36
       -7.3223837e-06 1.112499e-05 7.408229e-06 4.066683e-06
000290 5c 9b eb 36 f7 02 93 35 5c ab 9b 34 2f b6 ea 35
       7.021632e-06 1.0953216e-06 2.899568e-07 1.7487381e-06
0002a0 d8 9d 34 37 5c f1 90 35 c9 e1 12 35 66 30 83 36
       1.0765587e-05 1.0799081e-06 5.47178e-07 3.9097386e-06
0002b0 52 09 00 37 f4 ea 48 b6 15 1b 54 37 9d 7c a3 37
       7.631565e-06 -2.9939083e-06 1.264249e-05 1.9489142e-05
0002c0 41 bd cf 37 e9 5a e6 af 9c 57 73 34 4c a4 a8 b4
       2.4764451e-05 -4.1901352e-10 2.266301e-07 -3.141198e-07
0002d0 11 d1 2b 37 4c 87 d2 36 44 35 34 35 1f ca 07 36
       1.0241071e-05 6.2742383e-06 6.7132737e-07 2.0234218e-06
0002e0 de 46 ec 34 7c 31 67 37 da 7f 80 b6 72 bd 39 37
       4.4009988e-07 1.3780194e-05 -3.829581e-06 1.1070968e-05
0002f0 b3 52 11 37 77 15 73 36 79 53 83 b6 ae 0b 48 37
       8.661928e-06 3.6222316e-06 -3.9138217e-06 1.1923648e-05
000300 0b 06 6e 34 e8 1e 7b 37 45 0b 17 38 ae 4f 32 b7
       2.2167676e-07 1.4967962e-05 3.60117e-05 -1.0628179e-05
000310 b2 d3 47 36 74 0b 10 37 2e 1d bc 36 bd a8 90 36
       2.9776534e-06 8.5857355e-06 5.6062336e-06 4.311178e-06
000320 8f ec c0 35 42 4a 16 37 c8 f6 74 37 ec f9 8f 37
       1.4373962e-06 8.957986e-06 1.4600992e-05 1.7163307e-05
000330 fc 84 35 37 ac 83 d3 37 5b c3 2e 38 c6 6f 69 b6
       1.08194035e-05 2.5214475e-05 4.166677e-05 -3.4784766e-06
000340 df 33 e6 36 24 cf 18 36 4f 18 26 b6 2f 9c 09 36
       6.8605727e-06 2.2770337e-06 -2.4750077e-06 2.0505502e-06
000350 59 a0 65 37 8b ff ab b6 5b 86 76 36 9a ba 24 b6
       1.36867975e-05 -5.1259462e-06 3.6735062e-06 -2.454652e-06
000360 5e 4c ab 36 ee 46 a3 36 06 0f 4c b2 9d 1b 2a b5
       5.1050874e-06 4.866036e-06 -1.1877779e-08 -6.337012e-07
000370 f4 c9 a0 37 82 73 78 37 0d 05 5a b6 f3 4d 05 b1
       1.9167528e-05 1.4808846e-05 -3.2487471e-06 -1.9398356e-09
000380 c5 1e 61 37 14 c5 8f 35 a6 99 a7 36 51 a7 71 37
       1.3418209e-05 1.0711688e-06 4.994875e-06 1.4403676e-05
000390 1b d7 e9 35 70 e3 99 37 86 3b ca 37 c1 84 51 b7
       1.7422457e-06 1.834493e-05 2.4107994e-05 -1.248828e-05
0003a0 3e c9 cb b6 99 91 fa 36 19 1d dc 37 cb 94 fb 37
       -6.073299e-06 7.4675304e-06 2.6239593e-05 2.9990819e-05
0003b0 28 1f 27 38 24 17 51 36 2c aa 82 b6 e5 be a4 35
       3.984492e-05 3.1156897e-06 -3.8941125e-06 1.227451e-06
0003c0 2c 0e 95 37 0b f4 be 37 ff 66 22 38 40 4f a8 35
       1.7768783e-05 2.2763406e-05 3.8719732e-05 1.254004e-06
0003d0 ea dd f3 33 07 93 0e 36 97 a1 36 37 5a 7c e4 36
       1.1355935e-07 2.124523e-06 1.0885668e-05 6.809406e-06
0003e0 c0 58 0c b6 b9 cc 2b 36 79 9d d0 b4 37 46 ca 37
       -2.0913285e-06 2.560015e-06 -3.8857596e-07 2.4112973e-05
0003f0 99 d8 38 37 da 97 e7 36 cf 5b 9f 36 80 b8 8e 37
       1.1017685e-05 6.9020143e-06 4.749257e-06 1.7013634e-05
