exp/network/RNN/state.pt (torch_old, 20264 bytes, 27 tensors)

rnn.weight_ih_l0 f4 [20, 4]
00000000: 273d 043f 7d43 303d 8e3d 673f b3fe 3a3f
00000010: 1b75 033f c47c 48bd 7a4e aa3f d26e a93f
00000020: 0e36 343f 79c3 583e e361 b53f 719b b83f
00000030: bd90 e9be 1cd3 23bd d8ff 90bf 502f a0bf
00000040: 1906 7d3e 74d2 383e 44d6 363e 7659 1c3f
00000050: 1ab2 9e3e 99df 90be 488e 803f 81eb 913f
00000060: 2ccd 2fbf 594d 4a3e 3589 31bf a670 74bf
00000070: 786a 19bf f45f 4dbe ca64 b0bf a40a 94bf
00000080: 5556 f3be c866 353d 2082 b5bf 2127 c0bf
00000090: 2426 1ebe 1887 7fbe 8ef4 6f3f ddd0 473f
000000a0: 1c9b 2fbf 4f19 5abe f53b 60bf 0c4a 9abf
000000b0: 7880 9abe 1185 a9be b547 843f da3e 823f
000000c0: 4fc5 bdbe 46b2 873e 856c 8bbf 66f1 9bbe
000000d0: 335d 943e 863c 92be 227a 963f ac44 683f
000000e0: 63e2 51be b033 20be f097 8bbf 046d aabf
000000f0: 0082 ea3e 08e1 ab3d a771 5b3d a9fd f13e
00000100: 0d01 043f e9bc a7be 33c7 873f aa2f 8a3f
00000110: 03ee 093f d768 ba3e 78e3 dc3e 573e 573f
00000120: 3897 1ebf 6e66 d83b f415 9bbf 7e46 98bf
00000130: f47a 803e fc9e 15bf 0ad5 7c3f c210 f33e
0.5165581 0.04303311 0.903283 0.7304489 0.51350564 -0.04894711 1.3305199 1.3236945
0.7039498 0.21168317 1.4170498 1.4422437 -0.4561824 -0.03999625 -1.1328077 -1.2514439
0.24709357 0.18049031 0.17855173 0.61074007 0.30995256 -0.2829559 1.0043421 1.1399995
-0.6867244 0.19756068 -0.69349986 -0.9548439 -0.59928083 -0.20056134 -1.3780758 -1.1565747
-0.47526804 0.044287473 -1.4180336 -1.5011941 -0.15444237 -0.24953878 0.93732536 0.78053075
-0.68596053 -0.21298717 -0.8759149 -1.2053847 -0.3017614 -0.33109334 1.0334383 1.0175431
-0.37064597 0.265032 -1.0892493 -0.3045761 0.28977355 -0.285618 1.1756022 0.90729785
-0.20496516 -0.15644717 -1.0905743 -1.3314519 0.45802307 0.08392531 0.053575184 0.4726384
0.51564103 -0.32761315 1.0607666 1.0795796 0.538788 0.3640811 0.43142295 0.840795
-0.6194949 0.0066040074 -1.2116075 -1.1896513 0.25093806 -0.58445716 0.9876257 0.47473723

rnn.weight_hh_l0 f4 [20, 20]
00000000: 8932 c9be 7cf5 a13e 4233 7e3e 5fe5 e9be
00000010: 5a4b 0b3e c284 693e fc32 543d c9dd c5bc
00000020: 59a6 39be b072 723e ce72 e33d 691b eb3e
00000030: 501a 1e3e 76ac 593e a678 19bf f7ba a73c
00000040: cd77 5b3e 4802 d8ba ce11 193d 4618 223d
00000050: 3a94 5b3e 7c9c 3c3e 0ed9 66bc d39f 67be
00000060: 1d17 24be 8035 4e3e d975 10be 420c 21be
00000070: 63e8 4dbe 5687 ed3d 6ea9 2cbc 39b2 493e
00000080: 4a74 08be 62d2 8d3e 5ac0 04bd 06bb 09be
00000090: e259 833d 3708 9f3d d44f 3639 ee42 513d
000000a0: 6377 283e 71d6 803e b017 6e3c a24c 35bd
000000b0: e0d1 10be 7d25 0c3e c0ed b9bd dbf6 45be
000000c0: 1ea8 9ebe 1e73 90bd 0478 3ebe d979 3e3d
000000d0: 5951 ffbd 5bc8 133e 9671 bbbd bfa9 873d
000000e0: da7d 0e3e 06c0 763d 58f7 bbbc 75fa 0c3e
000000f0: 0cdd a23e e54d c43d 8a4d 2e3d 8dff 31be
00000100: 1ba1 efbd 3825 e8bd e1ae 153e 25f1 3abd
00000110: b6c3 4d3d 7ff5 3ebe e8bd 40be 25db 32be
00000120: efee 0bbc 5ace 293e 653f 243e 0342 7fbe
00000130: e772 4b3e b7b5 843c e099 743b 869d 78bd
00000140: 4a2b 23be 7d50 cfbd 566a 63be be4f e3be
00000150: 9371 a5bd 2be0 963d dd65 ea3c ce7c d33d
00000160: 1c58 16bf 2102 2f3d f3e7 b0bc 3c35 733e
00000170: 9264 493e 4b19 113d 52ea 94be d9b4 7a3e
00000180: 3153 ae3d 847a b0bc f85c 323e e646 23be
00000190: eca6 813c 17ce 82bd 380f 7d3e 2ba2 1dbd
000001a0: 2487 a53d 24fc a4bc 95f9 2ebb 7ddd 7bbe
000001b0: 0ff3 bcbe 967b 143e 9b2a 933d f2b6 823e
000001c0: fee0 27be ae42 983d d511 1abe 6469 31be
000001d0: bad6 f63c 6bf9 063e 8175 4ebe 50c5 a9bd
000001e0: d616 e43a d988 87bd d8fc 92be e604 053e
000001f0: 434b 07be e7fd 00be 8621 2dbe 4c27 8d3e
00000200: 29b0 593e c53e 0bbe e289 48bd 0c87 ddbe
00000210: fc42 1c3d 7c62 81be 9b06 403e de30 f13d
00000220: 10da a0be 5e7b fabd d6d9 653e e3e9 1fbe
00000230: fd36 f43c 7381 2d3b fb0a cabd 3798 fcbc
00000240: e319 08be c467 963d e7ea 0abe 43c7 a7bd
00000250: d116 183d 0761 b93b ac0f 173e ce4b 93bb
00000260: 497c 843c 2272 783e d2f3 c63e 123c 3cbd
00000270: 627b 573e ee90 9cbe 75fb 03be 9af6 c43d
00000280: 9df9 5f3d adef 143d eb99 61be ebc9 8ebd
00000290: 3d3e 323e 2408 37be 245d 773e b565 07be
000002a0: a6c3 c33c 9931 d73d 9f59 223c 3651 963d
000002b0: 3b30 833e 3b8f 783d d82b 3bbd 5032 a4bd
000002c0: 148a 9cbd 52cf f13d f036 78bc 5a65 bcbd
000002d0: 982c 60be 90fb 66bd 5c57 293d 4001 6c3e
000002e0: f379 cd3d 45b8 1bbe 9e40 d13b 6a7c 3a3e
000002f0: c7aa 4d3e b38a 9fbd 871f 38bd 831a 47be
00000300: cdb2 36be 95dc 8b3c 06b4 243d 4f2a f4bd
00000310: 6f69 1a3e 1058 80be 246a 72bb be06 7c3d
00000320: 5358 edbc 873d afbe 61ea a3be fc82 993e
00000330: 5074 9b3d a257 a73d 5bae 28bd 7cbf fd3d
00000340: 4695 503e fced ba3c 48a2 acbd 70d9 88bd
00000350: c7dd d83d 3d57 be3d b203 0f3e 3088 b3bd
00000360: 09a6 4c3e 4b07 3fbe c3b2 ea3d f11f 1bbd
00000370: 0616 cdbd 366d 893b d54a 08bb ebd9 883e
00000380: e2c6 02be d253 a0be 40f6 21bd 7513 2d3e
00000390: 04d3 943e ae6d 48be 73a1 25be 1e6c bdbe
000003a0: fd41 413c ca74 45be 6e4b c53d 1b17 153e
000003b0: 5bcd a2be fbcb 83be 4601 bbbc 7cdb 04be
000003c0: c9ba b8bd d961 50be 76de 82be 9e51 323d
000003d0: a80c 833d 5572 353e 8255 463e 5854 2a3e
000003e0: e25b 933d 7a36 01be 97ff 14be 2450 dfbd
000003f0: 41d4 093e 1582 82bd 3cc0 51bd 4f5e 303e
-0.39296368 0.31632602 0.24824241 -0.4568281 0.13602963 0.2280455 0.051806435 -0.024153607
-0.18129863 0.23676562 0.11105882 0.4591935 0.15439725 0.21257195 -0.5994972 0.020474894
0.21432419 -0.0016480172 0.037370495 0.03957393 0.21443263 0.18419069 -0.014089836 -0.22619562
-0.16024442 0.20137596 -0.14107455 -0.15727332 -0.2010818 0.11598079 -0.010538442 0.19696893
-0.13325611 0.27699572 -0.032410003 -0.1345025 0.06413628 0.07765239 0.00017386611 0.05108922
0.16451792 0.25163606 0.014532015 -0.044262536 -0.14142561 0.13686176 -0.0907855 -0.19332449
-0.30987638 -0.07053207 -0.1860047 0.04650292 -0.12466688 0.14431898 -0.09152524 0.066241734
0.13915196 0.06024172 -0.022945091 0.13767417 0.3180927 0.0958517 0.042554416 -0.17382641
-0.1170065 -0.11335224 0.14617492 -0.04564013 0.050235473 -0.18648337 -0.18822443 -0.1746641
-0.008540853 0.16582623 0.16039808 -0.24927525 0.1986805 0.01619993 0.0037323162 -0.0606971
-0.15934482 -0.10122774 -0.22208533 -0.44396776 -0.08078303 0.073669754 0.028613025 0.10326539
-0.58728194 0.04272664 -0.021594977 0.23750776 0.19667271 0.035424512 -0.29085022 0.2448305
0.08511961 -0.021542795 0.17418277 -0.15945014 0.015826665 -0.06386965 0.24712837 -0.038484734
0.08082417 -0.020139761 -0.0026699055 -0.2459621 -0.3690419 0.1450027 0.07185861 0.255302
-0.16394421 0.07434593 -0.15045865 -0.1732536 0.030131686 0.13181083 -0.20162012 -0.082895875
0.0017401825 -0.066178985 -0.2870853 0.1299015 -0.13212304 -0.12596856 -0.1690732 0.27569044
0.21258606 -0.13598163 -0.04895962 -0.43267095 0.03814982 -0.2527045 0.1875252 0.11776899
-0.31416368 -0.12230562 0.22446379 -0.15616564 0.029811377 0.0026474863 -0.098653756 -0.0308343
-0.13291125 0.073440105 -0.1356617 -0.08192303 0.037131134 0.0056573185 0.14752072 -0.0044951206
0.016172545 0.24262288 0.38857895 -0.045955725 0.2104316 -0.30579323 -0.12888892 0.09617348
0.05468141 0.036361385 -0.22031371 -0.069721065 0.17406555 -0.17874199 0.24156624 -0.13222392
0.023897003 0.10507507 0.009909063 0.073397085 0.25622734 0.06068347 -0.04569611 -0.08017409
-0.07643524 0.11807121 -0.015149817 -0.09199019 -0.21892011 -0.056392252 0.041343078 0.23047352
0.100330256 -0.15207012 0.006385877 0.18211523 0.20084678 -0.07790127 -0.04495194 -0.19443707
-0.17841645 0.017072955 0.040210746 -0.11922132 0.15079282 -0.25067186 -0.0036989534 0.061529867
-0.02897278 -0.3422663 -0.32014754 0.29982746 0.07590544 0.081710115 -0.041181903 0.12390038
0.20369443 0.022818558 -0.0842939 -0.06682098 0.10589176 0.09293983 0.13966253 -0.0876621
0.19985212 -0.18655126 0.11459877 -0.03787226 -0.10013966 0.004193927 -0.0020796556 0.26728758
-0.1277118 -0.3131395 -0.039541483 0.16901954 0.29067242 -0.1957309 -0.16174869 -0.3699655
0.011795518 -0.19282833 0.09633528 0.14559595 -0.317973 -0.25741562 -0.022827756 -0.12974352
-0.090200014 -0.20349826 -0.2556035 0.043534867 0.06398898 0.17719395 0.19368556 0.16633737
0.0719526 -0.12618437 -0.14550625 -0.109039575 0.13459875 -0.063724674 -0.05120872 0.17223476

rnn.bias_ih_l0 f4 [20]
00000000: 7c20 6e3d 9e05 9dbd 6aa1 1abe b103 2c3c
00000010: 4f3b 19bd 4415 3b3e cc58 a53d ea87 84bc
00000020: f518 253d 1788 89bd dace 29bd 1962 1ebd
00000030: 524a 4f3d 22b2 62bd 141a 113d 30c6 b2bd
00000040: c646 53bd 7132 c13c f484 053e a69e 993e
0.05813645 -0.07667087 -0.15100637 0.010498927 -0.037410077 0.18269831 0.08073577 -0.01617809
0.040307004 -0.0671541 -0.041457035 -0.038667772 0.050607987 -0.055345662 0.03542526 -0.087292075
-0.051581167 0.023583623 0.13038999 0.30003852

rnn.bias_hh_l0 f4 [20]
00000000: e63a 113c a165 443e 8eb9 143e 5560 d63c
00000010: d7da 323e 3e14 e1bd f45a 543c 6f41 46bd
00000020: 96fe 06bd 2c4f 9d3d 002e 6abd 2414 8f3d
00000030: 286c fabd 7c0f 933c 4881 c4bd 4acb 853c
00000040: cb6c d93c 1947 283e 1878 7e3d 721c 963d
0.00886414 0.19179393 0.14523908 0.026168982 0.17466293 -0.10990189 0.012961138 -0.048402246
-0.032957636 0.076811165 -0.057172775 0.069862634 -0.122276604 0.01795172 -0.09594971 0.016332287
0.026541134 0.16433372 0.06212625 0.07329644

rnn.weight_ih_l1 f4 [20, 20]
00000000: 6959 6cbe cc6e c0be 0e53 39be 89bb f9bd
00000010: 3b69 b3bd 64a7 cdbe 84e2 cd3e b329 cc3d
00000020: f438 9d3e e922 5e3d 252d f13e 2163 d83d
00000030: 686e 22be f9ec 52bd aaa3 9cbe fe01 57bd
00000040: 8b7d c8bd 2e36 9fbe 1e77 723d bdf5 87bc
00000050: 2666 5d3e 6ce2 a43e 3e05 263e c034 3cbe
00000060: 5988 5f3e d6df c43e db89 b5be 5f78 0e3d
00000070: 9623 71be 2d74 813d 255c 99be 7a26 ccbe
00000080: 6470 603e aa03 21be 5db9 f83d fbd8 8a3d
00000090: 316b 673d 972a 6f3e 32b0 823d 360b 5f3e
000000a0: 95d6 fdbe c0dd 9cbe 4e3e a5be 0e52 a73e
000000b0: 3dd1 88be ca76 a9bd 207a eb3d aa39 443e
000000c0: d6c0 053f 1eb6 b53c cc4b cf3e 8261 c53c
000000d0: a2ca ecbd 9129 00bf f052 8dbd 5c40 0a3e
000000e0: fec4 9cbe cd91 dfbe b484 b23e f6be 753e
000000f0: fdb8 133d 906b 913d 28f6 59be 2734 173e
00000100: 50df e6bc 700c 10be 6aee d6bd 7a7f 6b3e
00000110: 9698 413e fc37 76bd 7280 6dbd 2fd2 0cbf
00000120: a295 48be 0ced c23b 7fed 303d db12 5c3e
00000130: ef9a 25be 06c7 5e3e 8dee 843e 5fa1 b43e
00000140: 86ad 02bf 0540 f6be 4607 f1be 3716 863e
00000150: 1b3f 93be 286f f8be 4710 e03e 7280 573e
00000160: bd60 4b3e 8773 8ebc fc2d 653e 6e87 e6bd
00000170: 8642 093e 01d1 adbe 1733 5d3e 952e 223d
00000180: 7bca a7be 1927 cabe 61f5 be3e 164c 6b3b
00000190: 1e1c 46be 2814 143d 9172 583d 45be 8fbe
000001a0: b25e 6ebd 696a 9fbe 72f7 943e 8a6d 53be
000001b0: 7007 19be ba3d 2d3e f5ee b83d 2bc7 c83e
000001c0: 35d1 adbc 5557 543d 15a5 31bd cb96 44be
000001d0: 58fe 48bd 5b4a a8be 3728 40bd d38e 89bd
000001e0: 1f3a 93be 8f52 c9be ca86 acbe b6c9 e9ba
000001f0: 79ef 8cbe 4edb 67be 7a2c 3a3e a567 0e3f
00000200: 9f45 923d 71c6 1abe 261e db3e 7dd4 05be
00000210: 3d95 843e 1fac 94be c61f 933d 02b3 c1be
00000220: 69df 1ebd 103a 34bb 1789 de3d 5bf0 99bc
00000230: 1f25 dd3d 42f7 953e fab2 493e 0139 5abe
00000240: 08ca f23d fb9e ca3e dd33 6cbe c8e2 833e
00000250: ffe9 6cbe 5525 b43d 5660 a6be 5137 56be
00000260: 0428 d7bd 2589 0cbd 6ec0 033e 52cb 8f3e
00000270: 18a8 0c3d d337 863e d2c4 bb3d 5169 083e
00000280: 973e 063f bb70 583d 7b6e 873e e858 37be
00000290: 580c c53e 46f4 063f 01db 56be eea8 90be
000002a0: 84e1 98be 6637 6d3e 265c 31bd e2f7 0fbd
000002b0: 08bd 4a3d 0fa0 2a3f 7a77 1abe 5752 173d
000002c0: e08d 273f 97da 613e c122 bdbd 1523 943e
000002d0: 6bd1 c8bd 6ef2 0ebe 1a9d f0be de4a c5bb
000002e0: fd03 1bbe ed3f a5be 7134 e23d e9d4 c43e
000002f0: ce77 8f3e e0c1 bc3d 7c07 773e cc7f 96be
00000300: aeee ba3b 50e4 82be 32b2 e03e a816 81be
00000310: 31ec 16be 692d f5bd 2cfd 553e eef9 92bd
00000320: bd7d 22bd 7277 b2be 8833 e4bc e8db 1cbe
00000330: eadd a1bd e690 2e3e 2d84 ec3e a47c a4be
00000340: 3b13 253e 4ef8 773d 903a 7a3d c957 063f
00000350: 2cf3 7b3c 4355 903e 8c1e dfbe bdb0 463e
00000360: 044d b3bd 6a90 47be 04f6 e8bb 7740 debd
00000370: 0e8d 83be 21d3 6dbe 5217 c43d 23d5 4ebe
00000380: 1f55 3abc e956 d73d 8349 ae3e 9cd8 8abe
00000390: bf60 153e a767 203c fba0 e8bd 46ee d23e
000003a0: 9f48 053e bd58 7a3e 9859 743d 215d 1cbe
000003b0: 895c 5abe 06b8 fc3d f3ca 12be 6f18 a8be
000003c0: a1cc 97bd 7e34 97bd 607c b7be cf30 873e
000003d0: c764 fabd e3a9 e8be 1b09 983d dd83 4c3e
000003e0: be57 9c3e 263a 45be 6fa1 633e 7cd4 a4be
000003f0: 292c 903e dc13 00be 9668 033f efa3 88be
-0.23080982 -0.3758453 -0.18098089 -0.121939726 -0.087603055 -0.4016677 0.4021188 0.09968891
0.30707514 0.05423251 0.47104755 0.10565782 -0.15862429 -0.051495526 -0.30593616 -0.052492134
-0.097895704 -0.31096023 0.05919563 -0.01659667 0.21620998 0.32203996 0.16212937 -0.18379498
0.21829356 0.38452023 -0.35456738 0.034782764 -0.23548731 0.06320987 -0.29953113 -0.39873105
0.21917874 -0.15724054 0.1214473 0.06779667 0.05649871 0.2335609 0.06381263 0.2178162
-0.49577776 -0.30637932 -0.32274097 0.3267979 -0.26722136 -0.0827461 0.11497903 0.19162622
0.5224737 0.022181567 0.40487516 0.024094347 -0.11562087 -0.50063425 -0.06900585 0.13501114
-0.30619043 -0.43665925 0.3486687 0.23998627 0.03606509 0.07100594 -0.21285307 0.14765988
-0.028182656 -0.14067245 -0.104946926 0.22997847 0.18905863 -0.060111985 -0.057983823 -0.55008215
-0.1958833 0.0059486683 0.043195244 0.21491568 -0.16172384 0.21755609 0.2596325 0.35279366
-0.51046026 -0.48095718 -0.47075862 0.26188824 -0.28759083 -0.48522305 0.4376242 0.21045092
0.19861121 -0.017389072 0.22380823 -0.112563 0.13404283 -0.3394852 0.2160152 0.039595205
-0.32771668 -0.39482954 0.37296584 0.0035903505 -0.19346663 0.036152035 0.052843634 -0.28074852
-0.058195777 -0.31135872 0.29095036 -0.20647255 -0.14944243 0.16918078 0.090299524 0.39214453
-0.021217922 0.0518411 -0.043370325 -0.19198148 -0.049070686 -0.3286923 -0.046913352 -0.06716695
-0.2875528 -0.393208 -0.33696586 -0.0017836604 -0.27526453 -0.22642252 0.18181029 0.556269
0.071421854 -0.15114762 0.4279644 -0.13069339 0.2589511 -0.29037568 0.07183795 -0.37831885
-0.03878728 -0.0027500428 0.108659916 -0.018791368 0.10798096 0.29290205 0.1969718 -0.21310808
0.11854941 0.39574417 -0.2306666 0.25758958 -0.23136137 0.08796183 -0.32495373 -0.20919539
-0.10505679 -0.03431048 0.12866375 0.2808481 0.034339994 0.26214465 0.091684 0.13321425
0.52439255 0.052841883 0.26451477 -0.17905009 0.3848598 0.5271648 -0.20981981 -0.28253883
-0.29859555 0.23165664 -0.04330077 -0.03514851 0.04949668 0.6665048 -0.15084639 0.03694376
0.6545086 0.22056042 -0.092351444 0.28933015 -0.09805568 -0.13959667 -0.4699486 -0.0060208878
-0.1513824 -0.32275334 0.11045159 0.38443688 0.2802109 0.09216666 0.24123949 -0.29394376
0.0057047224 -0.25564814 0.43885952 -0.25212598 -0.14738537 -0.11971552 0.20897359 -0.071765766
-0.039670695 -0.34856755 -0.027856603 -0.15318263 -0.07903655 0.17047462 0.46194592 -0.32126343
0.16120617 0.060539536 0.061091006 0.524777 0.015377801 0.2819005 -0.43577993 0.19403358
-0.08754924 -0.19488683 -0.0071094055 -0.108521394 -0.25693554 -0.2322507 0.095747605 -0.20198493
-0.0113728335 0.10514624 0.3404046 -0.27118385 0.14587687 0.009790338 -0.113588296 0.41197413
0.13015984 0.24447913 0.059655756 -0.15269901 -0.21324362 0.12339787 -0.14335231 -0.3283114
-0.07412077 -0.07383059 -0.35837078 0.26404426 -0.12226253 -0.45442113 0.07423612 0.19972177
0.30535692 -0.19260463 0.22229551 -0.32193363 0.28158692 -0.12507576 0.5133146 -0.2668757

rnn.weight_hh_l1 f4 [20, 20]
00000000: d091 db3d 5726 2bbe 64e0 a6bd 02b3 783e
00000010: f828 5e3e f183 65be 90c9 263e 5505 6cbe
00000020: 5ae9 8d3d 0d18 3c3e 7a17 213e 464c 60be
00000030: 1213 cebd 1954 893e e774 a13d 0d2f 923d
00000040: 268c a33e 7c20 85be 8fb7 803e a5ef b8be
00000050: 697c 0b3e 8089 a0be 7bdf d6bd 63a0 2ebe
00000060: 4e22 24bd cd7c 073d 2c31 dabd dba1 90be
00000070: 9197 a73e 418d 13be 51f1 1a3e 9aa1 7cbc
00000080: cfbc 95be e048 26be 2807 a13e f186 503e
00000090: 452e ebbd e26d 22be 5c78 273e 46b3 80bd
000000a0: 0ac6 75be 2895 473e c3d0 b7bc 5fac 23be
000000b0: fa84 dcbc 8fcb e0bd d9ca c73d 91f0 a33c
000000c0: dcdf 4f3d 2329 4f3d b106 1d3e c8d9 bc3d
000000d0: 7732 913e 7fa0 553e 478e 3abe d45c 023d
000000e0: cdad 4e3e 407b 873d f30d 8fbe 00c9 273e
000000f0: 890b fd3c 7877 d1bd 9a30 97be 1f07 b9be
00000100: b9a3 3abe 3622 dcbd b9aa a1be e59a 843c
00000110: 1509 813e 93b0 02bd 856c 8f3d 3c79 913e
00000120: a46e 84bd 173e cdbd 7871 923e d0ab 3f3e
00000130: fee8 b2bd c087 1b3e 131f 60bd db8a 583e
00000140: f9cb 2d3d fa5e 97bd 34ce babd bdcd 5ebd
00000150: b68d 0bbd 6142 b83d e70e 3abe cc88 7fbd
00000160: 35c9 213d aa54 523a da4a ce3b ff8d 9cbc
00000170: a8a5 ae3d dd36 9f3c f425 7fbd e54b 223e
00000180: 3b23 9f3e 0ad5 88bd a9ba 4ebc 4daa 353e
00000190: b465 233d 705f f5bd e87c e43d da83 993e
000001a0: c6e5 d13d 31e1 8fbe d95f 48bd 2c22 8a3d
000001b0: c1ed c7be 6516 5f3e e1bc 293b 186d 6dbd
000001c0: b97d 033e ca4c 7e3d b6fd 4abe 9414 a8bd
000001d0: 95db 2e3d ee8b 43be 1c95 52be b577 b53c
000001e0: 9253 023c a468 213e 4b02 51be 5116 09be
000001f0: cc4c 473e 749c d73d 752e 733e d9f6 71bc
00000200: 5577 81be c915 c73e e530 39bd e042 07be
00000210: 7621 a33e 4ad0 be3e f16d e2bd 926f 07be
00000220: 938a d43e 3a7a 9bbd 85ed 783e 5491 46bc
00000230: f342 7dbd 2150 433e a720 95bd 3a07 af3c
00000240: d323 58be 20b5 18be e33d 5fbd 88c4 6cbe
00000250: ce2b 963e 914f 3e3d c1bc 1f3e b864 8e3d
00000260: 4b74 573d 0d70 26be 03f5 923e 7349 06be
00000270: 8f82 acbe 00a7 a43d ddc9 163e d21b 343e
00000280: 80e6 643d e48c abbe 0317 f23d b10d 16be
00000290: a5f2 9dbc 7e47 373e 715b d33d 0014 bdbd
000002a0: 12c2 b73c 3e74 13be 03f3 673d 1a0b 103e
000002b0: f6f7 e8bd 6406 85bd 1f2a b13d 3c03 6cbd
000002c0: 0b3b 11be ec69 20bd b3c1 41bd 2bb4 ffbd
000002d0: 3c36 8c3d 25ef 62bc 727a c23e 0510 943e
000002e0: 6a07 a33d e042 f93d 4f85 043c 6ff7 a2be
000002f0: ba2c ff3c 2c3d 033e 97a3 76be 024a c4be
00000300: b56a afbc 2a1a ba3e 7372 6abe 9fb6 4dbe
00000310: 0504 b23e 763f b2be 9347 75bd 64c5 e6bd
00000320: adeb 18be 78ef 9bbe 8418 ebbd deab 953d
00000330: b8ec 8bbe 1e48 09bb 878e 3abe fc8e 5dbe
00000340: c6cc 03be 5ccb 3cbd fe69 38be 2871 053e
00000350: 5192 2f3e ea95 893d e30e 35bd 2f5e 97be
00000360: ebd4 3fbc 96fb 783d 8d98 8b3c 60fb 9cbe
00000370: 28c9 a4bd 25ab 193d e0d6 cf3d 8e73 e83d
00000380: e414 643e 35ed 46be c6cd 243e 41c7 29be
00000390: 9768 41be ffd3 11be 2f85 d63d fd6b a3be
000003a0: 8b93 3fbe 219f 133d 617f 5c3d a185 82be
000003b0: 3f89 94bd d0f9 80bc 048d d4bd f7b4 a7bd
000003c0: aa0e 05be 094f 153d 1c2f 51bd eb2b b43e
000003d0: b676 203e 0627 14be b145 eabc 3c88 6a3d
000003e0: 64fa f2bd 56a2 29be 9da0 40be 16d5 1a3d
000003f0: 5110 a4be 6cf2 4dbd 31ca 52be e9f0 293e
0.10721171 -0.16713844 -0.08148268 0.24287036 0.21695316 -0.22413613 0.16287827 -0.23048909
0.06929274 0.1836855 0.15731612 -0.21904096 -0.10062231 0.26821974 0.078836255 0.071378805
0.31942862 -0.26001346 0.25140044 -0.36120334 0.13621677 -0.31354904 -0.10491844 -0.1705337
-0.040071778 0.033078004 -0.1065391 -0.28248486 0.32732823 -0.14409353 0.15131117 -0.015419388
-0.29245612 -0.16238737 0.31450772 0.20363976 -0.114834346 -0.1586223 0.16354507 -0.06284194
-0.24001327 0.19490492 -0.022438413 -0.15983723 -0.026918877 -0.10976326 0.09755487 0.020012172
0.0507506 0.05057634 0.15334584 0.09221226 0.28358814 0.20862006 -0.18218337 0.03182681
0.20183487 0.06615305 -0.2794033 0.16385269 0.03088929 -0.10227865 -0.29529268 -0.36138245
-0.18226518 -0.10748713 -0.31575564 0.01618714 0.25202242 -0.031906676 0.0700312 0.28412807
-0.064664155 -0.10021608 0.28602195 0.18717885 -0.08735846 0.15188503 -0.054717135 0.21146719
0.04243085 -0.07391162 -0.091213614 -0.054395426 -0.034070693 0.08997036 -0.18169747 -0.06238632
0.039498527 0.000802348 0.006295544 -0.019110678 0.0852769 0.01943534 -0.062292054 0.15849264
0.31081566 -0.06681259 -0.012617745 0.17740746 0.039891914 -0.11981094 0.111566365 0.29983407
0.10248904 -0.28101495 -0.048919532 0.06744799 -0.3904858 0.21785887 0.0025899934 -0.057965368
0.12840928 0.06208495 -0.19823346 -0.0820705 0.04268988 -0.19096348 -0.20564693 0.022151807
0.007954495 0.15762573 -0.20411031 -0.1338742 0.1946289 0.10527888 0.2374819 -0.014768326
-0.25286356 0.38883808 -0.045212645 -0.13209105 0.31861466 0.37268287 -0.11056126 -0.13226154
0.41511974 -0.07591672 0.24309357 -0.01211961 -0.061831426 0.19073536 -0.072816186 0.02136575
-0.21107416 -0.14912844 -0.05450238 -0.23121846 0.29330295 0.0464626 0.15599348 0.06952804
0.05260114 -0.16253681 0.28702554 -0.13113956 -0.33693358 0.08039665 0.14725442 0.17588738
0.055883884 -0.3350593 0.118207954 -0.1465366 -0.019280741 0.17898366 0.103201754 -0.0923233
0.022431407 -0.14399812 0.05662824 0.14066735 -0.1137542 -0.064953595 0.08650612 -0.057620272
-0.1418268 -0.039163515 -0.047303867 -0.12485536 0.06846282 -0.013850962 0.37984043 0.28918472
0.079603985 0.121709585 0.008088424 -0.31829402 0.031149257 0.12816304 -0.24085842 -0.38337713
-0.021413187 0.36348087 -0.22895221 -0.20089196 0.34768692 -0.34814042 -0.05988271 -0.11268118
-0.14933653 -0.30456138 -0.11479285 0.07308172 -0.2732904 -0.0020947526 -0.18218432 -0.21636575
-0.12871084 -0.046092376 -0.18009183 0.13031447 0.17145659 0.06718047 -0.04420365 -0.29564044
-0.011708478 0.060786806 0.017040515 -0.30660534 -0.0804618 0.03751673 0.10148406 0.11350165
0.22273594 -0.19426425 0.16094121 -0.16579916 -0.18887554 -0.14241026 0.104746215 -0.31918326
-0.18708627 0.03604043 0.053832415 -0.25492576 -0.0725274 -0.01574412 -0.10378459 -0.08188813
-0.12993875 0.036452327 -0.051070318 0.35189757 0.15670285 -0.14468011 -0.028597685 0.05725883
-0.118641645 -0.16565832 -0.18811269 0.03780087 -0.32043698 -0.05028002 -0.20584942 0.16595806

rnn.bias_ih_l1 f4 [20]
00000000: 867f d93c 8858 323e 7d08 c6bd 6f65 7ebe
00000010: 8107 4dbe b627 7a3d 0300 4abd fd88 793c
00000020: b688 003e 6d6d 26be e4c8 f4bc 4e66 66be
00000030: a43a 99bd 1d37 de3d d0fd 36bd f940 983d
00000040: 7928 513e fb99 c2bc 1710 3a3d 41a0 513e
0.026550066 0.17416584 -0.09669588 -0.24843381 -0.20022394 0.061073028 -0.049316417 0.015230414
0.12552151 -0.1625268 -0.029880948 -0.22499964 -0.07481888 0.10850356 -0.04467565 0.074342676
0.20425595 -0.023755064 0.0454255 0.20471288

rnn.bias_hh_l1 f4 [20]
00000000: 3959 cdbd f2c5 423e 16c6 48bd 8842 d33d
00000010: 28d5 93bd c6eb 12be 3304 2e3e 43b1 acbd
00000020: a22d 4c3e 6d13 333e 4ae3 82bd b2aa 393e
00000030: 9226 33bd baa1 663e d083 3f3d 50b5 b43e
00000040: 9a45 d53b cd4f 8fbc df7b 913d 55f3 423e
-0.100267835 0.19020823 -0.049017034 0.10315424 -0.07218391 -0.14347753 0.1699379 -0.084322475
0.19939283 0.17487879 -0.06391008 0.18131521 -0.043737955 0.22522631 0.046756566 0.3529458
0.0065085413 -0.017494107 0.07103705 0.19038136

fc.weight f4 [1, 20]
00000000: fa7d 2e3f d679 3ebf 7b40 073f a333 6dbe
00000010: 0b0e 6d3f e4fe d23e 5801 2a3f 4870 e9be
00000020: 7c1b 40bf 06a0 403f dad7 5b3e 0220 a33e
00000030: c141 013f da14 823f 8bda 833e 56e5 60bf
00000040: f2e8 633f efb1 65bf db6b 3c3f e750 43bf
0.68160975 -0.74404657 0.52832764 -0.23164229 0.9259955 0.4121009 0.664083 -0.45593476
-0.7504194 0.75244176 0.2146906 0.31860358 0.5049096 1.0162613 0.25752673 -0.8784994
0.8902732 -0.8972463 0.73602074 -0.7629532

exp_avg f4 [20, 4]
00000000: d6d4 6e38 5d3c c237 a712 22b7 3b0f 8eb8
00000010: 6586 cab8 a73c 30b9 3c37 8e38 466a cab7
00000020: 6c7b 1eb9 56eb 86b9 871f e138 41f5 67b7
00000030: 9a47 deb6 dff1 ac37 5b69 a9b7 a50d 63b7
00000040: 35e9 a738 d36b cd38 5f35 b337 0623 4938
00000050: f999 3738 dcb7 9432 db8b 1a38 d9fa a9b7
00000060: 76ac 9e38 d353 0839 131e e6b7 857f 5438
00000070: 08b9 82b8 29f2 ecb7 4b3f cab7 90b5 2d37
00000080: 8c7c 0239 956f 6e39 0329 12b9 0ea4 19b8
00000090: c277 2eb8 a754 92b8 babd 3c38 aa35 c437
000000a0: 5f13 1438 346c 9738 6c11 35b8 090d dfb6
000000b0: 51fe ccb6 2c4a 3ab8 dd94 9d38 fd7a 9138
000000c0: d718 ac38 ab1f 2039 54db 57b8 101f 3238
000000d0: fa6b 4b37 cc6b d5b7 a35f 8837 64e1 e0b7
000000e0: fdf6 5638 43ee 9d38 accc 89b8 9046 b0b8
000000f0: 17cf 74b8 8e82 9fb8 feaa 08b6 2f79 b5b7
00000100: 7eeb a038 1e54 1f38 87b5 0f35 9de6 22b8
00000110: 4139 7538 3aa7 6d38 9ab1 96b7 c151 68b7
00000120: 9e03 0838 fed9 b238 f8d7 24b8 3609 c137
00000130: 8517 fcb7 68e0 32b8 b043 9cb6 ba83 1cb8
5.694184e-05 2.3154711e-05 -9.660295e-06 -6.7739245e-05 -9.6571435e-05 -0.00016807263 6.781376e-05 -2.4129764e-05
-0.00015114032 -0.0002573381 0.000107347085 -1.3825776e-05 -6.624451e-06 2.0616628e-05 -2.019543e-05 -1.3533431e-05
8.006619e-05 9.7952456e-05 2.1363316e-05 4.7954753e-05 4.3774e-05 1.7313077e-08 3.684671e-05 -2.026318e-05
7.5661505e-05 0.00013001198 -2.7432141e-05 5.06635e-05 -6.233348e-05 -2.8246157e-05 -2.410975e-05 1.0353877e-05
0.00012444163 0.00022739016 -0.00013938923 -3.663083e-05 -4.1596366e-05 -6.97759e-05 4.499939e-05 2.339001e-05
3.530399e-05 7.2203955e-05 -4.316999e-05 -6.6474354e-06 -6.10928e-06 -4.4414934e-05 7.514071e-05 6.937047e-05
8.206226e-05 0.00015270586 -5.146426e-05 4.2467436e-05 1.2124883e-05 -2.5441776e-05 1.6256998e-05 -2.6807837e-05
5.12516e-05 7.530723e-05 -6.570792e-05 -8.405477e-05 -5.8367e-05 -7.6060285e-05 -2.036511e-06 -2.1633312e-05
7.6732584e-05 3.7986894e-05 5.353581e-07 -3.8838585e-05 5.8465874e-05 5.6660945e-05 -1.7964096e-05 -1.3847312e-05
3.2428296e-05 8.5283056e-05 -3.9301784e-05 2.3011682e-05 -3.0051693e-05 -4.26475e-05 -4.657042e-06 -3.731598e-05

exp_avg_sq f4 [20, 4]
00000000: 9864 cb32 7168 dd32 2d0c 0233 26ea d932
00000010: 35a3 0533 14d0 6133 91a0 7933 9156 de32
00000020: 0968 3033 d0e0 ae33 7902 a233 617b 1933
00000030: 21c3 0833 8c41 9b32 4118 e332 e3dc 7c32
00000040: 065c a132 31b3 9032 9019 e132 c00d 8832
00000050: 08e8 2733 fa8c fe32 9ab2 5333 63cc ad32
00000060: 7fcf ab32 f857 da32 a1c3 ee32 2b55 a132
00000070: 52c8 8a33 a0d1 d932 3ba4 7c33 4080 a632
00000080: 68ae cb33 bba1 d233 f30d ba33 28f8 2f33
00000090: f0e7 0a33 5555 db32 f1aa a732 99bf 3332
000000a0: 20f8 0532 8482 6532 5942 8d32 3e05 1f32
000000b0: 2062 1134 2290 6533 68c8 b633 f919 2c33
000000c0: 325c b632 077a 1333 b314 f932 1343 8632
000000d0: 4e2f a832 f136 8832 a1ce e832 edd5 5232
000000e0: 84a3 8333 ab16 0e33 9141 3333 7e5e 0033
000000f0: cd68 2b33 af46 9032 27c6 f832 cb94 2032
00000100: 6c21 0a33 972c b932 b87e 1233 75e3 9332
00000110: f873 1f33 f5d8 c632 983e 2933 5c6c b432
00000120: bd4b 0132 3746 8232 4398 5932 3d55 0b32
00000130: 5cd6 a032 fe28 ab32 f460 bf32 1634 3d32
2.3678055e-08 2.577528e-08 3.0279057e-08 2.5368603e-08 3.111491e-08 5.257614e-08 5.8120865e-08 2.5883567e-08
4.1072813e-08 8.1433996e-08 7.5441626e-08 3.57353e-08 3.1842436e-08 1.8074182e-08 2.6437307e-08 1.4718554e-08
1.8784714e-08 1.6845293e-08 2.6205072e-08 1.5838737e-08 3.909375e-08 2.96336e-08 4.9289703e-08 2.0232795e-08
2.0001378e-08 2.5418544e-08 2.7795808e-08 1.8781597e-08 6.462564e-08 2.5357451e-08 5.882269e-08 1.9383265e-08
9.4846484e-08 9.8083056e-08 8.663837e-08 4.097106e-08 3.2341575e-08 2.553376e-08 1.9519094e-08 1.0462736e-08
7.798036e-09 1.335923e-08 1.6444732e-08 9.25621e-09 1.3539875e-07 5.3449305e-08 8.511489e-08 4.0070493e-08
2.1229514e-08 3.4337088e-08 2.8996828e-08 1.5630155e-08 1.9579286e-08 1.5857468e-08 2.7102319e-08 1.227225e-08
6.129906e-08 3.3082568e-08 4.1736318e-08 2.9888263e-08 3.9909356e-08 1.679595e-08 2.8961109e-08 9.347057e-09
3.2161026e-08 2.1557112e-08 3.4108524e-08 1.7216488e-08 3.7125545e-08 2.3148894e-08 3.9405307e-08 2.1004034e-08
7.526009e-09 1.5165922e-08 1.2665683e-08 8.110246e-09 1.872393e-08 1.9925661e-08 2.2279416e-08 1.1013091e-08

exp_avg f4 [20, 20]
00000000: 1c47 6839 a24f f837 62b5 69b8 a724 4db9
00000010: 035b 3f39 a592 f438 f34d 57b9 42a7 3fb8
00000020: 2d36 8c38 9935 3638 9439 cf38 23dc 91b8
00000030: dcb8 9337 351a 6e39 92ff 16b8 a894 c6b8
00000040: dfdf 6039 8bc4 5539 4284 6bb9 5159 18b9
00000050: d329 15b9 4728 ffb9 c8f7 d0b9 19af 93b9
00000060: 6fef ecb8 14ff 18b9 c231 04b9 189f c339
00000070: 2802 2038 c33e 1b39 25bd 1f3a 8fc4 3c39
00000080: 5b57 a538 99f4 a639 383a 6fb9 3ed0 13b9
00000090: 95cf 9736 d24f b5b9 29ba 71b9 ed47 94ba
000000a0: e5aa 86b9 1199 45ba ccef 25ba 33a5 e8b9
000000b0: bc28 14b9 361b 83b9 f5b1 49b7 d907 ff39
000000c0: 622d 0c37 5a79 9239 aad0 6a3a e406 dc39
000000d0: 4adb 0739 ac44 fd39 93c8 b3b9 5363 99b9
000000e0: 3d3b afb6 e30c 0fba 289c 7eb9 eae4 d1ba
000000f0: 060a 7839 9d34 9639 bf3b a039 c576 d338
00000100: b217 9738 8d0e 1339 5464 45b9 727b 40b9
00000110: 0b35 88b7 1929 2db9 2dec adb9 94b3 93b9
00000120: 5125 82b8 7aa6 93b8 86cd 2439 ca5c 4739
00000130: 389f a838 c1c0 3d39 e027 e8b8 c7fb c539
00000140: e821 6639 7eb5 0239 010a 2db5 3b3f 07b9
00000150: 4ee0 7239 8554 1b39 4179 dbb8 3a9c fdb8
00000160: 0c8d b937 3417 bd37 7648 00b8 6a4d 2fb8
00000170: 3ea9 3cb8 943d 0b39 ac9c aeb8 defd b9b8
00000180: bad2 1939 46b2 9039 fbeb a4b8 420f ef38
00000190: 2ed4 e438 8474 83b8 04a7 bdb8 b31c 64b9
000001a0: e942 2c38 4e9d d438 b512 8fb9 4a90 bf38
000001b0: 003e 5836 348f c638 408e 8a39 96fb 6f36
000001c0: 7871 71b7 f675 8a39 e8da 11b9 f256 76b8
000001d0: 5cf7 2439 ae51 13b8 723e adb9 0375 06ba
000001e0: b17d 16b6 bdc9 5839 e0c0 0c39 379c fe38
000001f0: ad98 9438 c43d a137 e5fe 8139 f1e9 77b9
00000200: 5e6c 42b8 a3d5 8db6 7f4e a4b9 6209 6338
00000210: 0115 c0b5 b192 3ab9 b676 e938 fddc 91b7
00000220: 4753 deb7 7567 3039 5cc0 8239 3aa9 313a
00000230: e2cc 2c38 8476 1839 90f3 3e39 9689 7639
00000240: 7c78 a6b7 4a01 be37 b2e3 2cb8 e767 2db8
00000250: 8dcb 8838 baa1 50b9 9826 74b9 c606 7fb9
00000260: bbc4 2bb8 8ee7 71b9 8768 1739 c5b5 2d39
00000270: 0a72 cdb8 a3c1 ba38 5cba dc38 7e38 b439
00000280: a040 ca39 9f8d 463a 850c 493a ab1d a339
00000290: 0b12 3c39 aaa2 8339 43e9 9ab8 9390 21ba
000002a0: f63a efb8 bd5d a0b9 79e5 86ba 9bae e2b9
000002b0: 1a9c f0b8 8f26 b9b9 0734 bf39 4284 c539
000002c0: f006 0c39 77b9 153a 2f26 4038 fec2 c13a
000002d0: 77c2 63b9 6314 93b9 a8dd 82b9 4204 bcb8
000002e0: a4de 07b9 1421 09b9 17b4 c538 260e 5539
000002f0: 988c c336 64d0 0d39 3502 aa39 b630 6639
00000300: a016 6038 b4c4 b938 a2a1 f3b8 7baf fab8
00000310: 7990 71b8 f466 81b9 9f40 3337 a3fe f1b9
00000320: b1a8 4839 d9bd ba39 8b56 bb39 9265 2939
00000330: e79e 5438 bbd8 2539 ceb6 17b9 966c 3fb9
00000340: 4868 27b8 cab0 1eb9 95ad d3b9 fb0a 84b9
00000350: 5cdb ceb8 ba16 06b9 f3e8 0f39 d42a 5f39
00000360: cc50 7238 1000 6139 c72a 55b8 cf45 183a
00000370: 1121 9db9 db37 e4b9 f7c3 00ba 0a23 67b9
00000380: df30 67b8 a63b 3fb9 1de9 9139 0eb2 6339
00000390: c7c4 b837 5926 9139 11de 0a3a c6fe e939
000003a0: c906 de38 d648 3d39 1965 63b9 ae73 b4b9
000003b0: 36cf 79b8 d996 88b9 8e87 0539 b58e 21ba
000003c0: 88bd b038 4ca6 9f39 3d84 1139 4981 4639
000003d0: 7bda 1c39 65a7 b438 2d90 3939 556d 62b9
000003e0: 9fcc 1d38 b3d9 86b8 e01e b9b9 a310 a9b8
000003f0: d73f 7eb8 972b 67b9 9443 c738 f0f8 65b7
0.00022151734 2.9600986e-05 -5.5720455e-05 -0.00019563978 0.00018249084 0.00011662141 -0.00020533036 -4.569372e-05
6.685811e-05 4.3442098e-05 9.881254e-05 -6.9551425e-05 1.7609847e-05 0.00022707212 -3.6000805e-05 -9.469065e-05
0.00021445703 0.00020386481 -0.00022460616 -0.00014529123 -0.00014225328 -0.000486674 -0.00039857463 -0.00028168483
-0.00011297955 -0.00014590874 -0.00012607037 0.00037311832 3.814898e-05 0.00014805332 0.00060935534 0.00018002301
7.884084e-05 0.00031844227 -0.00022814504 -0.00014096589 4.5243164e-06 -0.0003458248 -0.00023052901 -0.001131294
-0.00025685798 -0.0007537762 -0.0006329983 -0.0004437357 -0.00014129555 -0.0002500654 -1.2021967e-05 0.00048643237
8.355217e-06 0.00027937704 0.0008957485 0.00041966804 0.00012956295 0.00048307085 -0.0003429098 -0.00029256436
-5.2223027e-06 -0.00054569374 -0.000242815 -0.0016013656 0.00023654857 0.0002864943 0.00030562092 0.000100833866
7.204655e-05 0.00014024433 -0.00018824759 -0.00018356534 -1.6237163e-05 -0.00016513876 -0.00033173096 -0.0002817182
-6.205834e-05 -7.040515e-05 0.00015716822 0.00019012686 8.040521e-05 0.00018096251 -0.000110700494 0.00037762357
0.0002194714 0.00012465377 -6.446208e-07 -0.00012898158 0.00023162478 0.00014813438 -0.00010465319 -0.000120930796
2.2119399e-05 2.254136e-05 -3.0585063e-05 -4.179535e-05 -4.4980312e-05 0.00013279013 -8.326149e-05 -8.868774e-05
0.00014669719 0.00027598644 -7.864084e-05 0.0001139925 0.00010911409 -6.2682695e-05 -9.0433314e-05 -0.00021754466
4.107031e-05 0.00010138248 -0.00027289023 9.134466e-05 3.2222597e-06 9.4680494e-05 0.00026427396 3.5760218e-06
-1.4391138e-05 0.000264093 -0.00013909827 -5.8731945e-05 0.00015732407 -3.51236e-05 -0.00033043657 -0.00051291304
-2.2424904e-06 0.00020674519 0.00013423292 0.00012140761 7.085628e-05 1.9221457e-05 0.0002479471 -0.00023642906
-4.635413e-05 -4.226998e-06 -0.00031339002 5.4129756e-05 -1.4311228e-06 -0.00017792989 0.000111324174 -1.7388253e-05
-2.6503241e-05 0.00016823209 0.0002493885 0.0006777231 4.1198808e-05 0.0001454 0.00018210546 0.00023511643
-1.9844847e-05 2.2650365e-05 -4.1220053e-05 -4.134318e-05 6.5229e-05 -0.00019896674 -0.0002328403 -0.00024321218
-4.0952797e-05 -0.00023069812 0.00014439422 0.0001656628 -9.796403e-05 8.905239e-05 0.000105251296 0.00034374365
0.00038576592 0.0007574204 0.0007669407 0.00031111887 0.00017935799 0.0002510746 -7.3867406e-05 -0.0006163206
-0.000114073904 -0.0003058742 -0.0010291777 -0.0004323617 -0.00011473168 -0.00035314678 0.00036469122 0.00037673308
0.00013354025 0.00057115353 4.581193e-05 0.0014782844 -0.00021720851 -0.00028053214 -0.0002496068 -8.965332e-05
-0.00012957543 -0.0001307766 9.4272364e-05 0.00020318534 5.82782e-06 0.0001352444 0.0003242657 0.00021952656
5.3426833e-05 8.858126e-05 -0.000116172494 -0.00011953615 -5.759343e-05 -0.00024681503 1.0684277e-05 -0.0004615682
0.00019136329 0.00035618132 0.000357319 0.00016154934 5.0692728e-05 0.00015816365 -0.00014468582 -0.00018255631
-3.9913022e-05 -0.00015133913 -0.00040374385 -0.00025185183 -9.863704e-05 -0.00012787702 0.00013724323 0.00021282892
5.7772544e-05 0.00021457695 -5.0822997e-05 0.0005808742 -0.0002997001 -0.00043529164 -0.00049120135 -0.0002204293
-5.5120207e-05 -0.000182374 0.00027830238 0.00021714738 2.202614e-05 0.00027685126 0.00052973727 0.00044631044
0.00010587049 0.00018051578 -0.00021686069 -0.00034418463 -5.9559206e-05 -0.00026052332 0.00012734366 -0.00061629276
8.427637e-05 0.00030450744 0.0001387754 0.00018930914 0.0001495871 8.6142485e-05 0.00017696685 -0.00021593769
3.7622285e-05 -6.4301676e-05 -0.00035308953 -8.061647e-05 -6.0617775e-05 -0.00022046115 9.501647e-05 -1.3707424e-05

exp_avg_sq f4 [20, 20]
00000000: d309 0735 53c6 0235 4525 f634 6ff0 d134
00000010: 07d6 e034 9b20 9434 40a1 3135 f8af 6f34
00000020: 9eac 2a34 08d4 5a34 13d3 cf34 9beb 0035
00000030: 3515 9934 50d2 8a34 c1ff 4a34 4aea b334
00000040: 8354 9f34 2eec ad34 0961 3035 01e8 9835
00000050: 54b2 0335 8236 a935 aafb 8535 43d2 0035
00000060: d6b5 0b35 c2d4 b634 5b37 9135 a969 d334
00000070: 0246 e234 8c5c 8534 a849 9535 d25a a034
00000080: ed17 e334 60ce 8334 5a08 2834 57b5 0135
00000090: 32b3 0d34 8709 e134 0724 9435 3814 0737
000000a0: 6009 4d35 4de5 0c36 c387 b335 2a07 6235
000000b0: 35d6 3e35 12bf d834 30f1 bf35 2b1c 3a35
000000c0: 13de 1c35 dcca be34 9bf5 ee35 0c61 a734
000000d0: 8720 0d35 4de6 f434 8d24 9534 fe68 2635
000000e0: d897 6734 4f52 4235 89a4 b835 aa4b 8337
000000f0: 97cc 3d35 f68b 3535 0ac8 3035 eb65 8634
00000100: 3295 c434 b594 b534 03a6 4535 bed0 be34
00000110: c58a 5734 5362 1334 f9aa 2735 a613 c534
00000120: fbf6 7934 d139 7734 09d1 8534 0f49 bb34
00000130: d2b7 8134 705f cb34 aa2f 0135 2c0a c035
00000140: bffe bb34 fb6f e434 a6cc fe34 a52a 3c34
00000150: 707a 8534 1eeb 8234 443d 2735 a1bd 3734
00000160: 088e 3234 251b e033 52a2 b834 0947 6334
00000170: 8efe 6d34 ac28 0f34 801c f933 d763 9234
00000180: 4a55 0134 547f 6a34 cb40 fb34 fae8 8d35
00000190: 30d4 0d35 23f6 4635 3499 2c35 1b23 a434
000001a0: c894 a734 e257 af34 376b 5e35 c30d 6134
000001b0: a15e 5234 24ce 4e34 bf3c 2835 1e04 e734
000001c0: baa8 a734 6d4d 3734 bbad 3234 ae4e ce34
000001d0: 4a59 1734 87e9 aa34 ebaf 1235 a086 2436
000001e0: 62f6 8d34 14e7 1e35 dd3d 1835 7f3d 7f34
000001f0: 4ec2 9f34 51e1 6934 7c5d 4835 854d 3b34
00000200: 399a 7434 056b 1d34 5c03 0d35 759d 7834
00000210: 96dd 9034 71fc 3534 ba81 fd33 84b9 9734
00000220: 8b5b 1a34 c595 6a34 44d5 6635 7ac2 4c36
00000230: c647 0835 618e ed34 603c b434 2d41 a034
00000240: 4aa4 b234 d980 6634 798a 0035 5546 8234
00000250: 80f1 2534 1960 1e34 8f3f ba34 cc34 a734
00000260: b64a 4134 1e9d 4e34 0745 8b34 83b4 6834
00000270: 573a 1b34 91b4 a234 0f42 ad34 2036 0f36
00000280: 3949 eb35 ae2d 4b36 92c6 2036 fe53 7935
00000290: d406 9235 96d0 6435 9a29 1736 91de b035
000002a0: 2ef9 4735 a280 e534 578b 3236 1c41 3c35
000002b0: 341c 4835 a502 2e35 75cc 1335 5661 9235
000002c0: 9d89 3935 79a0 9a35 e849 f135 5879 6f37
000002d0: 7181 e234 b250 1d35 0eb7 0535 b246 8134
000002e0: b0ec 8334 8ce7 6d34 f421 ec34 eef8 b034
000002f0: 2c8b 3034 5c5e b733 6ad2 0235 35da 2934
00000300: b045 2d34 e25c 4e34 af71 5534 8c30 5c34
00000310: 7310 8734 fdc0 8c34 ee96 0635 6f94 f835
00000320: 3fdd 4f34 8ac1 ed34 4f12 be34 33b3 4f34
00000330: 92cc 1134 0b2d 0334 f4ec b934 3c37 2534
00000340: b292 f633 68d7 c933 aa08 d134 3816 1c34
00000350: ec8b 2334 4358 c833 9666 e033 c037 4834
00000360: 6f17 9233 c50c 1034 b646 8034 67c6 0e36
00000370: 6112 a335 e7b0 7c35 ab84 7a35 afea 1f35
00000380: b58b 5835 4c7f 0935 0b3b a035 e32d 2f35
00000390: 931d a034 456d 8634 ab8e 5c35 8e8c 2b35
000003a0: 82a1 9934 8fa1 2735 3c0c 1c35 2cd6 fc34
000003b0: b762 5835 b76d 5435 a36a bb35 c5d5 1b36
000003c0: e8f7 4134 4c6f e934 f25d 8034 7f77 8334
000003d0: 21af 7134 f1b1 da33 c287 a934 4a49 2f34
000003e0: be84 3e34 8ad4 6233 088b a334 ea9e 6733
000003f0: d925 e733 0c94 1734 21cf a133 75aa bf33
5.0305715e-07 4.8717374e-07 4.5848188e-07 3.9104222e-07 4.1878977e-07 2.7590872e-07 6.617229e-07 2.2322627e-07
1.5895282e-07 2.0379969e-07 3.871033e-07 4.8026567e-07 2.85139e-07 2.5857526e-07 1.8905759e-07 3.3511816e-07
2.9677548e-07 3.2395604e-07 6.5706314e-07 1.1392405e-06 4.9060804e-07 1.2607345e-06 9.982516e-07 4.7989687e-07
5.204614e-07 3.4054943e-07 1.0819452e-06 3.937869e-07 4.2146718e-07 2.4840517e-07 1.1122802e-06 2.9868403e-07
4.2299453e-07 2.455081e-07 1.5649258e-07 4.832013e-07 1.3196839e-07 4.1916448e-07 1.1037345e-06 8.051335e-06
7.6382094e-07 2.0995096e-06 1.3376051e-06 8.4201986e-07 7.109223e-07 4.0372157e-07 1.4300804e-06 6.933139e-07
5.843769e-07 3.5537857e-07 1.7803862e-06 3.1176785e-07 5.2573927e-07 4.5616108e-07 2.7780007e-07 6.19926e-07
2.1568792e-07 7.2390407e-07 1.3756954e-06 1.565165e-05 7.0705704e-07 6.7631424e-07 6.5856204e-07 2.50336e-07
3.66164e-07 3.3822076e-07 7.36298e-07 3.5542138e-07 2.007392e-07 1.3726212e-07 6.2461146e-07 3.6708406e-07
2.3279783e-07 2.3024701e-07 2.4925274e-07 3.488462e-07 2.416187e-07 3.7881136e-07 4.8125605e-07 1.4308075e-06
3.5016816e-07 4.2549786e-07 4.7460088e-07 1.7524378e-07 2.4862265e-07 2.4385457e-07 6.23015e-07 1.711219e-07
1.6629212e-07 1.04357504e-07 3.4390774e-07 2.1166865e-07 2.2164951e-07 1.3332709e-07 1.160015e-07 2.7267262e-07
1.2045089e-07 2.183927e-07 4.6799536e-07 1.0573124e-06 5.2835367e-07 7.4118924e-07 6.4297933e-07 3.0572923e-07
3.1214427e-07 3.2660233e-07 8.285746e-07 2.0959764e-07 1.95922e-07 1.9260239e-07 6.2673274e-07 4.30301e-07
3.122894e-07 1.707137e-07 1.6640745e-07 3.8427737e-07 1.4095454e-07 3.183488e-07 5.464523e-07 2.4516266e-06
2.6442564e-07 5.919585e-07 5.6714435e-07 2.3771098e-07 2.9757433e-07 2.1781786e-07 7.4641844e-07 1.7443934e-07
2.2780377e-07 1.4660698e-07 5.253148e-07 2.3154082e-07 2.6983315e-07 1.6948776e-07 1.1804828e-07 2.8260922e-07
1.4375671e-07 2.1847434e-07 8.599202e-07 3.051157e-06 5.076839e-07 4.4248284e-07 3.357154e-07 2.9849744e-07
3.327462e-07 2.1467294e-07 4.788522e-07 2.426556e-07 1.545468e-07 1.4749857e-07 3.4691445e-07 3.114459e-07
1.8001705e-07 1.9242404e-07 2.5940992e-07 2.1672354e-07 1.4456724e-07 3.030623e-07 3.2271825e-07 2.1340165e-06
1.7530175e-06 3.0275946e-06 2.395744e-06 9.2881953e-07 1.0879835e-06 8.524015e-07 2.2524969e-06 1.3177797e-06
7.449588e-07 4.2748167e-07 2.6605173e-06 7.0130204e-07 7.4546847e-07 6.48239e-07 5.505929e-07 1.0906176e-06
6.9118124e-07 1.1520598e-06 1.7977409e-06 1.4273763e-05 4.218996e-07 5.8604485e-07 4.981274e-07 2.407956e-07
2.4572864e-07 2.2156581e-07 4.398313e-07 3.2963675e-07 1.6441908e-07 8.5387654e-08 4.8734967e-07 1.5818735e-07
1.6137233e-07 1.9219036e-07 1.9878529e-07 2.0506758e-07 2.5157678e-07 2.621745e-07 5.013852e-07 1.852064e-06
1.9358866e-07 4.4285508e-07 3.540358e-07 1.934357e-07 1.35786e-07 1.2216712e-07 3.463134e-07 1.5386917e-07
1.14819514e-07 9.398974e-08 3.8935588e-07 1.4536715e-07 1.5231461e-07 9.3292805e-08 1.0449473e-07 1.8646733e-07
6.802917e-08 1.341569e-07 2.3893307e-07 2.1275134e-06 1.2149795e-06 9.413474e-07 9.3325315e-07 5.9573625e-07
8.066957e-07 5.122172e-07 1.1938113e-06 6.5259354e-07 2.982384e-07 2.503895e-07 8.2163996e-07 6.3907e-07
2.8615983e-07 6.2447447e-07 5.813233e-07 4.7094488e-07 8.060992e-07 7.913581e-07 1.3963621e-06 2.322123e-06
1.8064713e-07 4.348061e-07 2.3910212e-07 2.4487596e-07 2.2508586e-07 1.01837834e-07 3.157748e-07 1.6324807e-07
1.774342e-07 5.281303e-08 3.0462274e-07 5.392841e-08 1.076366e-07 1.411683e-07 7.534823e-08 8.9251365e-08

exp_avg f4 [20]
00000000: 15d2 89ba 44ae 8dbb 876b c3bb 9ccf ae3a
00000010: f2ee ba37 c688 21bb fd41 193b bb51 0a3b
00000020: c348 cc3b 6d6a 02bb 8e13 f43a cae1 4cbb
00000030: e809 6f3b c787 f3ba a1f2 d23a ee0f d339
00000040: 6c7e c4ba 281f 60b8 6ac5 353b e085 99ba
-0.001051488 -0.0043237526 -0.005963746 0.0013337019 2.2284195e-05 -0.0024648174 0.002338528 0.0021105844
0.00623426 -0.001989986 0.001862155 -0.003126251 0.003647441 -0.0018579894 0.0016094038 0.00040256925
-0.001499129 -5.343478e-05 0.0027736076 -0.0011712871

exp_avg_sq f4 [20]
00000000: b18c 5f37 ee74 d738 c82b 3539 5f75 8d37
00000010: 2f96 6237 c891 2338 b073 f737 aabf 0a38
00000020: 673e 2539 3bf8 b137 2fe1 9837 76f8 1f38
00000030: 92f3 6b38 7d2f d237 0089 b737 ea02 ba36
00000040: 6f2a ab37 89f6 5937 198f cc37 a79e c137
1.3324593e-05 0.00010273779 0.00017277815 1.6863165e-05 1.3505617e-05 3.8997998e-05 2.9498566e-05 3.3080265e-05
0.00015758873 2.1215636e-05 1.8224671e-05 3.813995e-05 5.625521e-05 2.5056064e-05 2.1879096e-05 5.543571e-06
2.0404548e-05 1.2991609e-05 2.438533e-05 2.3081271e-05

exp_avg f4 [20]
00000000: 15d2 89ba 44ae 8dbb 876b c3bb 9ccf ae3a
00000010: f2ee ba37 c688 21bb fd41 193b bb51 0a3b
00000020: c348 cc3b 6d6a 02bb 8e13 f43a cae1 4cbb
00000030: e809 6f3b c787 f3ba a1f2 d23a ee0f d339
00000040: 6c7e c4ba 281f 60b8 6ac5 353b e085 99ba
-0.001051488 -0.0043237526 -0.005963746 0.0013337019 2.2284195e-05 -0.0024648174 0.002338528 0.0021105844
0.00623426 -0.001989986 0.001862155 -0.003126251 0.003647441 -0.0018579894 0.0016094038 0.00040256925
-0.001499129 -5.343478e-05 0.0027736076 -0.0011712871

exp_avg_sq f4 [20]
00000000: b18c 5f37 ee74 d738 c82b 3539 5f75 8d37
00000010: 2f96 6237 c891 2338 b073 f737 aabf 0a38
00000020: 673e 2539 3bf8 b137 2fe1 9837 76f8 1f38
00000030: 92f3 6b38 7d2f d237 0089 b737 ea02 ba36
00000040: 6f2a ab37 89f6 5937 198f cc37 a79e c137
1.3324593e-05 0.00010273779 0.00017277815 1.6863165e-05 1.3505617e-05 3.8997998e-05 2.9498566e-05 3.3080265e-05
0.00015758873 2.1215636e-05 1.8224671e-05 3.813995e-05 5.625521e-05 2.5056064e-05 2.1879096e-05 5.543571e-06
2.0404548e-05 1.2991609e-05 2.438533e-05 2.3081271e-05

exp_avg f4 [20, 20]
00000000: b57a 3837 a1a1 ccb6 8928 b4b6 a2af 34b5
00000010: 3112 e037 29d6 9cb7 9051 e037 9431 11b7
00000020: 7e65 3537 2b4b 2537 6066 edb7 9d90 ad37
00000030: 01c6 1d37 5d18 1a37 eb62 9637 1cf9 f0b3
00000040: 8307 4038 5d4c 0bb7 6721 2637 acef 8437
00000050: 4a57 41b8 2bd9 0238 cd7e 8137 0230 00b6
00000060: 37bb e836 c4a6 9b37 1b2c b635 686c 88b7
00000070: 734d 3bb7 d442 db34 2741 0d38 2046 2737
00000080: ac9f 9336 1ae4 0bb7 8a56 3eb7 bc9d 02b8
00000090: 2bef 97b7 0762 9737 fdf7 88b7 1b93 0d37
000000a0: 7328 da37 9039 7c37 b915 e636 037f 8236
000000b0: b538 d037 81a0 d3b6 2448 2337 50f3 57b7
000000c0: becd 9936 5c39 5b36 1710 87b8 538b e236
000000d0: a97f b236 b5d0 65b6 a51a f537 8b47 0e38
000000e0: 428d 0438 8852 6bb7 0ae8 0b38 3c0f 9d38
000000f0: 09de 77b8 6fcc c536 9514 f536 aacf b8b6
00000100: 7a6a f9b6 8293 50b5 7a58 fe37 1880 2437
00000110: b139 acb7 23c7 b4b6 755c bf36 c204 da37
00000120: 78fb fb34 4c12 32b8 0dfc 12b6 74c7 1bb7
00000130: 742b 17b8 958c 0eb7 c022 e837 68e5 9437
00000140: 6bc3 8e36 144a fc37 ab39 1f38 ac0c 4737
00000150: 56d0 1b38 0c22 6b35 b7bb b337 1fc9 09b8
00000160: 5a11 0b36 cd04 a635 eab5 bcb8 2c12 3938
00000170: a7bf d436 34ac 8ab7 3624 90b6 fa49 8f38
00000180: d9f7 be37 0bf6 99b8 6d90 5738 96d5 7638
00000190: 54d2 4038 0164 c5b7 89cb adb6 6998 b135
000001a0: 4eb4 abb6 3002 0db7 214a 60b7 680a 8536
000001b0: 014a 5937 f278 1736 8f08 95b7 2a7a 7bb7
000001c0: 3ec3 6035 3949 e037 50ff 1c37 d318 ec37
000001d0: c694 b537 6d93 10b7 2bee 74b7 d792 3f35
000001e0: 606f e2b5 b9cd 74b7 765f 79b7 99c3 10b6
000001f0: 2ed8 8a37 a5e0 30b7 6833 e637 b989 73b7
00000200: 1f87 7637 dfa3 a736 e00a d6b6 ad17 e937
00000210: b124 7337 7a9e 90b6 1fb4 7136 0126 86b7
00000220: 3ace d437 be07 6cb5 c230 3f37 2179 3c38
00000230: 6363 06b7 da20 61b7 112c a4b7 0679 b8b6
00000240: 927f 8db7 a97a 0237 795d 20b7 9ab9 8b36
00000250: 28f4 f2b6 a877 22b6 3455 2e38 4e12 43b6
00000260: 2da8 93b6 f3e7 8d36 cf14 ebb6 3f6a 0db8
00000270: faeb fbb6 1898 1738 99ac c0b7 00d9 00b8
00000280: 3b3e 7937 c713 8e37 b9fd a5b6 a997 4637
00000290: cc08 b536 0e02 f0b7 3608 73b8 3319 adb5
000002a0: 4c28 9637 94d1 fa36 7f6d 36b8 b41b 94b8
000002b0: 95ca 1d38 e87c c137 b6dd 3438 4fc8 e937
000002c0: 5e1b 8ab6 4cf8 3d38 958f c6b8 eb13 0e38
000002d0: fff1 92b7 6e7b d1b5 acef a336 d511 b336
000002e0: ef6c 9237 805d 1bb7 2009 b137 8114 c1b7
000002f0: 9bb1 1838 bbed c435 218a 80b6 fb98 1338
00000300: 3c20 9737 3001 65b5 7715 1db8 7a40 9237
00000310: ce00 ccb6 c9ab 8cb8 caea 9537 ad01 2b38
00000320: 7a55 9038 84f2 08b7 4be9 80b7 f278 b436
00000330: 76ac 1637 1990 33b6 51c5 04b8 48a3 9c36
00000340: 04fb 9837 57f0 4ab5 06cd 4cb8 156c f4b7
00000350: f2d7 a2b5 3eae c937 3434 f037 5cac 7e37
00000360: 0598 3538 b2e9 a937 9221 1bb7 ccb5 0837
00000370: d07f 9238 7836 4db6 220b 0c34 4d9d 7737
00000380: e047 6037 4c06 22b7 a411 c4b7 235e beb6
00000390: 2ca7 0438 4448 1936 d73d 00b8 808e 0cb8
000003a0: 0918 8f36 0543 3738 9d47 e536 e6a0 db37
000003b0: 7b2c 4738 2e15 9a37 7430 31b8 fc9a 3237
000003c0: 15e4 c1b7 486a b437 71eb 3838 127c 6537
000003d0: 8380 c636 354f a637 ef0b 1c38 a9cf ccb7
000003e0: 85f5 c7b7 525a d9b6 0551 48b7 64da 4438
000003f0: a980 f3b7 df1c 28b8 ed13 26b8 396f 2b37
1.0995825e-05 -6.09849e-06 -5.369137e-06 -6.7310805e-07 2.6711352e-05 -1.8696375e-05 2.6740861e-05 -8.654217e-06
1.0812071e-05 9.852268e-06 -2.8300274e-05 2.0690548e-05 9.404031e-06 9.184788e-06 1.7927456e-05 -1.12211836e-07
4.5783363e-05 -8.302825e-06 9.902148e-06 1.5847232e-05 -4.609608e-05 3.119667e-05 1.5437045e-05 -1.910143e-06
6.9359335e-06 1.8555096e-05 1.3572893e-06 -1.6262944e-05 -1.1164101e-05 4.0840553e-07 3.3677698e-05 9.970303e-06
4.3995296e-06 -8.338155e-06 -1.1345031e-05 -3.1141317e-05 -1.8111974e-05 1.804625e-05 -1.6327942e-05 8.438506e-06
2.600646e-05 1.5033773e-05 6.857063e-06 3.889088e-06 2.4821938e-05 -6.306975e-06 9.732354e-06 -1.2871649e-05
4.583707e-06 3.266693e-06 -6.4402986e-05 6.7515443e-06 5.319675e-06 -3.4245143e-06 2.9218683e-05 3.3922068e-05
3.160281e-05 -1.4026307e-05 3.3356286e-05 7.489181e-05 -5.9096175e-05 5.8948567e-06 7.303965e-06 -5.5078026e-06
-7.433174e-06 -7.770069e-07 3.032036e-05 9.804986e-06 -2.0530862e-05 -5.3876006e-06 5.703007e-06 2.598984e-05
4.693536e-07 -4.2455547e-05 -2.1902408e-06 -9.285159e-06 -3.6041674e-05 -8.496591e-06 2.7672737e-05 1.77498e-05
4.2546794e-06 3.0075236e-05 3.796226e-05 1.1864275e-05 3.7148908e-05 8.7593867e-07 2.1425874e-05 -3.2850654e-05
2.0722714e-06 1.2369361e-06 -8.998423e-05 4.412436e-05 6.3404036e-06 -1.653107e-05 -4.29575e-06 6.8325506e-05
2.2765178e-05 -7.3414376e-05 5.13945e-05 5.8849888e-05 4.597225e-05 -2.3530798e-05 -5.1794964e-06 1.3231885e-06
-5.1171874e-06 -8.404764e-06 -1.33687e-05 3.9649203e-06 1.2951438e-05 2.2571153e-06 -1.776617e-05 -1.4989209e-05
8.373062e-07 2.6736978e-05 9.357769e-06 2.8144952e-05 2.164616e-05 -8.617394e-06 -1.4598986e-05 7.1366725e-07
-1.6870727e-06 -1.4591432e-05 -1.4863783e-05 -2.1571525e-06 1.6551548e-05 -1.0542722e-05 2.7442074e-05 -1.4515995e-05
1.4694203e-05 4.996065e-06 -6.378963e-06 2.778679e-05 1.4492472e-05 -4.3099835e-06 3.6016643e-06 -1.5991742e-05
2.5368401e-05 -8.792812e-07 1.13958395e-05 4.4935503e-05 -8.010163e-06 -1.3418694e-05 -1.9570844e-05 -5.4977163e-06
-1.6867914e-05 7.777163e-06 -9.5585065e-06 4.1641297e-06 -7.2405855e-06 -2.420953e-06 4.1564184e-05 -2.906792e-06
-4.4005196e-06 4.22913e-06 -7.005968e-06 -3.371597e-05 -7.507854e-06 3.6142854e-05 -2.2968556e-05 -3.0719675e-05
1.4856046e-05 1.6936929e-05 -4.9469204e-06 1.1837031e-05 5.3952444e-06 -2.8611186e-05 -5.794336e-05 -1.2896838e-06
1.7900158e-05 7.4749787e-06 -4.3494158e-05 -7.06235e-05 3.7620386e-05 2.3065557e-05 4.312183e-05 2.786904e-05
-4.1159064e-06 4.5292356e-05 -9.46812e-05 3.387399e-05 -1.7517244e-05 -1.5607636e-06 4.88568e-06 5.3366916e-06
1.7455282e-05 -9.26049e-06 2.1104293e-05 -2.301694e-05 3.6405032e-05 1.4672327e-06 -3.8307776e-06 3.5190005e-05
1.8015613e-05 -8.5310876e-07 -3.7451708e-05 1.743458e-05 -6.0797674e-06 -6.707718e-05 1.7871516e-05 4.0771138e-05
6.882376e-05 -8.162697e-06 -1.5367425e-05 5.378498e-06 8.980851e-06 -2.6756954e-06 -3.1655018e-05 4.6681707e-06
1.82367e-05 -7.5600605e-07 -4.8828333e-05 -2.9137396e-05 -1.2132789e-06 2.4042205e-05 2.8634538e-05 1.517971e-05
4.3295342e-05 2.0255193e-05 -9.246536e-06 8.14856e-06 6.9856294e-05 -3.0579085e-06 1.3042566e-07 1.4758972e-05
1.3368175e-05 -9.657419e-06 -2.3373235e-05 -5.6734e-06 3.1626943e-05 2.284084e-06 -3.057517e-05 -3.3511315e-05
4.26453e-06 4.3693017e-05 6.8330687e-06 2.6181759e-05 4.7486723e-05 1.8368093e-05 -4.2245214e-05 1.0645712e-05
-2.3113602e-05 2.1507163e-05 4.408829e-05 1.3678351e-05 5.9158206e-06 1.9825626e-05 3.7204412e-05 -2.4415394e-05
-2.3836978e-05 -6.4776186e-06 -1.1939793e-05 4.6933434e-05 -2.902777e-05 -4.008121e-05 -3.959604e-05 1.021829e-05
