exp/output/sigmoid/state.pt (torch_old, 340506 bytes, 12 tensors)

conv1.weight f4 [128, 4, 1, 3]
000000 ac fc f5 bd 54 65 dc 3f eb 90 17 3f 60 85 20 be
       -0.12011084 1.7218423 0.592055 -0.15675879
000010 a5 f1 6e 3e 41 32 9e 3e c5 ac bc 3d b6 75 7e 3e
       0.23334368 0.30897716 0.09212641 0.2484959
000020 93 5d 87 3f 49 d4 82 be 8d b8 a3 bd db 2d be 3e
       1.0575432 -0.25552586 -0.07994185 0.3714436
000030 9a 7f 49 bf 44 23 5a 3f ed 45 a7 be a3 93 ea be
       -0.7871033 0.8521006 -0.32670537 -0.45815763
000040 52 bc 8e be 9d bd 7e 3e 4d d1 17 bf 7b 86 20 3e
       -0.27878052 0.24877019 -0.5930374 0.156763
000050 fc 0c 49 3e 92 47 d0 bf 5b a6 40 bf 8a 05 ff bc
       0.1963386 -1.6271842 -0.7525384 -0.03113057
000060 61 b5 d5 bc 41 a6 40 3f 76 89 5c be 19 2a 13 3f
       -0.026087465 0.75253683 -0.21536812 0.5748611
000070 91 8f da 3e 6f fe dd 3e a3 18 05 bf c7 39 4a be
       0.42687657 0.4335818 -0.5199072 -0.19748603
000080 fe 09 15 3f 36 04 8d 3d af ef 11 bf 21 6f e7 be
       0.5821837 0.06885569 -0.57006353 -0.45201972
000090 80 5b de be 05 f1 6c 3f da 1d 18 3d a4 a4 9b be
       -0.43429184 0.92555267 0.037137844 -0.30399048
0000a0 2a 4c dd be 52 cd 62 3c 23 7c 25 bf ce bf 20 3c
       -0.4322217 0.0138428975 -0.6464254 0.009811355
0000b0 51 d5 a3 3e 29 49 80 bf ec 0f 97 bf 20 a1 21 bf
       0.31998685 -1.0022327 -1.1801734 -0.6313648
0000c0 b5 85 30 bf d4 a9 0b 3f dc d5 b8 bd a8 68 b5 be
       -0.6895402 0.5455601 -0.090251654 -0.3543141
0000d0 ca 43 24 3f a5 6b 33 3e e5 61 77 bf 71 fe b1 3d
       0.6416594 0.17521532 -0.9663375 0.08691109
0000e0 c7 90 cc 3e 12 30 45 bf 13 99 6d be b1 41 83 3f
       0.39954206 -0.77026474 -0.23202924 1.0254422
0000f0 82 de 6a bf 6c 65 16 bf 1a 40 88 bd 68 b1 b5 bd
       -0.9174577 -0.5874851 -0.066528514 -0.08871728
000100 48 5e b5 bd c1 d3 60 3f b8 53 78 3e 24 ba 0e be
       -0.08855873 0.8782311 0.24250686 -0.13938195
000110 c0 c6 e5 3e e8 52 87 3e 40 4b ce bd 12 2f 06 bf
       0.44878197 0.2643044 -0.100729465 -0.52415574
000120 84 92 3a bf 9b cb 6b 3f af 7c 3b 3d b9 e9 05 3e
       -0.72879815 0.9210755 0.045773204 0.1307744
000130 33 a6 86 3e 35 bd 41 bb 41 39 95 bf 54 3c 97 bd
       0.26298675 -0.002956224 -1.1658098 -0.073845536
000140 64 64 6e 3f 68 7e 80 be 31 c5 c0 be 98 5c 8e 3f
       0.93121934 -0.2509644 -0.37650445 1.1122007
000150 f0 d1 4d bf a0 f9 1f 3f 8d 55 cc be cb 43 00 bf
       -0.80398464 0.6249027 -0.3990902 -0.50103444
000160 e5 4f 53 be 41 0d 1d bc 75 e9 6f be 99 94 14 3e
       -0.20635946 -0.0095856795 -0.234289 0.1450981
000170 bc 4d f8 3d b6 8f 98 bf 35 e5 52 bf 9a 9c 91 3e
       0.12124202 -1.1918857 -0.8238099 0.2843979
000180 5f f1 1c 3f 7b 07 15 3f 61 7f b1 3e ac d4 35 be
       0.61305803 0.5821454 0.34667495 -0.17756909
000190 58 e5 fc bd d6 3f e2 be f0 25 24 3f 87 0f 4f 3f
       -0.12348431 -0.44189328 0.6412039 0.8088307
0001a0 f2 bc db 3e 0a 8f b0 3e 10 8b b6 bd 21 3a 04 bd
       0.4291759 0.3448413 -0.08913243 -0.032282
0001b0 7a 53 07 bf 65 e1 a4 3f 84 5c dc 3d 7d 52 ab be
       -0.5286175 1.2881285 0.107598335 -0.3346137
0001c0 3f 9d 6d be 06 e5 7f bc e7 60 1c bf 4b 15 5e be
       -0.23204516 -0.015618568 -0.6108536 -0.2168781
0001d0 f9 00 d7 3e 4b bb 67 bf 1e b2 86 bf 12 5a 1d bf
       0.4199293 -0.9052016 -1.0523107 -0.6146556
0001e0 c3 ec 17 be 74 06 49 3f 98 1d f4 3e e8 85 fd 3e
       -0.14836411 0.7852547 0.47678828 0.49516225
0001f0 8e c3 09 3f b9 a6 1d bd e7 20 4f bf 2d 82 88 3e
       0.5381402 -0.038489077 -0.8090958 0.26661816
000200 a8 e4 6c 3f 82 a5 70 3d 31 42 1a bf 32 22 7d 3f
       0.925364 0.05875159 -0.6025725 0.988803
000210 dd 4c 0d bf 32 90 0b 3f 4f a5 0f be 0f ee 08 3f
       -0.5519541 0.545169 -0.14027904 0.5348825
000220 29 47 44 be 6f b2 7d be 8c eb 81 be 1e ec 8f be
       -0.1916777 -0.24775098 -0.2537502 -0.2810983
000230 1b 4c 92 3e 21 b4 2c 3f b8 8a 0a bf 48 1d 1a 3f
       0.2857369 0.67462355 -0.5411792 0.6020093
000240 79 47 75 be 8d 93 0d bf 7d 29 de 3e 66 2a 89 3c
       -0.23953046 -0.5530327 0.43391028 0.01674385
000250 ff fb 17 bf 45 e2 07 be ff c1 dc 3e 60 15 95 3d
       -0.5936889 -0.13269909 0.43116757 0.072794676
000260 9c f1 b0 3d fb 6b 17 3f 14 00 1a 3e d8 7c 83 be
       0.08639833 0.5914914 0.15039092 -0.25681186
000270 8f 98 25 3d 01 0d 3c bf 6c 26 82 3d 59 23 a1 3d
       0.040428694 -0.7345734 0.06354985 0.0786807
000280 5b a4 19 bc d1 c3 85 3e 06 dc e4 3e 9b 10 f3 bd
       -0.009377564 0.2612596 0.44699115 -0.118684016
000290 b8 fc e7 3e 3c f2 db 3e 71 51 67 bf 02 68 56 bf
       0.45309997 0.42958248 -0.90358645 -0.83752453
0002a0 e5 f2 f9 bd 96 57 14 3d 8c c8 6e bd ab 46 28 be
       -0.122045316 0.03621634 -0.058296725 -0.16433208
0002b0 52 9d 07 3f 96 ed a2 be 05 b4 71 be e3 1d 44 3f
       0.52974427 -0.3182189 -0.23603828 0.76608104
0002c0 f3 56 01 bf d8 a4 47 3f 84 c2 2c 3f 22 cc ce be
       -0.505233 0.77985907 0.6748431 -0.40390116
0002d0 8b c5 90 bd a4 aa b5 be cd c6 af bf 7b a8 a7 bc
       -0.07068928 -0.3548175 -1.3732544 -0.02046608
0002e0 1e 33 17 be f9 70 57 bd 20 88 09 be 5a 44 aa 3e
       -0.14765593 -0.052597973 -0.13430834 0.33255273
0002f0 47 4e ca 3d 39 39 87 bf c2 80 39 bf a3 b5 9e 3e
       0.098782115 -1.0564338 -0.72462094 0.30997953
000300 fa ec e9 bd f3 56 83 3f d0 6a 9d 3e 24 a3 41 bd
       -0.11422153 1.026091 0.30745554 -0.047274724
000310 75 97 8e bc 76 90 87 3e 1b 08 ec 3e 0b 90 11 3f
       -0.017406205 0.26477402 0.46099934 0.5686042
000320 95 2a 63 3f d9 ff 9a bd 8d 13 2a 3b a7 02 1b 3e
       0.8873685 -0.0756833 0.0025951595 0.1513773
000330 47 05 e5 be 22 9d 0c 3f 92 e2 21 be 73 12 0f 3e
       -0.4473059 0.54927266 -0.15809086 0.13971882
000340 41 aa 2b 3f a3 1a 20 3f 16 91 59 be ca 74 b6 be
       0.6705666 0.62540644 -0.21246752 -0.35635978
000350 89 64 0f 3f 43 98 ab be 1e ee 96 be 75 5f f5 be
       0.5601278 -0.33514604 -0.29478544 -0.4792439
000360 29 87 88 bc 12 35 5c bf 26 12 ba 3e c7 89 b1 bc
       -0.016666012 -0.8601848 0.3634197 -0.021672143
000370 c1 a0 94 be 40 22 93 3e df 3f f7 3e ee b4 ca bd
       -0.29028895 0.28737068 0.48290917 -0.09897791
000380 d1 33 a2 3e 66 16 0e 3b b6 b2 93 bf d0 79 d5 be
       0.31680158 0.002168083 -1.1538913 -0.41694498
000390 86 0e 70 bd d9 84 af 3f 18 10 53 3f 2a 4f ee bd
       -0.0586076 1.3712417 0.8244643 -0.11636193
0003a0 40 28 87 3d 77 89 d7 3e 60 18 1b 3f 3f 14 b5 3e
       0.06599474 0.42097065 0.6058407 0.3536701
0003b0 5c bc 86 3f 75 16 5c 3e 11 8b ad be a5 07 d2 3d
       1.0526233 0.21492942 -0.33895162 0.10255364
0003c0 b9 28 13 bf 23 6d ba be 09 f1 b5 be 2c c1 f3 be
       -0.5748401 -0.3641139 -0.35535458 -0.47608316
0003d0 42 a2 79 bf 3e 52 a9 be d6 ed 11 bf 8c bb 38 3d
       -0.9751321 -0.33070558 -0.57003534 0.045100734
0003e0 4b 57 20 bf 2b 19 ed be 24 64 5e bf 1a 24 78 be
       -0.626332 -0.46308264 -0.8687155 -0.24232522
0003f0 33 dd 1b be de a6 c1 3f a6 9f 13 3f 28 07 86 bd
       -0.152211 1.5129049 0.5766548 -0.06544334

conv2.weight f4 [64, 128, 1, 3]
000000 41 03 46 bc c8 0b 35 3c 74 33 00 3d 5b 44 29 bd
       -0.012085737 0.011050172 0.03129907 -0.041324954
000010 41 40 b5 bb 0b e6 aa bc 69 5c 5f bd 93 8d 3b 3c
       -0.0055313413 -0.020861646 -0.05453149 0.011447328
000020 12 97 29 bc b3 2c 1e 3d d4 02 1d 3d 6c 1b 44 bd
       -0.010350959 0.038616847 0.038332775 -0.047877714
000030 57 9c 0a 3c 78 d7 01 bd 02 8d 4a 3c 05 e3 86 3b
       0.008460126 -0.031699628 0.01236272 0.0041164183
000040 5b 1e eb 3c cb 6f 36 bc 3a 86 d5 bc d7 95 35 bd
       0.028700998 -0.011135052 -0.02606498 -0.04433235
000050 e4 36 3b 3d e2 10 4d bd b6 ec 26 bd 13 ae d8 bc
       0.045706645 -0.05006493 -0.04075309 -0.026450193
000060 4e c8 0d bd 19 ff 02 3d 4c 40 ce bc 3f d7 fc 3c
       -0.034614854 0.03198156 -0.025177144 0.030864356
000070 a5 c8 14 bc f5 57 29 bd d9 dc 29 bd 31 05 4e bd
       -0.0090810405 -0.041343648 -0.041470382 -0.05029792
000080 1a b3 25 bd 5c ca 69 bd 84 85 f8 3b 6c 52 6e 3c
       -0.040454008 -0.05707775 0.0075842757 0.014546018
000090 66 8f 17 3d aa 3f 48 bd d0 f9 36 bd bb 88 d1 3c
       0.03700199 -0.04888884 -0.044671834 0.025577893
0000a0 66 9e 9f bc d0 e5 53 3b 5e 1b 56 bd 06 cf 10 bd
       -0.01948471 0.0032333024 -0.052272193 -0.035353683
0000b0 be fd 77 3b 15 4b 72 bb 6a 1c ea bc 94 04 f7 bc
       0.003784045 -0.0036971022 -0.028578002 -0.03015355
0000c0 71 d2 39 3d 2b 85 3f bb 55 05 20 3d d5 8b 77 bc
       0.04536671 -0.0029223661 0.039067585 -0.015109022
0000d0 73 67 e9 bb 72 4f 98 bd d1 8f e4 bc f0 3b d7 bb
       -0.007122928 -0.07437028 -0.027900608 -0.0065684244
0000e0 91 48 0b bd 4d 2f 89 3c 02 2e 70 bc d7 f4 a2 3c
       -0.03400475 0.016746188 -0.014659407 0.01989214
0000f0 c1 18 e5 bc 17 ff 97 bc f8 56 72 3c 06 11 41 bc
       -0.027965905 -0.018554254 0.014791243 -0.011783844
000100 cd a0 c0 bc d2 2e 83 3c 72 c1 4e bc 9d 1e 2b 3d
       -0.023514176 0.016013537 -0.012619363 0.041777242
000110 44 6b 18 3d 44 86 40 bd e3 16 92 bd 6f 20 de bc
       0.03721167 -0.047003046 -0.071332715 -0.027115075
000120 a4 9d 31 3d f6 2a fb bc 51 70 a4 3c 9b ab 3a bd
       0.04336323 -0.030660134 0.020073088 -0.045573812
000130 73 07 9b 3c 9e dd 0d 3d 43 9f 9e bb 3c d0 52 bd
       0.01892445 0.03463518 -0.004840763 -0.05146812
000140 06 18 09 bc 09 a7 91 bd c8 7a 10 bd d3 a7 c6 bc
       -0.008367544 -0.071119376 -0.035273343 -0.024249947
000150 cf 04 d6 3a 02 b3 ab 3c f8 5d 58 bc 67 cf e2 ba
       0.0016328337 0.020959381 -0.013205998 -0.0017304242
000160 dc 58 31 bc 58 f3 b8 3c 1b b7 c2 bc 9d a8 26 3d
       -0.010824408 0.022576973 -0.023768952 0.040688146
000170 0f 47 eb bc e7 c6 5a bc 99 3c a0 bc 01 b1 27 3c
       -0.028720407 -0.013353086 -0.019560145 0.010235072
000180 d4 78 30 bd 6d 68 0c bd fa 23 92 bc 23 54 3e bd
       -0.04308398 -0.034279276 -0.01783942 -0.046466958
000190 f2 13 5a bd c3 82 46 bd 52 00 64 bc 82 44 49 3c
       -0.053241678 -0.048464548 -0.013916092 0.0122844
0001a0 ba 63 89 bd e4 04 2e bd 3c e9 68 ba fc f8 3a 3d
       -0.067084745 -0.042485133 -0.0008884852 0.045647606
0001b0 e9 d2 ab ba 5e 21 7f bb 15 50 1b bc e5 cf d9 3c
       -0.0013109121 -0.00389298 -0.009479542 0.02658839
0001c0 0b 40 0b bc 9b cf 41 bd 6e cf 64 3b 7c 9f a3 bc
       -0.008499156 -0.04731713 0.0034913677 -0.019973509
0001d0 28 bb 2c bd 86 fd c2 3b d4 88 d2 bb 9b ba c8 bc
       -0.042170674 0.0059506325 -0.0064250026 -0.024503043
0001e0 06 09 92 3b 3b 13 38 3d 1b f7 2e 3d 98 3a 3f bd
       0.004456642 0.044940215 0.042716127 -0.04668674
0001f0 74 8a 27 bd 10 c7 cd bb 04 2e 5f bc dd b7 06 3d
       -0.040903524 -0.0062798336 -0.013621811 0.03289019
000200 6a 8b 9e 3c 8f 08 c4 bc 63 d9 9d bd f9 37 bf 3c
       0.019353587 -0.023929862 -0.07707479 0.02334212
000210 6d a1 cb bb d5 1e d6 bb 6f eb 3a bc f4 38 64 bc
       -0.006214312 -0.006534437 -0.011408671 -0.013929594
000220 c0 bf b3 bb 45 54 8a 3b 22 1e 82 3c b0 29 3b bb
       -0.005485505 0.0042214715 0.01588351 -0.0028558783
000230 fc ba eb 3c 98 a1 13 bd 6d c7 82 bc 65 1f 33 bb
       0.028775685 -0.03604278 -0.015964234 -0.0027331945
000240 55 e8 2a 3d e3 ef 08 bd c4 ee cc 3c 8d 5c 56 bd
       0.041725475 -0.0334319 0.025016196 -0.052334357
000250 da fa 0b 3d 6f ae 92 bd 2d ab c0 bc 53 b1 1e 3d
       0.034174778 -0.07162177 -0.023519123 0.03874333
000260 18 de 8b bc c9 a2 27 bd 91 f0 6b bd 48 67 2e bc
       -0.017073676 -0.04092673 -0.05760247 -0.010644741
000270 07 c7 54 bd 60 4f 78 bd 70 2a 53 bc f3 3c 40 bd
       -0.05194762 -0.060622573 -0.012888536 -0.046933126
000280 72 a9 c0 bc fa 1f c6 bc 49 29 91 bd 11 3a f1 bb
       -0.023518298 -0.02418517 -0.07087953 -0.0073616584
000290 33 d9 74 3c 52 33 fc 3c ab 64 69 3c 28 ce c0 3c
       0.014944362 0.03078619 0.0142451925 0.023535803
0002a0 03 85 68 bd b9 cb ce bc ca 24 a2 bc d7 0f a7 bc
       -0.056767475 -0.025243627 -0.019792933 -0.020393295
0002b0 7a f8 9e 3c 69 f4 bf bc e8 48 45 3c 32 6d 13 3d
       0.019405592 -0.023431974 0.012041308 0.03599281
0002c0 56 58 5c 3b ed 8e 3d 3b 55 7d 91 3b 2d 62 10 bd
       0.0033621988 0.0028924302 0.0044399896 -0.035249878
0002d0 9f 73 22 3d 57 d3 3b 3d 12 fe 3d 3d 00 2d ba bc
       0.039661046 0.045855846 0.04638488 -0.022726536
0002e0 4e 34 79 3c d5 36 33 3d 0d f3 a7 3c 2c 24 97 bd
       0.015210224 0.043753464 0.020501638 -0.07379946
0002f0 b4 3e e9 bc dc d7 23 3d 06 0d 02 3c 47 9e b9 3b
       -0.028472282 0.04000078 0.007937675 0.00566462
000300 e9 cb 23 bd f3 f6 91 bb 1b 17 21 bd b2 29 1a 3d
       -0.039989386 -0.0044544875 -0.039328676 0.03763742
000310 65 54 3a bc 41 fe 3d 3b e7 0c ab bc 33 32 4d bd
       -0.01137266 0.0028990658 -0.020880176 -0.0500967
000320 7a 57 80 bc 65 be 5e bd 8d 35 d2 bc 59 73 08 bd
       -0.015666712 -0.054380793 -0.0256603 -0.03331313
000330 fe 0e b3 3c c7 81 3a bd da fc 43 bd 18 67 8a 3c
       0.021857735 -0.04553392 -0.04784856 0.016894862
000340 87 f6 78 bd f2 43 ab b8 8b e6 28 bd 54 22 84 3c
       -0.06078198 -8.166571e-05 -0.041235488 0.01612965
000350 7e a7 0b 3b 44 5d 11 3d a9 5f 0c bd 9a 1b 22 bd
       0.002130955 0.035489336 -0.034270916 -0.039577104
000360 0a 5a 29 3d 38 36 08 bd 43 ff 3d 3b 7d 1e 68 bc
       0.041345634 -0.033254832 0.002899126 -0.014167425
000370 7d ea 86 bc 2d 8b 0d 3d 6a 52 b6 bc b1 b0 2c 3c
       -0.016469235 0.034556556 -0.022256095 0.010540173
000380 49 9d cc bb bf c5 f8 3b aa ac 04 bd 7f cb 1d 3d
       -0.006244336 0.0075919325 -0.032391228 0.038524147
000390 4b 7e 6e 3b ef ab 2c bd 22 cf 32 bd 1e 9f 1e 3c
       0.0036391194 -0.042156156 -0.04365457 0.009681491
0003a0 1e 67 4b bd 41 a6 03 bc 58 7f 9c bc e9 a1 1e bc
       -0.049658887 -0.0080352435 -0.019103691 -0.009682157
0003b0 33 bf 04 3d 43 37 eb 3c 57 a2 28 bd fc 28 27 bd
       0.032408904 0.028712874 -0.041170444 -0.04081057
0003c0 7a e8 4a bd 4b 4b 1c bc 8e 84 af bc 36 12 17 bd
       -0.049538113 -0.009539436 -0.021425512 -0.0368826
0003d0 58 23 98 bd dc 74 0b 3c bc c0 8a 3c 1d 5c b0 3c
       -0.07428616 0.008511748 0.016937606 0.021528298
0003e0 42 4c 41 3d 16 30 bd 3c c8 f2 68 bd 26 ef ad bc
       0.047191866 0.023094218 -0.05687216 -0.021232199
0003f0 a0 4b 17 bc 33 56 0b bd c3 3c 8f bd d3 46 8d bc
       -0.009234339 -0.034017753 -0.06994011 -0.017245686

conv3.weight f4 [32, 64, 1, 1]
000000 83 5d 94 3d 52 c2 6d 3d 72 b6 e7 bc ec 71 32 3d
       0.072443984 0.058046646 -0.028285239 0.043565676
000010 c8 67 a7 bd cd f3 21 bc 66 e1 01 3e fe bc 90 3d
       -0.081740916 -0.009884787 0.12683639 0.070672974
000020 2c 6c 6b 3d 84 e6 4c 3d 01 af bb 3d 91 75 79 bd
       0.057476208 0.050024524 0.09164239 -0.060903136
000030 18 ef 94 bd 63 eb 4e bd ee 24 54 3d fd d2 13 be
       -0.07272166 -0.05051745 0.05179303 -0.14435954
000040 78 b1 95 3d f7 6a aa bd 73 88 7e 3d 04 3c 4e bd
       0.0730924 -0.08321183 0.062141847 -0.050350204
000050 db 2a 46 be bd 33 31 3c 01 3f 01 bc 25 ee c8 bc
       -0.19352286 0.010815558 -0.007888556 -0.024527619
000060 3f 6d 8e bc 1e 51 e0 3d e8 be 9e bd 68 e0 e5 bd
       -0.017386077 0.10952972 -0.07751256 -0.11224443
000070 1e d6 86 bd 02 8b c6 3b aa 09 49 bd 81 6b ff bd
       -0.06583808 0.0060590515 -0.049081482 -0.124716766
000080 fc 50 cf 3d 28 87 6e bd b6 82 46 3c fc df a1 3d
       0.101228684 -0.058234364 0.012116125 0.0790405
000090 b1 09 9d 3d ed 3d 9e 3d f3 eb 64 bd d9 32 56 3d
       0.07667864 0.07726655 -0.05588908 0.052294586
0000a0 d4 a3 84 3d 1e 07 98 bd 6d 33 6c bd b2 82 76 3d
       0.0647656 -0.074232325 -0.05766623 0.060183235
0000b0 c5 7c f5 bd 5e e2 2b bd 34 f5 d2 bd bb e5 ec bd
       -0.119866885 -0.041963927 -0.10300675 -0.11567255
0000c0 ed 35 d0 3c 63 98 ce bc c9 0e ae 3c fe a9 89 3d
       0.025416339 -0.025219148 0.021247284 0.067218766
0000d0 35 a3 cc bd a7 7e b1 bd f0 fa 4c 3d f3 86 36 bd
       -0.09992067 -0.08666735 0.050044 -0.04456229
0000e0 aa bc 90 3d 56 ea 04 3d c7 fd df 3c 6e 27 8a bd
       0.07067235 0.032450043 0.02734269 -0.06745802
0000f0 fc ff ec bb 8b 99 9c 3d 87 1d 04 be 16 7d aa bd
       -0.007232664 0.076464735 -0.12901889 -0.083246395
000100 70 dd 9f 3d 35 b3 64 bc 26 34 88 3c b1 79 01 3d
       0.07805908 -0.013958742 0.016626429 0.031610195
000110 f8 d1 5b bd bf 16 01 3e fd 0f 8c 3f 5d 23 08 3e
       -0.05366704 0.12606333 1.0942379 0.1329474
000120 33 28 19 3d df 62 f3 bc d4 93 a0 bc fb c4 b1 3d
       0.037391853 -0.029710231 -0.01960174 0.08680149
000130 a4 f9 c1 3d 04 ad 82 bd bc a8 74 bc 3b 21 93 3f
       0.09471443 -0.06380656 -0.014932808 1.1494516
000140 d0 6e a8 3f e9 0d ad bc ff 2f d9 bc 44 2f cd 3d
       1.3158817 -0.021124797 -0.026512144 0.10018781
000150 8e dc a8 3f 2f c0 99 3f 9a 31 bf 3c 5b af 34 3d
       1.3192308 1.2011775 0.023339082 0.044112545
000160 6f 36 57 bd 95 8e 13 3d d4 1b 87 3d a1 4d 12 bd
       -0.052542146 0.03602465 0.06597105 -0.035718564
000170 df 9c 94 bd fb b1 b1 3f df 56 03 3e d2 64 82 3f
       -0.07256483 1.388244 0.12826107 1.0187018
000180 2b e7 4c 3c ba 76 49 bd 06 d6 34 bd 75 0e db bd
       0.012506287 -0.049185492 -0.04414942 -0.10696117
000190 56 7c 79 bc cd 7b c8 3d 5e 1b 77 bd bc 1f 8e 3f
       -0.015227398 0.09789238 -0.060328834 1.1103435
0001a0 58 c0 e7 3c 5f 6f 9c 3d 87 75 96 3f d0 3e b8 3d
       0.028289959 0.0763843 1.1754616 0.089963555
0001b0 3b 97 e5 3c 8d 18 a6 3f a4 9d 0f 3d d6 63 91 3f
       0.028026214 1.2976242 0.035062447 1.1358593
0001c0 12 ad 79 bd 72 42 be 3c f9 04 89 3f 72 f6 c3 3c
       -0.06095607 0.023225043 1.0704643 0.023921225
0001d0 78 be 64 3d b2 5c 82 3d c4 4c 27 bc 01 80 cc 3c
       0.055845708 0.063653365 -0.010211173 0.02496338
0001e0 24 93 98 3d 1e 70 8e 3d 61 de a0 bd a0 07 86 bc
       0.0744994 0.069549784 -0.078549154 -0.016361058
0001f0 bc dd 9a 3d 3b 9e 82 3f 9b e7 a8 3f fb fe 94 bc
       0.07561824 1.0204538 1.319568 -0.01818799
000200 ff f6 dd bd 92 28 cd 3c 81 14 a5 bd 18 5e 01 be
       -0.108381264 0.02504376 -0.080605514 -0.1263355
000210 77 96 05 bd 58 99 a2 3d 31 84 54 3f 97 8f eb 3c
       -0.032614198 0.07939404 0.8301421 0.028754992
000220 9f 29 ac 3d 0a df 84 bd bd fb e2 3d b2 5e 52 3c
       0.08406376 -0.06487854 0.110831715 0.01283996
000230 78 25 05 bd e4 fd c2 bc 92 e4 d6 3d d5 48 1d 3f
       -0.032506436 -0.023802705 0.10492815 0.6143926
000240 b0 74 37 3f 8d 0f b4 3d d0 17 87 3d f3 e5 83 3d
       0.71662426 0.087920286 0.06596339 0.06440344
000250 98 e3 4c 3f f4 07 56 3f cc 40 e2 3c 11 b9 04 3d
       0.8003478 0.83605886 0.027618788 0.032403056
000260 97 4b ec bd cc 12 a9 3d b5 3f 35 3b d8 05 56 3d
       -0.11537855 0.08255538 0.002765638 0.052251667
000270 ff be 16 3d e3 0a 40 3f 80 c8 60 bc 2a 26 25 3f
       0.03680324 0.7501661 -0.013719678 0.6451136
000280 bd 0d d7 3d f6 b9 35 bd f1 84 bb bd 2f b7 14 bd
       0.10500667 -0.0443668 -0.09156216 -0.03630751
000290 fc 54 10 bd 76 6d c3 bd f8 97 8f bd 3b a0 3a 3f
       -0.035237297 -0.095423624 -0.070114076 0.7290074
0002a0 4d ff d0 bd df c3 8c 3c 44 1c 31 3f 63 ae 97 bd
       -0.10204945 0.017183242 0.69183755 -0.074063085
0002b0 07 c7 22 bd ae fe 61 3f 80 2e 49 bd 00 e0 23 3f
       -0.03974059 0.88279235 -0.04911661 0.6401367
0002c0 78 c5 d9 bd 06 3a d3 3d 72 de dc 3e 13 c8 30 3d
       -0.10633367 0.103138015 0.43138462 0.043159556
0002d0 5f 72 d8 bd 61 e5 1b be 0c cf 84 3d 4b dc cf 3d
       -0.105686896 -0.1522422 0.064848036 0.101494394
0002e0 8f 14 c7 3d 57 a6 bb 3d ff d8 f6 bd 8c 14 82 3d
       0.09720718 0.09162586 -0.120531075 0.06351575
0002f0 b3 a8 c6 bd aa 90 11 3f a7 34 37 3f 78 07 44 3a
       -0.097001456 0.56861365 0.71564716 0.00074779196
000300 6a d9 92 bd bc 3a 85 bc f5 3c c0 3d 21 fe f8 3d
       -0.07170375 -0.016263358 0.09386627 0.12157846
000310 90 d7 dc 3b cf 23 cb bd d2 17 0b 3d c8 9b 16 bc
       0.0067395642 -0.09918939 0.033958264 -0.009192415
000320 ce 64 51 bd ef 64 85 3d 52 39 ca 3d 89 c0 48 bd
       -0.051121525 0.06513392 0.09874214 -0.04901174
000330 98 8d af 3c cb 85 cc bd ab 37 af bc 5e d0 29 3d
       0.021429822 -0.099864565 -0.02138885 0.04145848
000340 e0 ca 8e bd b0 ca e9 bd 8b e0 a4 bd 4e 17 bf 3d
       -0.06972289 -0.11415613 -0.08050641 0.09330617
000350 df 1f 9a bd 8b 91 aa bd ce 48 41 3d c8 b5 9c bd
       -0.0752561 -0.08328541 0.047188573 -0.076518595
000360 d5 61 0e bc c0 c1 90 3d 18 87 f6 bc 54 cf 76 3d
       -0.008690317 0.07068205 -0.030093715 0.060256317
000370 dc a7 aa ba 21 06 35 bd f0 42 f5 bc 63 65 0d be
       -0.0013019997 -0.044195298 -0.029939145 -0.13808207
000380 5c 4a ce 3d 23 d5 86 bc 5f 9f 8b 3c 71 7f 87 3c
       0.10072777 -0.016459053 0.017043767 0.016540261
000390 eb 8f d9 bd 03 5c 88 3d da 3e fc 3c 93 c5 a0 bd
       -0.10623153 0.06658175 0.030791689 -0.07850184
0003a0 c4 a1 ea 3d ca 51 91 bd c0 c9 9a bd 2d 51 a6 bd
       0.114566356 -0.07095678 -0.07558012 -0.08120952
0003b0 98 86 88 bd d1 21 e0 bd 39 aa 11 bd ff 04 51 bc
       -0.06666297 -0.1094395 -0.035562728 -0.012757539
0003c0 3c 3b e4 3d 3d 07 8b 3a 59 ac e1 3c 0b 85 dc bc
       0.111441106 0.0010607016 0.027548002 -0.026918909
0003d0 17 46 d6 bd c2 ad 8d bd 9e 74 84 bd 15 f4 f2 bd
       -0.10462587 -0.06917907 -0.064675555 -0.11862961
0003e0 2b ff bc bc 93 2f 9c 3d bc 16 b8 3d 0b 16 28 3d
       -0.023070892 0.076262616 0.08988711 0.041036647
0003f0 6e e6 8f 3d 06 ff 9d bd ed 99 91 bd e3 92 92 bd
       0.07026373 -0.077146575 -0.07109437 -0.07156923

conv4.weight f4 [1, 32, 1, 1]
000000 2b df de bd e0 43 97 3f de c7 4a 3f e5 f4 c0 bc
       -0.1088241 1.1817589 0.79211223 -0.023554275
000010 99 54 d4 bd 16 22 ad 3f 52 d6 2f be 4c 5c a3 bf
       -0.10367698 1.3526027 -0.171716 -1.2762542
000020 14 c8 1f be 1e df 88 bf f2 99 2f bc 1a f9 98 bf
       -0.15603667 -1.069309 -0.010717856 -1.195102
000030 9f 6e d9 bf 5c be 8e bf 64 62 eb bd 56 e0 da bd
       -1.6986884 -1.1151843 -0.11493376 -0.1068732
000040 24 27 94 bf 5f 18 9a bf 9c 79 87 bf 32 34 63 bc
       -1.1574445 -1.2038687 -1.0583987 -0.013867425
000050 5c 36 8f bf b1 bc 90 bf 53 87 2c be 66 cc 7c 3f
       -1.1188464 -1.1307584 -0.16848497 0.9874939
000060 7b db c1 bf a4 43 06 bd 6d b3 1d be 6e 90 a5 3f
       -1.5145105 -0.03277935 -0.15400477 1.2934701
000070 bd 18 a6 3f 03 8d 96 bf 03 e5 84 bc 47 6e 0b be
       1.29763 -1.1761783 -0.016222483 -0.13616286

exp_avg f4 [128, 4, 1, 3]
000000 58 82 6b 37 5a 55 c5 37 2e 71 03 38 9b f4 a4 37
       1.40374395e-05 2.3523975e-05 3.133824e-05 1.9664227e-05
000010 5d c0 45 38 e1 79 69 38 88 8f c1 b7 27 32 21 36
       4.7147612e-05 5.5665038e-05 -2.307423e-05 2.4020062e-06
000020 e5 f2 00 b8 9e c7 cf 35 87 be 06 38 72 98 d6 b7
       -3.074379e-05 1.5480798e-06 3.2125532e-05 -2.5581776e-05
000030 69 46 44 37 9a dd 63 b7 03 92 01 b8 b0 f9 ef 37
       1.1698904e-05 -1.358185e-05 -3.089198e-05 2.860729e-05
000040 48 a6 16 b6 05 61 b2 b7 11 b2 9d b7 5d bb 31 b8
       -2.244853e-06 -2.1264432e-05 -1.8798777e-05 -4.2374584e-05
000050 44 96 50 b8 87 3f 7f b7 50 c2 0b b8 c2 cd 27 b8
       -4.973101e-05 -1.52139755e-05 -3.332115e-05 -4.000753e-05
000060 b5 c5 3c 38 d2 e7 16 b8 22 c3 08 b8 33 a4 91 38
       4.5006822e-05 -3.5978686e-05 -3.260666e-05 6.944723e-05
000070 0e 23 a9 b6 3c 25 70 b7 d8 36 65 b8 96 89 82 b8
       -5.0406734e-06 -1.4313784e-05 -5.4648932e-05 -6.2245104e-05
000080 91 7f 9c b8 fd 18 5e b8 d5 a3 0b b8 8e d1 8a b8
       -7.462421e-05 -5.2952197e-05 -3.3292763e-05 -6.6193854e-05
000090 50 f1 81 37 b8 af 35 b7 bd e6 1f b8 78 38 10 38
       1.5490368e-05 -1.0829353e-05 -3.8123446e-05 3.4384866e-05
0000a0 43 5e 01 36 a1 57 d0 b7 c4 bc b3 b7 ea 9a 45 b8
       1.9277365e-06 -2.4836338e-05 -2.1426364e-05 -4.7112735e-05
0000b0 bc 58 4e b8 58 d8 a0 b7 de 58 20 b8 79 52 25 b8
       -4.9196868e-05 -1.917423e-05 -3.8229737e-05 -3.9415874e-05
0000c0 9e bf ee 36 9a a9 b3 b7 fd ad 98 b7 cb dc f4 37
       7.11526e-06 -2.141744e-05 -1.8200832e-05 2.9189881e-05
0000d0 3c aa 55 b7 ae bd 24 37 c4 ec ce b7 85 50 dd b7
       -1.2735425e-05 9.819325e-06 -2.4667366e-05 -2.6382748e-05
0000e0 ed 90 ac b7 25 46 cd b7 69 27 c2 b7 d1 fc db 36
       -2.0571484e-05 -2.4470568e-05 -2.3144954e-05 6.5561403e-06
0000f0 03 35 3b b5 79 13 23 b7 6b 8b 87 b7 39 66 df b6
       -6.974007e-07 -9.720091e-06 -1.6158176e-05 -6.657818e-06
000100 0b 1f 98 b7 37 99 c5 b7 81 14 17 37 5f cb 8f b6
       -1.8134268e-05 -2.3555576e-05 9.005075e-06 -4.2854076e-06
000110 00 d9 8e 37 f7 4b a1 b4 16 41 67 b7 d9 16 82 37
       1.7028768e-05 -3.004386e-07 -1.3783827e-05 1.5507847e-05
000120 49 7c 0c 37 9e 3d 9a b7 e0 81 21 b7 58 a9 02 38
       8.373588e-06 -1.8386923e-05 -9.626587e-06 3.115213e-05
000130 54 a4 e6 b6 3f 69 b9 37 ce 22 fe b7 9f f6 ab b7
       -6.8736645e-06 2.2102728e-05 -3.0295367e-05 -2.049963e-05
000140 93 60 ed b7 9a 1e da b7 a6 d5 61 b7 15 bd 09 b6
       -2.8297572e-05 -2.6001875e-05 -1.3460789e-05 -2.052465e-06
000150 9b a6 3e 37 19 20 5c b7 a1 5a fa b7 8a fd e9 37
       1.1363673e-05 -1.3120495e-05 -2.9844525e-05 2.7893828e-05
000160 c3 e6 01 b6 6c 3d aa b7 bd 5f 9b b7 c1 f5 2c b8
       -1.935682e-06 -2.0294181e-05 -1.8522021e-05 -4.123687e-05
000170 28 76 4a b8 c2 c0 77 b7 a7 4e 07 b8 34 64 22 b8
       -4.8270595e-05 -1.4767227e-05 -3.225976e-05 -3.871713e-05
000180 a8 21 6b 36 95 f6 aa 37 f1 38 cb b6 dd b5 09 37
       3.503732e-06 2.0380403e-05 -6.0565003e-06 8.20818e-06
000190 ba e5 ae 37 4a d4 2b 35 79 3c 26 36 4d d9 96 b6
       2.0849391e-05 6.4011385e-07 2.4771127e-06 -4.4956455e-06
0001a0 75 4a cf b6 f3 69 07 37 35 17 8a b6 85 61 a3 b5
       -6.1777487e-06 8.071295e-06 -4.115422e-06 -1.2172828e-06
0001b0 d7 6f 95 37 b0 3d 9b b7 75 31 3c b8 73 10 28 38
       1.7814264e-05 -1.8506165e-05 -4.4868753e-05 4.006964e-05
0001c0 c3 f4 2f b6 c8 42 fe b7 8f ad e4 b7 d4 bf 6c b8
       -2.6219502e-06 -3.0310257e-05 -2.7260538e-05 -5.644544e-05
0001d0 c7 ab 78 b8 81 e3 d4 b7 3d c4 3e b8 c9 bc 4b b8
       -5.9287788e-05 -2.537831e-05 -4.548229e-05 -4.857479e-05
0001e0 a2 bf 05 b7 ca b2 7c b7 31 d0 1e 37 51 d4 a9 36
       -7.972036e-06 -1.5061998e-05 9.466007e-06 5.0613094e-06
0001f0 81 6e 4a b7 a4 5f de 37 63 a7 dd b7 8c da 38 35
       -1.2065867e-05 2.6508998e-05 -2.6423199e-05 6.886337e-07
000200 2d 15 94 b7 fd 91 08 b8 7a e3 3f 36 89 31 a2 b6
       -1.7652836e-05 -3.256089e-05 2.8593627e-06 -4.833743e-06
000210 2c 4a 0e b7 3d 15 6a b7 a4 97 74 37 db 96 cd b7
       -8.481129e-06 -1.3952432e-05 1.457884e-05 -2.4508152e-05
000220 88 0c e7 b7 c1 3b 9e b6 7e d1 f9 36 b5 22 a8 37
       -2.7543181e-05 -4.715723e-06 7.4451664e-06 2.0043322e-05
000230 25 f0 8e 37 2e 13 ea b6 bf a4 a5 37 de e7 fc 36
       1.7039545e-05 -6.9759762e-06 1.9746249e-05 7.537178e-06
000240 78 b6 fd b1 98 67 81 34 b2 0f 80 35 fd 43 68 34
       -7.3840134e-09 2.4103497e-07 9.541311e-07 2.1631418e-07
000250 88 de fd 34 7d ac 82 35 f3 09 fd b3 4d 5a 00 34
       4.7286835e-07 9.735955e-07 -1.178304e-07 1.195378e-07
000260 e9 57 19 b5 04 ec 35 34 71 15 c5 34 da 7a 11 b5
       -5.712487e-07 1.69428e-07 3.670971e-07 -5.419548e-07
000270 54 cc fe 37 a8 25 2f b7 e5 06 07 b8 d4 e1 56 38
       3.0374307e-05 -1.043958e-05 -3.219293e-05 5.1231895e-05
000280 00 03 46 37 10 dc 8d b7 08 60 9f b7 d8 a8 3e b8
       1.1802418e-05 -1.6910984e-05 -1.8998995e-05 -4.5456778e-05
000290 a8 b7 6a b8 1f 12 f0 b6 2d 58 0d b8 e5 36 37 b8
       -5.596099e-05 -7.154667e-06 -3.369914e-05 -4.3681724e-05
0002a0 80 2f a6 b7 d7 7c f3 b7 57 44 2e b8 36 0b d6 b7
       -1.9810861e-05 -2.902599e-05 -4.154848e-05 -2.5516008e-05
0002b0 e2 79 81 b8 fe 7b 9a b8 19 03 fc 37 bc e2 11 b7
       -6.173902e-05 -7.3663876e-05 3.0042183e-05 -8.695464e-06
0002c0 5c f0 00 38 f1 ac 2a b6 5b 65 41 b8 42 9c e5 37
       3.074143e-05 -2.543264e-06 -4.610918e-05 2.737169e-05
0002d0 50 bc 5d b7 c3 0b 15 37 39 c5 78 37 49 6f b2 b7
       -1.3216471e-05 8.883831e-06 1.4827871e-05 -2.1271075e-05
0002e0 36 d8 6a 35 20 c5 1b 37 e9 53 36 37 e5 05 b9 37
       8.748642e-07 9.284617e-06 1.0867582e-05 2.2056463e-05
0002f0 4a cb c7 37 6b bb 18 37 2d a5 85 37 3e ff 9b 37
       2.3817312e-05 9.103543e-06 1.5931751e-05 1.8596296e-05
000300 e4 6b 65 36 61 67 48 37 84 bc 74 37 6e 93 26 36
       3.418646e-06 1.1944999e-05 1.45874255e-05 2.4821743e-06
000310 40 e5 64 37 ab 0e 96 37 7f aa 6e 36 fa 0e 33 36
       1.3643235e-05 1.7888224e-05 3.5564005e-06 2.6681796e-06
000320 ae 06 dc b6 7d 51 3a 36 cb 59 64 36 11 8c cb b6
       -6.5572885e-06 2.7763592e-06 3.4026914e-06 -6.0661773e-06
000330 b9 bd 13 37 36 df 15 b8 e3 13 5a b8 b6 ea 0b 38
       8.806056e-06 -3.573225e-05 -5.199377e-05 3.3358774e-05
000340 ce 1c b7 b7 6c a3 3d b8 85 17 1e b8 8d 43 81 b8
       -2.1828713e-05 -4.521331e-05 -3.769204e-05 -6.163782e-05
000350 97 76 7e b8 a1 b7 38 b8 9a d8 60 b8 29 3c 6c b8
       -6.0668764e-05 -4.4040036e-05 -5.3607488e-05 -5.6322813e-05
000360 1e 14 62 37 66 0a 6b 36 87 e9 26 b7 53 61 e9 37
       1.3475334e-05 3.5023781e-06 -9.948743e-06 2.7821085e-05
000370 2c 35 a5 37 79 ed 21 b6 19 65 b9 b6 75 ef a5 b7
       1.9694293e-05 -2.4129097e-06 -5.525199e-06 -1.9781039e-05
000380 d4 4b bc b7 de fa 83 37 44 1f 90 b7 71 0c 9a b7
       -2.2446657e-05 1.5733236e-05 -1.7180697e-05 -1.8364024e-05
000390 2f 70 80 36 05 4a 21 37 ef 87 c8 37 0e 5e e5 35
       3.827757e-06 9.613582e-06 2.3905157e-05 1.7089203e-06
0003a0 3c 58 45 37 f3 e2 da 37 b6 11 5d 36 fc 9c c3 36
       1.1762659e-05 2.6093307e-05 3.2941875e-06 5.8297283e-06
0003b0 62 9e 01 b7 5d b5 c6 35 17 24 e9 36 7d a8 03 b7
       -7.725876e-06 1.4804933e-06 6.9481425e-06 -7.847438e-06
0003c0 bd 1d c1 b6 47 2a 4b 37 34 b2 ef 37 2e 0f 05 b8
       -5.75531e-06 1.2109586e-05 2.8574002e-05 -3.172381e-05
0003d0 ac 42 b4 b6 f3 2f 8b 37 5b 4d d9 37 f8 74 22 38
       -5.3721797e-06 1.659242e-05 2.5904437e-05 3.8732745e-05
0003e0 05 19 5f 38 e4 81 83 37 b0 3f d1 37 a6 db 2d 38
       5.3190644e-05 1.5676902e-05 2.4944398e-05 4.1450978e-05
0003f0 34 da 16 37 cf 53 58 37 a7 06 c6 37 97 b8 53 37
       8.991501e-06 1.28941165e-05 2.3606537e-05 1.2619558e-05

exp_avg_sq f4 [128, 4, 1, 3]
000000 96 1c 9e 34 48 e0 cc 35 02 12 f8 36 64 a1 9c 35
       2.9450592e-07 1.5264459e-06 7.3930723e-06 1.1669877e-06
000010 ef ae 98 36 3d 72 1e 37 8c ad b3 34 87 dd 62 34
       4.550318e-06 9.444132e-06 3.346762e-07 2.1128481e-07
000020 60 21 87 35 a2 2c f5 33 1b 95 ac 35 e9 37 e9 34
       1.0067997e-06 1.141682e-07 1.2858394e-06 4.3440312e-07
000030 cf 56 74 34 92 2f 88 34 51 55 df 34 d1 4d 10 34
       2.2755852e-07 2.5366586e-07 4.1599063e-07 1.3439355e-07
000040 c4 2f 06 35 a3 b9 8c 34 93 c1 9a 35 dd c0 0a 35
       4.99884e-07 2.62121e-07 1.1530232e-06 5.168966e-07
000050 50 1d bb 35 74 6d 07 34 e3 bd d7 34 2b 40 d7 34
       1.3941117e-06 1.2612674e-07 4.0185031e-07 4.009356e-07
000060 b2 31 92 37 1b eb 99 36 2e 05 7b 36 00 21 9e 37
       1.7427697e-05 4.587125e-06 3.740493e-06 1.8850435e-05
000070 40 d2 bf 35 8e 0e 87 36 fb 83 71 36 ba 7b 84 36
       1.42918e-06 4.025008e-06 3.5988621e-06 3.94831e-06
000080 33 b7 07 37 38 15 00 36 0d c1 bd 35 9f 85 4c 36
       8.089281e-06 1.9085837e-06 1.4137783e-06 3.0476147e-06
000090 c4 83 59 35 f7 f5 97 35 b8 54 ae 35 1e 9c 6a 35
       8.1030544e-07 1.1321962e-06 1.2988667e-06 8.7398973e-07
0000a0 7a 7f eb 35 4f 0e 00 35 c5 79 2c 36 a4 fc 08 36
       1.7545965e-06 4.770454e-07 2.5700876e-06 2.0412635e-06
0000b0 ec a1 b0 36 bc 11 73 34 28 29 2f 35 b5 cc 05 36
       5.264059e-06 2.263759e-07 6.525247e-07 1.99377e-06
0000c0 ad 86 cb 33 e4 b3 22 36 70 3f 90 33 ca a0 10 35
       9.4774215e-08 2.4244591e-06 6.717062e-08 5.387816e-07
0000d0 09 b8 5d 36 5e 25 cf 34 00 b4 05 35 f5 06 5d 34
       3.3038689e-06 3.8583943e-07 4.9808295e-07 2.058476e-07
0000e0 b0 ed ac 35 4a 87 04 35 7e 86 a5 34 ad 2d 85 33
       1.2884175e-06 4.9370703e-07 3.08315e-07 6.2016035e-08
0000f0 af 84 08 34 d4 e0 12 34 79 be 29 36 f7 e5 00 34
       1.2714257e-07 1.3679102e-07 2.5293832e-06 1.200459e-07
000100 22 32 14 35 a1 c3 34 36 12 03 63 34 55 14 0c 34
       5.520725e-07 2.6935961e-06 2.114214e-07 1.3045913e-07
000110 49 c3 cc 34 08 b5 8d 33 9b 19 09 35 16 36 b0 34
       3.814005e-07 6.5987535e-08 5.107374e-07 3.2821907e-07
000120 b6 d2 33 35 0e de a5 36 21 da 08 35 5f 4a 93 35
       6.698932e-07 4.9432338e-06 5.098137e-07 1.0973998e-06
000130 1b 40 c7 36 3a 1b b2 34 33 b4 8c 35 c2 43 39 35
       5.938125e-06 3.3174894e-07 1.0483258e-06 6.901647e-07
000140 fb ae 05 36 59 93 91 35 4b 6e 35 35 6a 96 70 34
       1.9920396e-06 1.0846226e-06 6.758825e-07 2.2406462e-07
000150 eb b3 68 33 d1 c4 59 34 b6 4d 00 35 5c ec ac 33
       5.4180344e-08 2.0281301e-07 4.77968e-07 8.052368e-08
000160 ac 4c ad 33 94 93 2b 34 33 fd a2 34 5b 70 e8 34
       8.069887e-08 1.5979305e-07 3.0359078e-07 4.3295117e-07
000170 04 27 83 35 22 38 9a 33 f7 71 79 34 70 94 bc 34
       9.771616e-07 7.181394e-08 2.3231392e-07 3.512573e-07
000180 4d 15 5f 34 0c a3 d9 36 19 35 1b 35 01 ca 95 35
       2.0776243e-07 6.486085e-06 5.7819267e-07 1.1160156e-06
000190 57 08 e5 36 54 b0 60 32 4c 7b ce 33 a9 a6 ae 34
       6.8257027e-06 1.3078608e-08 9.61505e-08 3.2531287e-07
0001a0 01 61 29 35 65 d5 8b 35 bc bb 93 34 aa d9 fa 32
       6.3098565e-07 1.0418413e-06 2.7517478e-07 2.9202813e-08
0001b0 d8 46 48 35 a6 3f 4b 35 4a 1e c1 35 37 ea 63 35
       7.46089e-07 7.5716014e-07 1.4388436e-06 8.490492e-07
0001c0 3e f8 a9 35 d5 72 0f 35 9d 21 54 36 6e 05 20 36
       1.2663729e-06 5.3438754e-07 3.1610027e-06 2.3845018e-06
0001d0 99 40 e9 36 01 f7 69 34 94 7a 88 35 28 af 4f 36
       6.9514613e-06 2.1789675e-07 1.0168465e-06 3.0947358e-06
0001e0 86 75 1a 36 e9 c1 85 36 29 63 b3 36 a7 86 01 36
       2.3016196e-06 3.986283e-06 5.3461595e-06 1.9300876e-06
0001f0 18 db 5a 36 0d da 49 36 91 72 8e 35 56 dc 87 35
       3.261206e-06 3.0078256e-06 1.0613168e-06 1.012241e-06
000200 6a da bd 35 44 d4 98 35 c3 72 e6 35 a9 3c 80 34
       1.4145164e-06 1.138666e-06 1.7169735e-06 2.3885994e-07
000210 41 57 c9 34 9c 3c ec 36 91 37 0d 36 ca fc 33 36
       3.7502653e-07 7.040404e-06 2.1042981e-06 2.6820221e-06
000220 9f 9e 00 37 09 a1 21 35 7a 94 80 35 ba 87 11 36
       7.666326e-06 6.021151e-07 9.579956e-07 2.1685687e-06
000230 bf 0b 7a 36 48 da bb 35 e0 fc 8a 35 bc f8 93 35
       3.725974e-06 1.3996114e-06 1.0355398e-06 1.1024745e-06
000240 b9 f3 d0 31 71 c4 b1 31 e5 b6 9e 33 70 c1 8a 33
       6.081305e-09 5.173711e-09 7.390717e-08 6.461312e-08
000250 b2 8a 19 32 84 a5 91 33 bf 08 29 30 a0 9d 7a 33
       8.937308e-09 6.782196e-08 6.149427e-10 5.835102e-08
000260 13 5e 53 34 f0 3e 09 33 c9 02 16 33 ae 9c f4 33
       1.968513e-07 3.195504e-08 3.492713e-08 1.1390635e-07
000270 ea 58 6f 36 ff 98 06 35 bc df 68 35 d3 f0 87 36
       3.566553e-06 5.014153e-07 8.675231e-07 4.051349e-06
000280 10 be 19 34 67 6f b8 34 ec 1d 0f 35 c2 fa a6 35
       1.431838e-07 3.4353727e-07 5.3315193e-07 1.2440944e-06
000290 60 ed 1c 36 14 0a 4e 34 82 4c fd 34 d1 b6 a0 35
       2.3383982e-06 1.9188911e-07 4.718059e-07 1.1974136e-06
0002a0 52 8e 17 35 05 2a 97 35 2f ee 45 37 00 e7 9a 35
       5.6458987e-07 1.1262606e-06 1.17975715e-05 1.1541124e-06
0002b0 d8 e4 aa 36 8e 5f 5f 37 ca 99 22 36 ef d4 8d 35
       5.0930357e-06 1.3314084e-05 2.4229398e-06 1.056729e-06
0002c0 96 04 bf 36 94 91 ca 33 b2 7f 26 36 4d 92 25 36
       5.6927774e-06 9.4328385e-08 2.4810256e-06 2.4672074e-06
0002d0 a0 69 6f 35 32 85 8b 34 95 29 5e 34 00 7c 9c 35
       8.918814e-07 2.598768e-07 2.0690489e-07 1.1658994e-06
0002e0 b5 76 7d 34 20 d3 0e 34 4e 83 41 34 d4 db ab 34
       2.3605647e-07 1.3301587e-07 1.8022294e-07 3.2011178e-07
0002f0 00 10 0c 35 32 aa 87 34 e4 37 f9 33 e6 17 c1 34
       5.217735e-07 2.5269543e-07 1.16051325e-07 3.596644e-07
000300 89 33 06 34 22 1e 67 36 4c d1 cb 36 02 79 41 35
       1.2498471e-07 3.4439222e-06 6.074237e-06 7.207419e-07
000310 10 a3 de 36 08 42 15 37 d7 09 c2 33 0a 64 19 33
       6.6350985e-06 8.896466e-06 9.035619e-08 3.5714073e-08
000320 b2 ff 98 35 a3 14 ac 34 86 e5 5d 35 93 68 f0 34
       1.13993e-06 3.2052512e-07 8.2662916e-07 4.477957e-07
000330 d5 e6 c8 35 8b 08 39 35 7b 4d 2c 35 83 b8 19 36
       1.4968342e-06 6.89303e-07 6.418774e-07 2.2906177e-06
000340 31 9e 90 35 6b 5b 35 35 b8 cb 52 35 10 a9 cc 35
       1.0774876e-06 6.7560785e-07 7.8527546e-07 1.5248388e-06
000350 9e 9e 9b 36 40 e1 96 34 67 21 39 35 f8 03 2a 36
       4.6378254e-06 2.8103568e-07 6.896648e-07 2.5334284e-06
000360 2d ab 3a 34 3f 86 93 33 c2 fa 36 34 ac cb 0d 35
       1.7384873e-07 6.86964e-08 1.7041296e-07 5.2822975e-07
000370 69 4d 0f 34 cf b3 bc 34 8f 7b f3 33 3c 9a e5 34
       1.3346074e-07 3.5148557e-07 1.13380445e-07 4.2766794e-07
000380 c3 0e 86 34 c6 7c 4f 34 35 ee ef 33 48 fe 55 34
       2.4970186e-07 1.932377e-07 1.11726344e-07 1.9929678e-07
000390 38 59 e1 34 49 6b 0d 36 cd d8 86 37 00 0f c3 35
       4.197443e-07 2.1073085e-06 1.6075e-05 1.4532998e-06
0003a0 10 da dd 36 fd dc 9f 37 dc 7c c3 34 1b 4b ae 34
       6.611699e-06 1.9057183e-05 3.6412428e-07 3.2464672e-07
0003b0 02 72 d4 35 cc f0 dd 33 4c b3 29 36 4b bd 5e 35
       1.5828412e-06 1.0334915e-07 2.5287327e-06 8.29769e-07
0003c0 ae e6 ac 34 53 48 41 35 87 d0 d7 34 20 8b 58 35
       3.2205338e-07 7.200335e-07 4.0198594e-07 8.0668724e-07
0003d0 58 af 95 35 b3 e3 26 35 b6 6e 50 35 47 53 15 35
       1.1152397e-06 6.2171165e-07 7.7647144e-07 5.562801e-07
0003e0 89 3c 98 35 48 b7 8a 35 de 21 8d 34 c4 3c 84 35
       1.13425e-06 1.0335143e-06 2.6287938e-07 9.852452e-07
0003f0 e8 22 95 34 3b 28 b8 34 b6 8e 9a 36 f2 db 2f 35
       2.777881e-07 3.4301942e-07 4.6061714e-06 6.551264e-07

exp_avg f4 [64, 128, 1, 3]
000000 04 00 00 00 04 00 00 00 04 00 00 00 04 00 00 00
       6e-45 6e-45 6e-45 6e-45
000010 04 00 00 00 04 00 00 00 04 00 00 00 04 00 00 00
       6e-45 6e-45 6e-45 6e-45
000020 04 00 00 00 04 00 00 00 04 00 00 00 04 00 00 00
       6e-45 6e-45 6e-45 6e-45
000030 04 00 00 00 04 00 00 00 04 00 00 00 04 00 00 00
       6e-45 6e-45 6e-45 6e-45
000040 04 00 00 00 04 00 00 00 04 00 00 00 04 00 00 00
       6e-45 6e-45 6e-45 6e-45
000050 04 00 00 00 04 00 00 00 04 00 00 80 04 00 00 00
       6e-45 6e-45 -6e-45 6e-45
000060 04 00 00 00 04 00 00 00 00 00 00 00 04 00 00 00
       6e-45 6e-45 0.0 6e-45
000070 04 00 00 00 04 00 00 00 04 00 00 00 04 00 00 00
       6e-45 6e-45 6e-45 6e-45
000080 04 00 00 00 04 00 00 00 04 00 00 00 04 00 00 00
       6e-45 6e-45 6e-45 6e-45
000090 04 00 00 00 04 00 00 00 04 00 00 00 04 00 00 00
       6e-45 6e-45 6e-45 6e-45
0000a0 04 00 00 00 04 00 00 00 04 00 00 00 04 00 00 00
       6e-45 6e-45 6e-45 6e-45
0000b0 04 00 00 00 04 00 00 80 04 00 00 00 04 00 00 00
       6e-45 -6e-45 6e-45 6e-45
0000c0 04 00 00 00 04 00 00 00 04 00 00 00 04 00 00 00
       6e-45 6e-45 6e-45 6e-45
0000d0 04 00 00 00 04 00 00 00 04 00 00 00 04 00 00 00
       6e-45 6e-45 6e-45 6e-45
0000e0 04 00 00 00 04 00 00 00 04 00 00 00 04 00 00 00
       6e-45 6e-45 6e-45 6e-45
0000f0 04 00 00 00 04 00 00 00 04 00 00 00 04 00 00 00
       6e-45 6e-45 6e-45 6e-45
000100 04 00 00 00 04 00 00 00 04 00 00 00 04 00 00 00
       6e-45 6e-45 6e-45 6e-45
000110 04 00 00 00 04 00 00 00 04 00 00 00 04 00 00 00
       6e-45 6e-45 6e-45 6e-45
000120 04 00 00 00 04 00 00 00 04 00 00 00 04 00 00 00
       6e-45 6e-45 6e-45 6e-45
000130 04 00 00 00 04 00 00 00 04 00 00 00 04 00 00 00
       6e-45 6e-45 6e-45 6e-45
000140 04 00 00 00 04 00 00 00 04 00 00 00 04 00 00 00
       6e-45 6e-45 6e-45 6e-45
000150 04 00 00 00 04 00 00 00 04 00 00 00 04 00 00 00
       6e-45 6e-45 6e-45 6e-45
000160 04 00 00 00 04 00 00 00 04 00 00 80 04 00 00 00
       6e-45 6e-45 -6e-45 6e-45
000170 04 00 00 00 04 00 00 00 04 00 00 00 04 00 00 00
       6e-45 6e-45 6e-45 6e-45
000180 04 00 00 00 04 00 00 00 04 00 00 00 04 00 00 00
       6e-45 6e-45 6e-45 6e-45
000190 04 00 00 00 04 00 00 00 04 00 00 00 04 00 00 00
       6e-45 6e-45 6e-45 6e-45
0001a0 04 00 00 00 04 00 00 00 04 00 00 00 04 00 00 00
       6e-45 6e-45 6e-45 6e-45
0001b0 04 00 00 00 04 00 00 00 04 00 00 00 04 00 00 00
       6e-45 6e-45 6e-45 6e-45
0001c0 04 00 00 00 04 00 00 00 04 00 00 00 04 00 00 00
       6e-45 6e-45 6e-45 6e-45
0001d0 04 00 00 00 04 00 00 00 04 00 00 00 04 00 00 00
       6e-45 6e-45 6e-45 6e-45
0001e0 04 00 00 00 04 00 00 00 04 00 00 00 04 00 00 00
       6e-45 6e-45 6e-45 6e-45
0001f0 04 00 00 00 04 00 00 00 04 00 00 00 04 00 00 00
       6e-45 6e-45 6e-45 6e-45
000200 04 00 00 00 04 00 00 00 04 00 00 00 04 00 00 00
       6e-45 6e-45 6e-45 6e-45
000210 04 00 00 00 04 00 00 00 04 00 00 80 04 00 00 00
       6e-45 6e-45 -6e-45 6e-45
000220 04 00 00 00 04 00 00 00 04 00 00 00 04 00 00 00
       6e-45 6e-45 6e-45 6e-45
000230 04 00 00 00 04 00 00 00 04 00 00 00 04 00 00 00
       6e-45 6e-45 6e-45 6e-45
000240 04 00 00 00 04 00 00 00 04 00 00 00 04 00 00 00
       6e-45 6e-45 6e-45 6e-45
000250 04 00 00 00 04 00 00 00 04 00 00 00 04 00 00 00
       6e-45 6e-45 6e-45 6e-45
000260 04 00 00 00 04 00 00 00 04 00 00 00 04 00 00 00
       6e-45 6e-45 6e-45 6e-45
000270 04 00 00 00 04 00 00 00 04 00 00 00 04 00 00 00
       6e-45 6e-45 6e-45 6e-45
000280 04 00 00 00 04 00 00 00 04 00 00 00 04 00 00 00
       6e-45 6e-45 6e-45 6e-45
000290 04 00 00 80 04 00 00 00 04 00 00 00 04 00 00 00
       -6e-45 6e-45 6e-45 6e-45
0002a0 04 00 00 00 04 00 00 00 04 00 00 00 04 00 00 00
       6e-45 6e-45 6e-45 6e-45
0002b0 04 00 00 00 04 00 00 00 04 00 00 00 04 00 00 00
       6e-45 6e-45 6e-45 6e-45
0002c0 04 00 00 00 04 00 00 00 04 00 00 00 04 00 00 00
       6e-45 6e-45 6e-45 6e-45
0002d0 04 00 00 00 04 00 00 00 04 00 00 00 04 00 00 00
       6e-45 6e-45 6e-45 6e-45
0002e0 04 00 00 00 04 00 00 00 04 00 00 00 04 00 00 00
       6e-45 6e-45 6e-45 6e-45
0002f0 04 00 00 00 04 00 00 00 04 00 00 00 04 00 00 00
       6e-45 6e-45 6e-45 6e-45
000300 00 00 00 00 04 00 00 00 04 00 00 00 04 00 00 00
       0.0 6e-45 6e-45 6e-45
000310 04 00 00 00 04 00 00 00 04 00 00 00 04 00 00 00
       6e-45 6e-45 6e-45 6e-45
000320 04 00 00 00 04 00 00 00 04 00 00 00 04 00 00 00
       6e-45 6e-45 6e-45 6e-45
000330 04 00 00 00 04 00 00 00 04 00 00 00 04 00 00 00
       6e-45 6e-45 6e-45 6e-45
000340 04 00 00 00 04 00 00 00 04 00 00 00 04 00 00 00
       6e-45 6e-45 6e-45 6e-45
000350 04 00 00 00 04 00 00 00 04 00 00 00 04 00 00 00
       6e-45 6e-45 6e-45 6e-45
000360 04 00 00 00 04 00 00 00 04 00 00 00 04 00 00 00
       6e-45 6e-45 6e-45 6e-45
000370 04 00 00 00 04 00 00 00 04 00 00 00 04 00 00 00
       6e-45 6e-45 6e-45 6e-45
000380 04 00 00 00 04 00 00 00 04 00 00 00 04 00 00 00
       6e-45 6e-45 6e-45 6e-45
000390 04 00 00 00 04 00 00 00 04 00 00 00 04 00 00 00
       6e-45 6e-45 6e-45 6e-45
0003a0 04 00 00 00 04 00 00 80 04 00 00 00 04 00 00 00
       6e-45 -6e-45 6e-45 6e-45
0003b0 04 00 00 00 04 00 00 00 04 00 00 00 04 00 00 00
       6e-45 6e-45 6e-45 6e-45
0003c0 04 00 00 00 04 00 00 00 04 00 00 00 04 00 00 00
       6e-45 6e-45 6e-45 6e-45
0003d0 04 00 00 00 04 00 00 00 04 00 00 00 04 00 00 00
       6e-45 6e-45 6e-45 6e-45
0003e0 04 00 00 00 04 00 00 00 04 00 00 00 04 00 00 00
       6e-45 6e-45 6e-45 6e-45
0003f0 04 00 00 00 04 00 00 00 04 00 00 00 04 00 00 00
       6e-45 6e-45 6e-45 6e-45

exp_avg_sq f4 [64, 128, 1, 3]
000000 f4 01 00 00 5c 0d 3e 00 f4 01 00 00 f4 01 00 00
       7e-43 5.698593e-39 7e-43 7e-43
000010 f4 01 00 00 f4 01 00 00 e2 c7 0b 00 e6 3c 14 00
       7e-43 7e-43 1.081895e-39 1.858556e-39
000020 2a 8d 04 01 f4 01 00 00 f4 01 00 00 7c c9 0f 00
       2.434585e-38 7e-43 7e-43 1.449811e-39
000030 f4 01 00 00 3f 58 04 00 f4 01 00 00 f4 01 00 00
       7e-43 3.98999e-40 7e-43 7e-43
000040 0c 85 01 00 f4 01 00 00 04 0f 03 00 75 a0 79 00
       1.39564e-40 7e-43 2.80893e-40 1.1169656e-38
000050 f4 01 00 00 f4 01 00 00 f4 01 00 00 f4 01 00 00
       7e-43 7e-43 7e-43 7e-43
000060 f4 01 00 00 f4 01 00 00 00 00 00 00 f4 01 00 00
       7e-43 7e-43 0.0 7e-43
000070 f4 01 00 00 a8 ca 24 00 78 b1 1a 00 68 43 00 00
       7e-43 3.378777e-39 2.451387e-39 2.4181e-41
000080 f4 01 00 00 f4 01 00 00 f4 01 00 00 f4 01 00 00
       7e-43 7e-43 7e-43 7e-43
000090 f4 01 00 00 f4 01 00 00 f4 01 00 00 d5 11 19 00
       7e-43 7e-43 7e-43 2.302284e-39
0000a0 f4 01 00 00 af 52 02 00 f4 01 00 00 5e 7f 01 00
       7e-43 2.13332e-40 7e-43 1.37526e-40
0000b0 1b 25 fb 00 f4 01 00 00 f4 01 00 00 f4 01 00 00
       2.306402e-38 7e-43 7e-43 7e-43
0000c0 f4 01 00 00 96 be 13 00 f4 01 00 00 8d 19 00 00
       7e-43 1.813244e-39 7e-43 9.166e-42
0000d0 71 95 4b 00 01 25 2c 00 de 94 02 00 f4 01 00 00
       6.941272e-39 4.054036e-39 2.37074e-40 7e-43
0000e0 f4 01 00 00 f4 01 00 00 cc 2f 38 00 f4 01 00 00
       7e-43 7e-43 5.159934e-39 7e-43
0000f0 f4 01 00 00 f4 01 00 00 f4 01 00 00 f4 01 00 00
       7e-43 7e-43 7e-43 7e-43
000100 db bd 22 00 f4 01 00 00 f4 01 00 00 f4 01 00 00
       3.190514e-39 7e-43 7e-43 7e-43
000110 f4 01 00 00 cf 3c 12 00 f4 6d 1f 00 f4 01 00 00
       7e-43 1.674853e-39 2.886344e-39 7e-43
000120 f4 01 00 00 e6 d3 17 00 f4 01 00 00 f4 01 00 00
       7e-43 2.188231e-39 7e-43 7e-43
000130 0b 0b 3a 00 f4 01 00 00 f4 01 00 00 f4 01 00 00
       5.33042e-39 7e-43 7e-43 7e-43
000140 76 24 39 00 64 0e 24 00 f4 01 00 00 f4 01 00 00
       5.247703e-39 3.31124e-39 7e-43 7e-43
000150 f4 01 00 00 4f 81 13 00 f4 01 00 00 cb e6 98 00
       7e-43 1.791262e-39 7e-43 1.4041788e-38
000160 f4 01 00 00 44 91 01 00 f4 01 00 00 f4 01 00 00
       7e-43 1.43947e-40 7e-43 7e-43
000170 07 88 0a 00 01 41 1d 00 d9 50 68 00 f8 fd 77 00
       9.67152e-40 2.686548e-39 9.579894e-39 1.1019531e-38
000180 1c f9 04 00 ec ba 04 00 a6 1d 10 01 80 03 06 00
       4.56706e-40 4.34397e-40 2.6469895e-38 5.52269e-40
000190 f4 01 00 00 38 7a 08 00 91 2b 15 00 f4 01 00 00
       7e-43 7.78528e-40 1.944174e-39 7e-43
0001a0 06 db 2f 00 3d 8e 24 00 f4 01 00 00 f4 01 00 00
       4.394839e-39 3.357103e-39 7e-43 7e-43
0001b0 72 04 00 00 4f c8 3a 00 ab 3e 0b 01 f4 01 00 00
       1.595e-42 5.398316e-39 2.557523e-38 7e-43
0001c0 ea b2 0f 00 25 bf 4a 00 d7 f1 00 00 82 f5 01 00
       1.441715e-39 6.864396e-39 8.6756e-41 1.79907e-40
0001d0 b9 81 2f 00 e7 28 00 00 f4 01 00 00 4f 95 f0 00
       4.362804e-39 1.4673e-41 7e-43 2.2094081e-38
0001e0 52 70 07 00 f4 01 00 00 f4 01 00 00 f4 01 00 00
       6.83141e-40 7e-43 7e-43 7e-43
0001f0 f4 01 00 00 56 b5 36 00 f4 01 00 00 f4 01 00 00
       7e-43 5.024168e-39 7e-43 7e-43
000200 ed 90 aa 00 0f ac 0c 00 6d e7 99 00 f4 01 00 00
       1.5664024e-38 1.163749e-39 1.4133851e-38 7e-43
000210 5a 0d 70 00 f4 01 00 00 f4 01 00 00 52 62 48 00
       1.0290365e-38 7e-43 7e-43 6.647426e-39
000220 8d b6 14 00 f4 01 00 00 f4 01 00 00 91 7e 23 00
       1.902197e-39 7e-43 7e-43 3.259646e-39
000230 f4 01 00 00 f4 01 00 00 3c cb 08 00 f4 01 00 00
       7e-43 7e-43 8.07591e-40 7e-43
000240 f4 01 00 00 69 b9 10 00 f4 01 00 00 f4 01 00 00
       7e-43 1.53588e-39 7e-43 7e-43
000250 08 8b 06 00 b1 c0 a1 00 cc 6b 4e 00 f4 01 00 00
       6.00888e-40 1.485464e-38 7.201839e-39 7e-43
000260 7a cc 05 00 f4 01 00 00 e4 cc 27 00 f4 01 00 00
       5.3253e-40 7e-43 3.655085e-39 7e-43
000270 a0 11 00 00 d8 78 2a 00 9c 8b 1e 01 dd 76 02 00
       6.323e-42 3.900441e-39 2.9120182e-38 2.26311e-40
000280 de ce 3f 00 f4 01 00 00 91 8f 4a 00 f4 01 00 00
       5.859846e-39 7e-43 6.847329e-39 7e-43
000290 f4 01 00 00 f4 01 00 00 63 8d 1e 00 f4 01 00 00
       7e-43 7e-43 2.805785e-39 7e-43
0002a0 f4 01 00 00 f4 01 00 00 f4 01 00 00 f4 01 00 00
       7e-43 7e-43 7e-43 7e-43
0002b0 38 44 60 00 03 5b 00 00 f4 01 00 00 f4 01 00 00
       8.84068e-39 3.2649e-41 7e-43 7e-43
0002c0 ea bd 09 00 81 0d 0d 00 bb 50 05 00 9d c8 12 01
       8.94648e-40 1.198706e-39 4.88138e-40 2.6959898e-38
0002d0 be ce 00 00 f4 01 00 00 f4 01 00 00 f4 01 00 00
       7.4165e-41 7e-43 7e-43 7e-43
0002e0 f4 01 00 00 f4 01 00 00 65 05 0b 00 14 15 1d 00
       7e-43 7e-43 1.012126e-39 2.670791e-39
0002f0 9d 57 38 00 f4 01 00 00 f4 01 00 00 f4 01 00 00
       5.174218e-39 7e-43 7e-43 7e-43
000300 00 00 00 00 3d 3b 0a 00 82 70 18 00 eb b9 02 00
       0.0 9.39606e-40 2.244412e-39 2.50366e-40
000310 f4 01 00 00 f0 7a 19 00 f4 01 00 00 ca dc 00 00
       7e-43 2.339989e-39 7e-43 7.9204e-41
000320 46 05 aa 01 ed f9 05 00 14 e2 ff 00 9e 84 07 00
       6.2455704e-38 5.48834e-40 2.3499153e-38 6.90423e-40
000330 04 b0 00 00 30 4b 0b 00 f4 01 00 00 f4 01 00 00
       6.3143e-41 1.037163e-39 7e-43 7e-43
000340 02 7b 1c 00 e9 0f 45 00 f4 01 00 00 a8 33 2a 00
       2.615521e-39 6.342357e-39 7e-43 3.875622e-39
000350 26 c2 3a 00 f4 01 00 00 c7 94 00 00 77 7d 00 00
       5.396106e-39 7e-43 5.3371e-41 4.5008e-41
000360 f4 01 00 00 f4 01 00 00 f4 01 00 00 51 9a 14 00
       7e-43 7e-43 7e-43 1.892068e-39
000370 f4 01 00 00 f4 01 00 00 f4 01 00 00 8c 95 3b 00
       7e-43 7e-43 7e-43 5.471942e-39
000380 77 0e 00 00 9f 9a 1a 00 48 3c 0d 00 f4 01 00 00
       5.189e-42 2.44319e-39 1.215486e-39 7e-43
000390 5c 15 02 00 f4 01 00 00 f4 01 00 00 f9 44 00 00
       1.91333e-40 7e-43 7e-43 2.4743e-41
0003a0 f4 01 00 00 f4 01 00 00 f4 01 00 00 c6 b3 11 00
       7e-43 7e-43 7e-43 1.625694e-39
0003b0 f4 01 00 00 f4 01 00 00 f4 01 00 00 f4 01 00 00
       7e-43 7e-43 7e-43 7e-43
0003c0 f4 01 00 00 d0 84 00 00 f4 01 00 00 f4 01 00 00
       7e-43 4.7644e-41 7e-43 7e-43
0003d0 ac b3 4f 00 38 01 4c 00 ee ed 13 00 31 e1 20 00
       7.319458e-39 6.979935e-39 1.830228e-39 3.01952e-39
0003e0 f4 01 00 00 f4 01 00 00 50 be 06 00 f4 01 00 00
       7e-43 7e-43 6.19284e-40 7e-43
0003f0 f4 01 00 00 aa 7b 04 00 1b b2 90 00 f4 01 00 00
       7e-43 4.11704e-40 1.3288204e-38 7e-43
