exp/network/LSTM/state.pt (torch_old, 69236 bytes, 27 tensors)

lstm.weight_ih_l0 f4 [80, 4]
00000000: c752 b23e c815 293f 6ba2 06bf 4c52 19be
00000010: c016 adbe f378 abbe 8c9f 3d3f 8e76 023f
00000020: 877a a2be 4ed6 863d 2af7 9bbf 8758 e3be
00000030: 0128 7d3c 56a1 743e 794d 82bf e1fe 76be
00000040: 42ff 363f d028 3c3f a4e2 d2be 4d21 3fbe
00000050: eb15 033e 8e38 ee3e 99fe 72bf 6729 763e
00000060: 5fa8 363f 0c7f e83e 564f 053f 3b04 d63d
00000070: dd47 5a3e b9ca da3e 881b 14bf 33c5 b93e
00000080: a276 dbbd 8273 a83e aa41 2fbf 2991 bfbe
00000090: d2ac 1cbe da1f c1bd 2d45 9f3f 79bf e83e
000000a0: acbf 31be fd8a 30bf aa64 433f 79f6 8cbe
000000b0: 6d26 5c3f d729 663e dbda 9a3f 8219 273f
000000c0: 8a02 79bd c2dc 923e ee0c 19bf 3034 f83d
000000d0: bb79 c3bc f11a 90be a3e6 92be bf43 4bbe
000000e0: 5c9f d53e 3645 d03e 1358 6fbe 4db3 4abe
000000f0: ed56 303e dcf0 433e fc9d bbbe edbd a6be
00000100: 54de 1c3e af53 85be 0bbe b03e 5145 193e
00000110: b965 adbc efd6 78be 19dd 463f 04a0 a43d
00000120: fb32 9e3d 8b6e 42be e6b9 8c3f 4d61 be3e
00000130: e138 2fbe 449b 083e 3a37 b2be 0435 97be
00000140: b6b5 7cbe f92c 2f3f 2ef9 cdbe f6e0 bbbe
00000150: fc78 513e 0eeb 67bd 9496 c83e d559 163d
00000160: bcf1 b6be 3a78 42be 4f8e 5cbf 0c71 3fbe
00000170: 8748 98be 815a 463e 4a70 9dbf 6d4f c0be
00000180: ce3d 44be 71fc 643e ecb7 8fbf b8eb fbbe
00000190: af93 dabc 9cdc d73e bc70 23bf 7a9b de3d
000001a0: 9d6e 26be 28d3 6e3e 4473 68bf 52f1 c1be
000001b0: def5 b0be 2f6e 6d3e d1ad 83bf a768 01bc
000001c0: dc2a 51be 846d 0c3f 9f6d 82be 60dd b5be
000001d0: 0f53 133f 8c79 91bd 9408 643f 0681 883e
000001e0: fe7a c33e a4da e2be 5441 b93e 46a0 b8bc
000001f0: 893b 21be 78f6 bfbe 0d7b e8be 161d f2be
00000200: 2d8f dcbd bb87 0a3e 3e8c ecbe ae47 983c
00000210: cd28 56be f5b6 2a3e 713c 013d 46e4 a03e
00000220: 0047 f03e ebe3 113f 5cf8 7abe 090b 46be
00000230: 5fd9 e23e f776 c03e 9d0c 4f3e defd 24be
00000240: d04c 8d3c 8f98 08bd 9294 e43e 0dad 7f3e
00000250: a041 d23e 6789 c8be 3492 113f 0b1d b4bd
00000260: 82eb da3e 2364 18be 759a 453f b56e 0ebe
00000270: 5e97 c53e be2b a83e aa64 abbe 7e6a c5be
00000280: 66f4 6e3c 1f99 823e d73c 9abf 8fde aabe
00000290: 17cb 6c3d ad9d dd3e a604 98bf be5a 87bd
000002a0: b4a1 eebe 62e5 e7be 247c 8a3f f91c a5bd
000002b0: 3e2b a93e f518 e93e e34e a3bf 11ff 1bbd
000002c0: 69a3 7f3c dc29 cabe f300 b03f 4167 fc3d
000002d0: 7912 abbe c67b 0cbf 65d8 903f d2ee 4a3b
000002e0: 9c2d 0c3e f59e cf3e 8d22 a0bf 9c36 a9be
000002f0: 8759 abbe 3642 51be bbf2 ad3f e4ee bb3e
00000300: 9c2e 33be ec61 a7be 1c2d c33e e8fa 9abc
00000310: ce75 b8bb e95f fb3e 6ee2 97bf 1ff5 61be
00000320: 0e7e 483e 35e1 323f b8ec 5bbf a23d 86bd
00000330: e18b 0ebe af32 f03e 233a b2bf 2f72 debd
00000340: c512 a63e 2f98 a13e a2dd 5fbf 009b e4bd
00000350: 68a7 e0bd 17be 1dbf 407d 0b3f 1b56 33be
00000360: c0a5 bfbd cb8b 943e 72c6 58bf 9373 b4be
00000370: f471 50bd d3f6 a5bd 334b b33d 0795 aa3d
00000380: fd26 45be dc89 23be 52b7 053e f15b 30be
00000390: 174c 71be 66ac fdbe 925a 773f 3530 9d3e
000003a0: 74a2 c93d 40ba 143f 8221 6fbf bcfe a9be
000003b0: 0e81 513d 873c 0dbf e7ec 553f b5cd 803e
000003c0: a4ae 933e 94f5 343f c028 e3be b26c a1bd
000003d0: 683e 17bd 6a55 dfbe ec44 403f 5b26 bb3d
000003e0: 5de4 acbe 4b8b 43bd fc2a 90bf e7e8 acbe
000003f0: c72e a23e e624 803e cdba 8cbf dedb b2be
0.3482878 0.6604886 -0.5259158 -0.149728 -0.3380642 -0.33490714 0.74071574 0.5096215
-0.31734106 0.06583844 -1.2184803 -0.44403479 0.015451432 0.2388967 -1.0179893 -0.24120666
0.7148324 0.73499775 -0.41188538 -0.18665047 0.1280133 0.46527523 -0.94919735 0.24039231
0.71350664 0.4540943 0.5207418 0.10450026 0.21316476 0.4273279 -0.5785451 0.36283264
-0.10715987 0.32900625 -0.6845957 -0.37415436 -0.153003 -0.09429903 1.2442986 0.45458582
-0.17358273 -0.6896208 0.76325476 -0.27531794 0.85996133 0.22476898 1.2098039 0.65273297
-0.060793437 0.2868405 -0.59785354 0.12119329 -0.023861757 -0.28145555 -0.28691587 -0.19850062
0.41723144 0.40677804 -0.23373441 -0.1979496 0.1722066 0.1913485 -0.3664397 -0.32566777
0.15319186 -0.26040408 0.3451999 0.14967848 -0.02116667 -0.2430074 0.7768112 0.08038333
0.077245675 -0.18987481 1.0994232 0.3718361 -0.17111541 0.13340479 -0.3480776 -0.29532635
-0.24678692 0.68428 -0.40229172 -0.3669507 0.20456308 -0.05662065 0.39177382 0.036706764
-0.35731304 -0.18991175 -0.86154646 -0.18695468 -0.29742834 0.19370462 -1.2299893 -0.37560597
-0.19164202 0.22361924 -1.1228004 -0.49203277 -0.02668175 0.421605 -0.63843894 0.108694986
-0.16253133 0.23322737 -0.9080088 -0.37879425 -0.34562582 0.23186563 -1.028742 -0.007898486
-0.20426506 0.5485461 -0.2547426 -0.35520458 0.5754861 -0.07103261 0.8907559 0.26660937
0.38179773 -0.44307435 0.36182654 -0.022537362 -0.15745367 -0.37492728 -0.4540638 -0.47287816
-0.10769496 0.1352834 -0.46200746 0.018588867 -0.20914002 0.16671355 0.031551782 0.3142416
0.4692917 0.569884 -0.24508804 -0.19340147 0.44306466 0.37590763 0.20219655 -0.16112468
0.017248541 -0.033348616 0.446446 0.24968357 0.41065693 -0.3916733 0.56863713 -0.08794602
0.42757803 -0.14881949 0.7718881 -0.13909419 0.38592046 0.32845873 -0.33475238 -0.3855781
0.014584636 0.25507447 -1.2049817 -0.33372924 0.05781087 0.4328436 -1.1876419 -0.066091046
-0.46607745 -0.45292193 1.0819135 -0.08062167 0.33040804 0.45526853 -1.2758449 -0.038085047
0.015602925 -0.3948506 1.375029 0.123243816 -0.3341253 -0.54876363 1.1316038 0.0030965102
0.13689274 0.40550962 -1.2510544 -0.33049476 -0.3346674 -0.20435414 1.35897 0.36705697
-0.17498249 -0.32691896 0.38120353 -0.01891847 -0.005629278 0.4909661 -1.1865976 -0.22066163
0.19579336 0.6987489 -0.8590808 -0.06554724 -0.13920547 0.4691367 -1.3923992 -0.108616225
0.32436195 0.3156142 -0.8744756 -0.111623764 -0.1096943 -0.6161818 0.5448799 -0.17513315
-0.09357786 0.29012904 -0.84677804 -0.35244426 -0.050889924 -0.081037186 0.087545775 0.08329206
-0.19253154 -0.15970558 0.13058212 -0.17222573 -0.23564182 -0.49545592 0.96622574 0.30700842
0.098454386 0.58096695 -0.93410504 -0.3320216 0.051148467 -0.5517048 0.8356461 0.25156942
0.28844178 0.7068722 -0.44367027 -0.0788206 -0.03692475 -0.43619853 0.75105166 0.09138175
-0.33767977 -0.047740262 -1.1263118 -0.3377144 0.31676313 0.2502815 -1.0994507 -0.3493337

lstm.weight_hh_l0 f4 [80, 20]
00000000: 7894 a03e 8898 6f3e 0e71 26bf d567 e53e
00000010: 06a1 6ebe 1f80 24be a727 543f 1c84 a9be
00000020: 844d 98bd 01b1 91be 276c bbbe 5869 c63e
00000030: f185 e83e 9b50 a7be d97a debc c54f 993d
00000040: 2827 763e 63f2 023f 99e2 453d 38e0 f13d
00000050: 082c e53d c833 41bf 9be3 143f e150 763e
00000060: 5a98 54be c9cf 723e fa95 6ebe b173 b9bd
00000070: 8a17 a0be 2a43 e4be 2729 30bf bc1c dabe
00000080: 8da4 c3bd 8ae3 e73d 89bc 4ebc 06ad ec3d
00000090: 74b0 d2bc a546 213f dfb8 2dbf e59d 273f
000000a0: 8ffa 2f3e 5fea 233e 2bb2 f8be 21d5 b63e
000000b0: cb93 1abe 4109 553d 49e8 553f 7cc9 debe
000000c0: 4b91 53be 52b9 973e e27e 103e 0df2 4a3f
000000d0: b377 e3bb f53c 88be c8a9 523e cfc8 7dbe
000000e0: 6066 823d 730e 1ebd aaac 073f 7927 10be
000000f0: ec60 293f 5538 983e cc16 c1be 3426 f63e
00000100: d11c c8be c9a0 0ebe 16b8 413f f6b5 88be
00000110: 8921 48be ca8c 983e d8dd f13d b14a 163f
00000120: 7951 c93d 59d8 51be 6b41 273e 36fe 91bc
00000130: 35a2 713d 9549 86bd d214 1a3d 6ffb 28be
00000140: 4f00 e73e 9a7b 9abe e158 a6be 9e0f 2c3f
00000150: 28d2 54be aeb9 09bf 5b69 df3e 8fbc 25be
00000160: 27b2 a2be 17b8 a3be e53f 0ebf d573 ba3d
00000170: 1486 c43e 0fcb 7cbe d286 56be b667 64be
00000180: 1989 8f3e b871 eb3e 888d babe df85 8d3e
00000190: 6e6f a73e 6d75 15bd d110 a8be 9d5f c13e
000001a0: 9d5a 93be 026c b0be 5662 ed3e 57e2 06bf
000001b0: 0ab8 62be d2c5 163e f889 b8bd 3bf3 123f
000001c0: ce77 c43e 59a7 d83d c878 2f3e 7c6c 51be
000001d0: d812 123e 5b52 42be 2680 5d3e cb7c fcbe
000001e0: a540 903d cc0e 45bf ab47 31be d598 ef3e
000001f0: 1c9b d6be 475c 2b3d b914 9dbd 559c 43be
00000200: 35e4 4cbe a237 14bf 1874 89be 066c e73c
00000210: 4f2f b63e 4367 433d 85bb aabc 4a2e b23d
00000220: 25a0 be3e 778a 0c3f 0a94 11bf 7d86 063e
00000230: 4e4a a23d 754d 833d 9556 88be b8b2 4e3e
00000240: 9cd4 b6be 5e64 65bd f5b7 103f 2867 f0be
00000250: 9dc8 49be 1a98 68bb 964a 663d d1c2 593f
00000260: af76 273e 42f4 2dbe 56a2 573e f7ca d0be
00000270: fbfd 84bd d1fc 533e befb 97bd 390a 273e
00000280: 0914 463e 2bf0 743d f6e5 f5be ac96 b83e
00000290: f84d abbe c722 87bd 9f48 e13e bd22 dcbd
000002a0: cfd2 99bd 1140 2a3e 756d 193e 1e21 003f
000002b0: f1bd 993e cc26 1fbe b7df de3e 55d4 7dbe
000002c0: 0a49 f8bd eca6 82be cb4c d33e 3dbd f3bd
000002d0: 158b 76be e4cc 91be 5fc6 9f3e 491e 233e
000002e0: e650 9e3e 9494 6dbc 4577 80be 1703 0a3e
000002f0: f831 20be ff3d debd a9ad 68be 49df 8ebe
00000300: 7fd4 cb39 8cde 383c d4e3 933e 1bc2 fcbd
00000310: e2dd ca3d c417 2f3e c6b0 0bbd d2ed 35bd
00000320: 4470 30bd 0237 39bf 1fef 2f3f 5a7e dabe
00000330: 2373 9d3d f5af 063e 73b7 1ebf 95e8 1d3e
00000340: 501c 82ba 45c0 a6be 461a 0a3d 6f9d 21bf
00000350: 7409 9abe d9b9 873e 2be6 84be c3ba 733d
00000360: f7c7 383e 0bd1 5a3a 50b9 92be 9ddf 823e
00000370: fb22 cebc 23da 28bf d56a 1e3d 3460 643e
00000380: f1b8 a7bd 79e4 08bd 0a4e b4be 4d5b 3bbe
00000390: 236d adbe b93f d6be ded9 5abf 221c 02bf
000003a0: 2ebb b23e 6310 d4be f910 4b3b 0a94 153d
000003b0: 4bde 103e 01b6 103f 294b dfbe 0e27 0f3f
000003c0: 3030 393e ab3a 4f3e 0846 2fbf e23e f33e
000003d0: 78aa 0bbf 7dc9 eabd 6417 3d3f d770 ccbe
000003e0: 3a7a ab3d 0710 b33e e07c d03e 3ec6 773f
000003f0: 6ecd 3a3e 3d97 b7be f590 de3e cc72 91bb
0.31363273 0.2339803 -0.6501626 0.4480578 -0.23303613 -0.160645 0.82873005 -0.33108604
-0.0743666 -0.28455356 -0.3660595 0.38752246 0.4541469 -0.32678685 -0.027158188 0.07485918
0.24038374 0.511511 0.048311803 0.118103445 0.11190039 -0.75469637 0.581598 0.2405429
-0.20761243 0.23712076 -0.23299399 -0.090552695 -0.3126796 -0.44582492 -0.68812793 -0.42600048
-0.0955287 0.113226965 -0.0126181925 0.11556439 -0.025718905 0.6299842 -0.67860216 0.654753
0.17185424 0.16007374 -0.4857343 0.3570948 -0.15095441 0.05201078 0.83557564 -0.43513095
-0.20660894 0.29633576 0.14110902 0.7927559 -0.0069417595 -0.26609007 0.20572579 -0.24783634
0.06367183 -0.038588 0.5299784 -0.14077558 0.66163516 0.29730478 -0.37712705 0.48076022
-0.39084485 -0.13928522 0.7567152 -0.26701325 -0.19544043 0.29794914 0.118098915 0.5870772
0.09829993 -0.20492686 0.16333549 -0.017821413 0.058992583 -0.065570034 0.037617512 -0.16502164
0.45117423 -0.30172426 -0.32489684 0.6721133 -0.20783293 -0.5379895 0.43635067 -0.1618521
-0.31776544 -0.31976387 -0.55566245 0.091041245 0.38383543 -0.24686836 -0.20949867 -0.22305188
0.28034285 0.45985198 -0.36436105 0.27641198 0.32702202 -0.03648894 -0.3282533 0.3776826
-0.2878007 -0.34457403 0.46364087 -0.5268912 -0.22140518 0.147239 -0.090106905 0.5740239
0.38372654 0.10578794 0.17135918 -0.2045154 0.14265001 -0.18976729 0.21630916 -0.4931396
0.0704358 -0.76975703 -0.17312495 0.4679629 -0.41915214 0.04183605 -0.07669968 -0.19102605
-0.20008929 -0.5789739 -0.26846385 0.028249752 0.3558297 0.0477059 -0.02084137 0.08700235
0.37231556 0.5489878 -0.56866515 0.1313724 0.07924329 0.06411258 -0.26628557 0.20185363
-0.35709083 -0.05600392 0.56530696 -0.46953702 -0.19705434 -0.003549105 0.056223474 0.8506289
0.16353868 -0.16987708 0.2105802 -0.4077985 -0.064937554 0.2070191 -0.07421063 0.16312493
0.1934358 0.059799355 -0.4802701 0.36052454 -0.33457923 -0.0659843 0.44000718 -0.10748813
-0.07510912 0.16626002 0.14983161 0.5005053 0.30027726 -0.15542144 0.43530056 -0.2478803
-0.12123306 -0.25517976 0.41269526 -0.11901329 -0.24076493 -0.28476632 0.31206033 0.15929522
0.30921096 -0.014500756 -0.25090995 0.13477741 -0.15644062 -0.108516686 -0.22722496 -0.27904728
0.000388775 0.011283528 0.28884757 -0.1234171 0.09905602 0.1709891 -0.03410413 -0.044416256
-0.043075815 -0.7234956 0.68724245 -0.42674524 0.07687976 0.1315306 -0.6199867 0.15420754
-0.0009926651 -0.32568565 0.033716463 -0.6313085 -0.30085337 0.26508978 -0.25956854 0.05950428
0.1804503 0.000834719 -0.28657007 0.25561228 -0.025163164 -0.6595785 0.0386761 0.22302324
-0.08189572 -0.033421014 -0.3521579 -0.18296547 -0.33872327 -0.41845492 -0.8548869 -0.5082418
0.34908432 -0.41418752 0.0030985458 0.036518134 0.14147298 0.56527716 -0.4361203 0.5591897
0.18084788 0.20237224 -0.68466234 0.47508913 -0.5455699 -0.11464212 0.73863816 -0.3992984
0.08372922 0.34973165 0.40720272 0.9678687 0.18242428 -0.35857573 0.43469968 -0.0044387337

lstm.bias_ih_l0 f4 [80]
00000000: f58c ea3d e0f7 5a3e 9120 343e e809 833e
00000010: b928 953e 3390 a43e 54d2 e23e f2fb 8d3e
00000020: 6fbd e5bd cef9 193e 4157 14be 514e 1f3e
00000030: fb10 703d 6a6b 8e3e 2c3f 6c3e a344 8ebe
00000040: 271b ce3d 4972 2e3e 65ff 27be 1468 5fbc
00000050: c09e 2f3d 9e7e 8f3e 2001 173d 44c0 4cbc
00000060: 7a74 703e 4ab5 7c3e a035 e13e 190d c83e
00000070: db87 153e 3a43 bebd 3c14 433d 2b7d b33e
00000080: af16 733e ae3a 123d 1b52 b8bd b24b c3be
00000090: e80a 483e c5bb 8dbd 8c3a a2bd c980 8c3e
000000a0: d051 083e 5ce9 2cbc 8b6e 1abe d025 873c
000000b0: 744c c9bd efd7 aebd 7b3d 21be 5ddb ecbc
000000c0: 643a aebc 4eef 12be 7b60 33be 6437 a0bd
000000d0: c6a7 463d 2fcf e7bd 9d84 11bd ce5e 01bd
000000e0: 1419 4fbd eafa 253e 337e e7bb d086 17bc
000000f0: ce1c 273d a99a 613e 6a12 873e ad39 063e
00000100: 0ee1 e23e 7594 0f3e 3abc 153f 3ef1 1a3c
00000110: 4fc9 0fbd 4e00 cd3e 6951 08be bbc4 8f3e
00000120: ae8a 523e c1e5 163e c986 77bc a069 16be
00000130: 835e 233d 39cf f13d c987 a4bc c75e c33e
0.11452667 0.2138362 0.17590548 0.25593495 0.2913263 0.32141265 0.44301093 0.27731282
-0.11217772 0.15036699 -0.1448641 0.15557219 0.058609944 0.27816325 0.23070973 -0.2778674
0.10063773 0.17035784 -0.16406019 -0.013635654 0.042876005 0.2802629 0.036866307 -0.012497012
0.23481932 0.24678531 0.43986225 0.39072493 0.14602606 -0.09290166 0.04762672 0.35056433
0.23739122 0.035700493 -0.090000354 -0.38143688 0.1953541 -0.0692058 -0.07921323 0.27442005
0.13312459 -0.010553684 -0.15081231 0.016497523 -0.098290354 -0.0853728 -0.15746109 -0.028913194
-0.021268077 -0.143491 -0.17517273 -0.07823065 0.048499845 -0.11318814 -0.03552686 -0.031584553
-0.050561026 0.16208997 -0.0070646047 -0.00924845 0.040798955 0.22031654 0.26381236 0.13107939
0.44312328 0.14021476 0.58490336 0.009456931 -0.035104092 0.40039295 -0.13312306 0.2807978
0.20560715 0.14736082 -0.015107819 -0.1468873 0.039885055 0.11807103 -0.020084279 0.38158247

lstm.bias_hh_l0 f4 [80]
00000000: 4045 9d3e c06a c23e 77fd 683e bc68 493e
00000010: 49a4 d23e f536 983d 2021 d73e b91e 9d3e
00000020: c4c9 69be 6eee b43e 4095 aebd ae91 e83e
00000030: f4fb f6bd 3007 753e 7a5c 723e 2e6f 85be
00000040: d64e 83bc f549 603e 4bbf 06be 203c 033d
00000050: 9848 d23c d91b 0e3e 057a 3c3e 1566 2dbd
00000060: aadc a23e 4c19 2b3e 40f9 123f dfce b03d
00000070: 9348 efbd 8c62 4a3e 957d 06bc 7818 073f
00000080: 96ff 3ebd 1807 d23d 07b2 61bd 98b8 0abe
00000090: 9d1c ee3d bfdc ffbd bd85 1b3e 332c df3d
000000a0: de46 04be 72d8 b8bb 6353 263e b9c1 5b3d
000000b0: 4e27 b23d 0ba5 683d 7b2b 153e 8cc3 73bc
000000c0: 9e88 173d 92c8 a1bd 70fa edbd 7dfc 803d
000000d0: 7234 a5bc 5b64 a3bc 3d39 6dbd 7436 3e3d
000000e0: 8533 073d fa0e 2c3e c627 19be b8b0 3d3e
000000f0: cd10 993e 64d7 df3e 73d1 2c3e d2f3 0a3e
00000100: a208 c23e 363b c83e 7fea 823e 6595 fd3d
00000110: 578d 7bbe b34c 993d a040 073e 1a83 083f
00000120: 5863 dabd edcf a73e 38ec 943e 477b c9be
00000130: 6eea 823d e19f b3bb 350c c43d 5822 e03d
0.30716896 0.3797207 0.22752939 0.19668859 0.41140965 0.07432357 0.4201746 0.30687502
-0.22830874 0.35338157 -0.08524561 0.45423645 -0.12059775 0.23928523 0.2366809 -0.26061386
-0.016028803 0.21903212 -0.1315891 0.03203976 0.025669381 0.1387781 0.18405922 -0.04233368
0.31808978 0.16708869 0.57411575 0.086332075 -0.11683764 0.19764155 -0.008208652 0.5277171
-0.046630464 0.10255259 -0.05510142 -0.1354698 0.11626551 -0.12493276 0.15187736 0.10897102
-0.12917659 -0.0056410367 0.16242747 0.053651545 0.08698903 0.056798022 0.14567368 -0.014878165
0.036995523 -0.07899584 -0.11620033 0.06298158 -0.02016661 -0.019945314 -0.057915915 0.04643865
0.033008117 0.16802588 -0.14956579 0.18524444 0.2989563 0.43719018 0.16876774 0.13569573
0.3789721 0.39107674 0.2556953 0.1238201 -0.24565636 0.07485332 0.13208246 0.53325045
-0.106634796 0.32775822 0.2908647 -0.39351866 0.0639237 -0.0054817055 0.09572641 0.109440506

lstm.weight_ih_l1 f4 [80, 20]
00000000: b010 ffbe c60c 25bf fb96 583e 4e61 6bbe
00000010: 1e2a 073f ba96 9b3e 7fc4 09bf de58 b53e
00000020: e2e4 ca3d d5bb cdbd f40a c7be c4e7 20bf
00000030: da12 18bd 24c2 b53e 157e 85be c3ab 873e
00000040: 0407 ae3e c463 e73d 5444 24be 9d42 1b3f
00000050: 9443 063d 528a 42be 369b 82be 2fce cf3e
00000060: d4b9 72bd 3693 2abe 9392 d93c 3710 59be
00000070: af55 cdbc 9d74 153e 8426 1bbe d2a9 1ebe
00000080: f043 cb3e 2827 623f f1bf 8a3e 7d52 60bd
00000090: b474 983e 302f 94bd 1262 cf3d 29a4 c9be
000000a0: 33dd 873e dd2b 74bd c4d8 9cbe b66e c63e
000000b0: a8d6 49be 7e7e 16be 996e 0f3e ae2c dc3d
000000c0: 8902 acbc 0c42 09be 4924 85be 10d3 1e3c
000000d0: 93ec 2c3e 226b 3c3f 2761 173e 910d e93d
000000e0: 37fd 023f 55e2 17be 2c7a 273e e7af 83be
000000f0: 8f5b 093e e63e 953d f063 dcbe bd51 903e
00000100: 3717 75be 355d 9fbe 93c2 113d 01b8 5fbe
00000110: 51d6 9fbe bc85 fd3d f913 9e3d c860 763e
00000120: 4281 e43e 9502 333f 82cd c23e d8a1 38be
00000130: c051 113f b1fb 62be 95ed 0cbe 1f1e d5be
00000140: 71cc a9be a9d2 13bf f8b9 ff3e 6bdf ffbe
00000150: ebab cd3e d64f a43e e778 dfbe 7cc1 9f3e
00000160: b4a9 5c3e 208a 213e afba cfbe afa9 1dbf
00000170: 041a 50be acf9 153f 509b debe 8302 073f
00000180: 4b62 ac3e 1efe 4cbd f8a3 c3bd e643 103f
00000190: 820c c9be f249 24bf 4a81 2e3f 4f14 10bf
000001a0: c985 a63e 06c4 c13e e2c5 25bf 763a c13e
000001b0: fc80 493e bb74 8dbd 080c b4be 237d 03bf
000001c0: ec1d f8be 7da9 023f 9b31 eabe fdbc eb3e
000001d0: 6731 053e 0c3c d2bc 93ac d7bd f56c cc3e
000001e0: 74b9 a53e c186 9fbe 1cc2 ff3c 3892 dd3e
000001f0: 7140 8bbe 00e1 70bd 2e4d 67be 8075 04bd
00000200: 3299 9cbe 4af7 c8bd bbf2 50be d90a 5abe
00000210: 9304 d33e 4e85 bc3e 7191 c23e 7ecc b53d
00000220: 0026 f43e d961 32bd e760 a0bd 5b03 ffbe
00000230: 1987 0fbe 6962 3bbf 7959 0d3f e001 efbe
00000240: 5776 c23e 3380 603e 0c46 c9be 6da9 4e3e
00000250: f7dd 4e3e 0634 10be 7239 c0be 5339 1cbf
00000260: 2358 83be 75d0 163f d402 c5be e187 bc3e
00000270: d9ce cb3e 2d97 323e 53e2 5d3e 4207 d53e
00000280: 8106 493e 1889 b3be a0bc f2be d5b8 bf3e
00000290: c2c5 6ebe 53e4 81be 95b9 26bd 66c4 3fbe
000002a0: 36a7 83bd 32d8 363d fa9f 2bbe ab2f 3f3e
000002b0: f9da fc3e e9d9 423f 9e35 8d3e 1e39 c2bd
000002c0: 5732 303f 4a4f a7bd fd47 33be eed6 26be
000002d0: e868 383e af92 b9be 0d50 e83c f72e 983e
000002e0: 7cf4 753d e21e cdbe 4dd4 02be 2a33 743d
000002f0: e27e 69be 8a46 35be 5452 b1bc aa32 db3c
00000300: 89c2 c83e 7a6f 4a3f a0e4 8b3e 26c9 193e
00000310: 699b 563e 9003 203d f23c fc3c 2682 bbbe
00000320: 098e 863e a529 83be 2501 0fbe 3834 b63e
00000330: 0b8b 023d d69b aebe 535b 40be 3259 b93d
00000340: fa3e 78be 483e 1a3d 7c75 3ebe 6fd2 febd
00000350: 7d55 e23e d982 143f 3ace 9e3e eb97 eb3b
00000360: 2e93 be3e aa37 a53d f8ea 253e 1c55 11bf
00000370: aeef 2d3e cfd1 91be e1ac cbbe 394a 1a3f
00000380: 5c46 acbe ad09 e4be 0d7f 253e 1015 97be
00000390: 0f8a 2d3d afa2 6f3e 2803 3abb f924 983e
000003a0: a30d 163e 037f 333f a5d1 c83e ad70 10be
000003b0: 49e0 003f 3a15 99bd d8ba 8ebd 1049 bebe
000003c0: 77df 0e3e e7eb 92bd 80b8 8e3c 0a2d 6e3e
000003d0: 6ad7 75be 71cb 51be 8e93 d3bd cbad 2f3e
000003e0: 70aa 97be 8da0 25bd e1b5 7dbe f8e3 80be
000003f0: 4ddf 443e f9ca 0a3f 16a5 493e e152 c83d
-0.4981742 -0.64472616 0.21151344 -0.22986338 0.5279864 0.30388433 -0.53815454 0.35419363
0.09906937 -0.10045592 -0.38875544 -0.62853646 -0.037127353 0.3549968 -0.26072755 0.2649823
0.33989727 0.11298326 -0.1604169 0.6064852 0.03277929 -0.18998078 -0.25509042 0.40586993
-0.05925925 -0.16657719 0.02655915 -0.21197592 -0.025065271 0.14595266 -0.15151411 -0.15494469
0.3970027 0.88341 0.27099565 -0.054766167 0.29776537 -0.07235563 0.10126127 -0.39383057
0.2653595 -0.059612144 -0.3063413 0.3875634 -0.19710791 -0.1469669 0.14007033 0.107507095
-0.020997303 -0.13404101 -0.26004246 0.009693876 0.16887121 0.7360097 0.14783154 0.11379541
0.51167625 -0.14832433 0.16355199 -0.2572014 0.13413833 0.072873875 -0.43044996 0.2818736
-0.23934637 -0.311258 0.03558595 -0.21847536 -0.31218198 0.123790234 0.07718653 0.24060357
0.44629866 0.69925815 0.38047415 -0.18030488 0.56765366 -0.22166325 -0.13762505 -0.41624543
-0.3316379 -0.57743317 0.4994657 -0.49975142 0.40170226 0.3209216 -0.4364693 0.31202304
0.21549112 0.15775347 -0.40572116 -0.6158704 -0.20322424 0.58584094 -0.4347787 0.5273821
0.33668742 -0.050047033 -0.09552759 0.56353605 -0.39267355 -0.6417533 0.6816603 -0.5628099
0.32523945 0.37844867 -0.6475507 0.37739915 0.1967811 -0.0690703 -0.3516543 -0.5136282
-0.4846033 0.5103987 -0.4574097 0.46042624 0.13007127 -0.025663398 -0.10530963 0.39926878
0.32368052 -0.31157497 0.031220488 0.4327562 -0.27197602 -0.058808327 -0.22588035 -0.03233862
-0.3058563 -0.09812792 -0.20405094 -0.212932 0.41214427 0.36820453 0.38001588 0.088768944
0.47685242 -0.043550346 -0.07830983 -0.49807248 -0.1401638 -0.73197037 0.5521465 -0.46681118
0.3798091 0.21923904 -0.39311254 0.20181818 0.2020186 -0.14082345 -0.37543827 -0.6102497
-0.2565318 0.5891183 -0.3847872 0.36822417 0.3980625 0.17440481 0.21668367 0.416071
0.19631387 -0.35065532 -0.47409534 0.37445703 -0.23317626 -0.2536951 -0.04070433 -0.18727264
-0.06428377 0.044639774 -0.16760245 0.18670528 0.49385813 0.76113755 0.2757997 -0.094835505
0.6882681 -0.0816942 -0.1750793 -0.16292927 0.18008769 -0.36244723 0.028358484 0.2972333
0.06004761 -0.40062624 -0.12776299 0.059619106 -0.22802308 -0.1770269 -0.021645702 0.026757557
0.3921092 0.7907635 0.27322865 0.15018138 0.20957722 0.039065897 0.03079078 -0.36622733
0.2628024 -0.2561771 -0.1396528 0.35586715 0.031870883 -0.34103268 -0.18784837 0.09050216
-0.24242774 0.037657052 -0.18599504 -0.12442481 0.44205847 0.5801216 0.31016713 0.007189741
0.37221664 0.08067258 0.16202915 -0.5677049 0.16985962 -0.28480384 -0.39780334 0.60269505
-0.3364743 -0.44538632 0.16161747 -0.29508257 0.04236799 0.23401903 -0.002838323 0.29715708
0.1465364 0.7011568 0.39222446 -0.14105482 0.5034223 -0.07474752 -0.06969231 -0.37165117
0.13952433 -0.07173901 0.01742196 0.23259369 -0.24007955 -0.20487763 -0.10330878 0.1715614
-0.2962222 -0.040436316 -0.24776413 -0.25173926 0.19225807 0.5421596 0.19691882 0.09781433

lstm.weight_hh_l1 f4 [80, 20]
00000000: ac31 d33b 1578 76bd ddbf d93d ce8f 7cbe
00000010: 80b1 30bb ee32 1f3e 440b 373e 7444 053d
00000020: 328e 103e a01c babd 4f09 dabd 58fc 4cbe
00000030: f0f0 ea3d a6de 15be 8990 8abe aea8 fc3c
00000040: 6a83 f7bd 3401 6bbe 146d 7dbe 66b6 1bbe
00000050: 4050 3dbe 213b 49be a20a 58be ce9a bb3d
00000060: 47c1 67be 04be e33e 5829 a63d aea0 9dbe
00000070: 90f7 b6be e3e9 8e3d 00ab f9bb 350a ef3e
00000080: fa07 253e 2262 16bf 6de5 2c3e 653e 5cbe
00000090: f68e 23bd b342 983e 8436 7abe 76b5 f4bc
000000a0: 8703 0e3b 5603 2a3e 3e0e d93c 9b79 f23c
000000b0: 5747 02bf 19dd 833e d5c2 a4bd b07a 88be
000000c0: dbc3 d5bd 548d f5bd edb7 5f3e 6ae3 c93e
000000d0: 04c2 4cbb 03f9 dbbe f117 833d dcd4 1cbe
000000e0: d499 eb3c 12e3 473e 3865 c43d c0da 973b
000000f0: 66e2 3abe f7ef 5d3d b448 0e3e fd3d 0a3e
00000100: 01f3 f2be 6b7d d03e eb64 233e 5feb 22bf
00000110: a4fb ff3c 2713 a9be decd 0a3e 914d 4b3e
00000120: a90b 043e 7976 84be 769a 09bc e3fe 82be
00000130: 7b92 ba3d 0a4e 7dbc 4ac3 53bc 01dc 1dbb
00000140: e81d e9bd e107 633e 4011 a13e 366a 3cbe
00000150: bc0b 853b d98f 063d 30d3 713d cdcc 08be
00000160: 7674 af3e 858e c3be 702a 98be 38c0 48be
00000170: 841b 813c 7944 99be 32f0 d53c bbdd 59be
00000180: 6041 96be 508e 99be 866b 16be 4473 233d
00000190: b960 70be ee49 5a3e 958b 3d3e 5d13 633d
000001a0: cffe 93be 5b1f 443d 4c17 5d3e 26ed 8ebe
000001b0: 31e1 ae3e 46e0 1c3c 0031 eabc 7f3c 3bbe
000001c0: e4a3 c13e 67f6 d63b 5020 bfbe 6c0f 0abe
000001d0: 3886 b4bd 97b8 0bbd 517d c4be b0d2 c03e
000001e0: 3511 94be ebea 513c 5453 72be 5885 6d3d
000001f0: 0010 e9be 04e4 253f 8361 0dbe f23e 81be
00000200: bb88 0bbe d897 0c3d 0240 fbbb 187c 543e
00000210: 3cb4 6fbc 67bf f1be c037 953e d7fb 69be
00000220: 0532 8dbd fd17 41bd 73ca bbbc 2d16 1fbe
00000230: e9a0 d0bc ce3d 3b3d f9dd 1cbe 2179 963c
00000240: e9aa 26be 063e 693d 3a43 22be 95c1 a7bb
00000250: a136 8fbe a91e 33bd 471a 233c 0db5 133e
00000260: eef9 193c f934 803c 44c8 abbe ba48 a7be
00000270: a173 a53d f5a1 94bd 3fad 16be a90e 8d3c
00000280: d530 eabe 13d4 5fbe 5938 92bd 1778 aa3e
00000290: a7f9 a0be da47 053f 6a52 eebd 82f1 67be
000002a0: 49d0 debd 6ee4 973b b51c 8e3d 2db0 7d3e
000002b0: 0f6d ef3d 1109 12be de32 863e c589 80be
000002c0: 35dc ed3d 3e9e ba3c f99c d73d de6d 023e
000002d0: 1cd1 e13a fceb 28be d803 94be ad05 d63d
000002e0: b6e3 5abe 9133 133f ca6a 5d3d f421 b6be
000002f0: 3771 6abb 2688 6bbe fdef 3d3e 296a 843e
00000300: 513e 953e a0ed 3dbe e693 03be 1e83 32bd
00000310: c095 7f3e efff ebbd 1bc1 ccbd 4ca1 06be
00000320: dc13 3bbe 1490 50bd 7f6b b13c a102 b73d
00000330: 871b e2be c733 f93e 723a 4f3c 672d 9cbe
00000340: 737d c03c d927 323e 6ece 33bd d8b1 503e
00000350: 4c46 993d bc91 8ebe bc7e 003e 5968 a8be
00000360: 1795 9cbd e962 653e 22f7 a1bd 23c4 e8bd
00000370: 13f0 6fbd e420 a73d b79d 493e 5691 673e
00000380: 3ab4 debe 21dc 013f 1ec8 613e 8f68 1abf
00000390: 86bf f9bd 9fb4 b2bd c200 603c c05d 0d3e
000003a0: 7f96 733e 8288 e6be dc6b ff3d 1af8 063c
000003b0: e651 a4bd 2df4 4bbe a323 59be 42cf d03d
000003c0: f3b9 fabe c560 8ebe 1e2a 2fbd 398a b33d
000003d0: f6bf 83be 0947 fa3e 2e75 b4bd 16c5 ffbe
000003e0: 4f8c 95be 93cf 903c 571a 893e 0fc6 2a3e
000003f0: ca36 5a3e 4de2 cebe 5055 473e c66a dfbe
0.0064451303 -0.060173113 0.10632298 -0.24664232 -0.0026961267 0.15546772 0.17875391 0.032535985
0.14116743 -0.09087491 -0.10646307 -0.20018137 0.114717364 -0.14635715 -0.27063397 0.030842151
-0.12085612 -0.22949678 -0.24748641 -0.15206298 -0.18487644 -0.19651462 -0.21097806 0.09160386
-0.22632323 0.44480908 0.081133544 -0.3078665 -0.3573575 0.06978204 -0.0076192617 0.46687475
0.16116324 -0.5874349 0.16884394 -0.21508177 -0.03993126 0.29738387 -0.24434859 -0.029871684
0.0021669583 0.16602835 0.026496049 0.029599002 -0.50890106 0.25754622 -0.08044974 -0.26656103
-0.10437747 -0.11989847 0.21847506 0.39431316 -0.0031243572 -0.42963418 0.06401051 -0.15315574
0.028759874 0.19520214 0.095896184 0.0046342313 -0.18250427 0.054183926 0.13894922 0.13500209
-0.47451022 0.40720686 0.15956466 -0.636404 0.031247921 -0.33022425 0.13555095 0.19853808
0.12895073 -0.25871637 -0.008398643 -0.25585088 0.0910997 -0.0154605005 -0.0129249785 -0.0024087431
-0.11382657 0.22170974 0.31458473 -0.18399891 0.0040602367 0.032852028 0.059039295 -0.13359375
0.3426854 -0.3819467 -0.29719877 -0.19604576 0.01576019 -0.29935053 0.02611551 -0.2127599
-0.29346752 -0.29991388 -0.14689454 0.039904848 -0.23474397 0.21317264 0.18510278 0.05543839
-0.2890534 0.047881465 0.21590918 -0.27915305 0.34156182 0.009574955 -0.028587818 -0.18284796
0.3782035 0.006560135 -0.3732934 -0.13482445 -0.08814663 -0.034111585 -0.3837686 0.37660742
-0.28919378 0.012812356 -0.236646 0.057988495 -0.4552002 0.6480105 -0.13806729 -0.25243336
-0.13626377 0.034324497 -0.0076675424 0.20750463 -0.014630374 -0.4721634 0.29144096 -0.22849976
-0.06894306 -0.047142018 -0.022923684 -0.15535803 -0.025467353 0.04571324 -0.15319051 0.018368306
-0.16276135 0.056943916 -0.15845957 -0.0051195123 -0.27971366 -0.04373041 0.0099549955 0.14424534
0.009397967 0.01565026 -0.33551228 -0.32672673 0.08078695 -0.07257453 -0.14714526 0.017218905
-0.4574038 -0.21858244 -0.07139654 0.33294746 -0.3144047 0.5206276 -0.11636813 -0.22650722
-0.10879571 0.0046353852 0.06939069 0.24774237 0.11690723 -0.14261271 0.26210684 -0.2510511
0.11614267 0.022780534 0.10527987 0.12737224 0.0017228457 -0.16496271 -0.28909183 0.10450301
-0.21375927 0.5750056 0.05405692 -0.3557278 -0.0035773048 -0.23001155 0.1854858 0.25862244
0.29149106 -0.18547678 -0.12849388 -0.043582074 0.24959469 -0.11523425 -0.099977694 -0.13147467
-0.18269295 -0.050918654 0.021657703 0.08936048 -0.44161627 0.48672315 0.012648212 -0.3050339
0.023497319 0.17398013 -0.04389804 0.20380342 0.07484111 -0.27845562 0.12548345 -0.3289211
-0.07645624 0.22401012 -0.07908465 -0.11365535 -0.058578562 0.0816057 0.1968907 0.22614035
-0.43496877 0.50726515 0.22048995 -0.60315794 -0.12194733 -0.08725857 0.013672056 0.13805294
0.23787878 -0.45026022 0.124717444 0.008237863 -0.080234334 -0.19917364 -0.21205 0.10195781
-0.48969993 -0.27808204 -0.042764775 0.08766598 -0.25732392 0.4888232 -0.08811413 -0.49955052
-0.2920861 0.017677104 0.26777908 0.16677116 0.21309963 -0.4040703 0.19466138 -0.4363615

lstm.bias_ih_l1 f4 [80]
00000000: 98a3 cabb 5366 ac3e cdfa e03b d112 b33c
00000010: 4df5 633c 4bbb c93c 213e b83e fb58 1ebd
00000020: d157 313e fd56 4d3c 8456 993e 4f8e 8c3d
00000030: 81ae 543e fc31 933e 3946 e63e 89bf 013f
00000040: a091 8bb9 314f 1bbd a000 863d ceee c83d
00000050: 8738 753e 4a9d 843e abfe 703e a663 693d
00000060: e873 483e 5f42 a63e fe9c e83e 4459 abbd
00000070: 4ba1 843d 78c0 a03e d6d1 7b3e 8bd9 95be
00000080: 1983 e83c d43a 5f3e 9878 393e 4f79 993e
00000090: c0ea 9b3e 6b0f ab3e c0d1 b03e 03e9 c43e
000000a0: 0e48 61be 56fe 003e 6d64 0c3e 2eaa 723d
000000b0: 2665 2cbd 32a5 113e 43e8 81bd a247 9abc
000000c0: 0ce2 94bc 8e02 acbc 9d2b 6cbe c934 273e
000000d0: 0b43 8bbe b0a1 31be fc29 9cbd f8c7 1ebe
000000e0: 969c 1c3e cc7a 463e eca9 68bd f8da 033d
000000f0: d50e 94bd 23ee 863e 0862 cb3e 8f11 ff3d
00000100: 3f46 a83d d02a 363d 9b29 b83e a500 d93b
00000110: 0b4b dd3c a2ed 8d3e c540 d03e 5e5a e33e
00000120: 438f 583e c61e d53e 8690 df3e 2259 0a3f
00000130: 657b c83e e391 b93e b8e1 783e b0f6 e93e
-0.0061840527 0.33671817 0.0068658353 0.021859558 0.013913465 0.024625441 0.359849 -0.038659077
0.17318656 0.012532947 0.2994882 0.06863081 0.20769693 0.28749073 0.4497545 0.50682884
-0.00026620645 -0.03791732 0.06543088 0.098111734 0.23947345 0.25901252 0.23534648 0.056979798
0.19575465 0.32472512 0.45432276 -0.083666354 0.06476077 0.31396842 0.24591765 -0.29267535
0.028382825 0.21799785 0.18112409 0.29975364 0.30452538 0.334102 0.34535027 0.38459024
-0.22000143 0.12597021 0.13710184 0.059244327 -0.04208865 0.14223173 -0.063431285 -0.018832985
-0.018174194 -0.020997312 -0.23063512 0.1632873 -0.27199587 -0.17346835 -0.076251954 -0.1550597
0.15294108 0.19382781 -0.056802675 0.032191247 -0.072293915 0.2635356 0.3972323 0.12454521
0.082165234 0.044474423 0.35969242 0.0066223913 0.027013322 0.27720362 0.40674415 0.44404882
0.211484 0.4162504 0.4366495 0.54042256 0.39156643 0.36244115 0.24304855 0.4569602

lstm.bias_hh_l1 f4 [80]
00000000: 055f febc 404e d2bc e963 bb3e caa3 c03d
00000010: da77 f13d 680b 4c3e e12f 8b3e 6f40 25be
00000020: 6be9 a6bd 061d 293e dbc1 3e3e 3f87 5a3e
00000030: a026 eb3b 6933 be3d c5e3 d93e 2c19 d23e
00000040: 14f1 ce3e 042a 873e ba28 723d 590c 03bc
00000050: b813 bebc 3594 6f3e e6f0 283e 0253 573d
00000060: 12ef 3b3e dba2 8a3e 6622 ed3e 6e81 203e
00000070: b6ea 403e d22d bd3e 3ac9 273e 0873 74be
00000080: 746d 563e fbd6 653d 494a e43e 1f8b ca3e
00000090: 36aa a73e b10e e03d 7753 203e 0a3a 0d3e
000000a0: 26cd 8abd f180 4ebe c611 afbd 997a 203e
000000b0: 67d3 48be 0a50 3b3e 6c70 bf3d 78dc 3abe
000000c0: 5837 7f3d 6080 ea3d d38a 1d3e 3549 013e
000000d0: 4c9b af3d d83a 0e3b a6c5 a7bd 067e c03d
000000e0: 76a7 66be 1012 8ebd c1a5 12be 3256 7a3e
000000f0: 9961 523e fe98 1e3e fa7f a13e 0422 9d3e
00000100: c64f 3bbe e946 733d c142 083f 570e 113d
00000110: 228b 643e 0717 143f 27e6 f23e ef32 f03c
00000120: 4e84 f33e 31b3 c53d b3b2 0a3f 952d 533f
00000130: 5be8 d23e 4bfa 373e 38ba ce3d 3290 233e
-0.031051168 -0.025672078 0.36599663 0.0940624 0.11790438 0.19926226 0.27184966 -0.1613786
-0.0814999 0.16514978 0.18628637 0.21340655 0.0071762353 0.092871495 0.42556587 0.4103483
0.40418303 0.26399243 0.05912087 -0.007998549 -0.023202762 0.2339638 0.16498145 0.052569397
0.18352917 0.27077374 0.46315306 0.15674374 0.18839535 0.3694902 0.16385356 -0.23872006
0.2094019 0.056113224 0.44587925 0.39559266 0.32747048 0.10940302 0.1565684 0.13791671
-0.0677741 -0.20166375 -0.08548312 0.15671767 -0.19611894 0.18292251 0.09347615 -0.18248165
0.06230864 0.11450267 0.15384988 0.12625583 0.085745424 0.0021702554 -0.08191995 0.09399037
-0.22524819 -0.06937039 -0.14321043 0.24446943 0.20545043 0.1548805 0.3154295 0.30690014
-0.1829215 0.059393797 0.5322686 0.035414066 0.223187 0.57847637 0.47441217 0.029321162
0.47561878 0.09653319 0.54178923 0.8249143 0.41192898 0.17966573 0.10094112 0.15972975

fc.weight f4 [1, 20]
00000000: 6a7c 0940 1e49 10c0 33dd 15c0 ed35 f53f
00000010: b693 fd3f 36ea f2bf c96b 15c0 91f3 e53f
00000020: fff1 07c0 e393 0b40 5660 1740 c3eb e83f
00000030: 88b1 10c0 379f 1040 60db 1440 9875 0940
00000040: 7ef3 0940 f22a 0b40 e14e 1240 0ad7 13c0
2.1482186 -2.2544627 -2.341626 1.9157082 1.9810703 -1.8977726 -2.3347037 1.7964956
-2.1241453 2.1809013 2.3652549 1.8196949 -2.2608356 2.2597177 2.3258896 2.1478024
2.1554866 2.1744962 2.2860644 -2.31

exp_avg f4 [80, 4]
00000000: 04ed acb4 d5c4 25b6 ab59 ba35 834f 88b5
00000010: d9eb edb5 2ff2 65b6 b1e2 af35 f733 31b6
00000020: 1e97 4b34 2395 38b6 fadf ba35 ada4 c9b5
00000030: 6057 3eb5 8dbc 54b6 7de5 0736 1ac0 07b6
00000040: 64c3 69b5 3f81 65b6 f482 bc35 8bef 88b5
00000050: 35ec 2db5 df9f 83b6 dca5 1136 f96b 67b6
00000060: d509 b1b4 342b a3b6 920a 1836 6b5a 22b6
00000070: ac97 0ab5 f40c 92b6 a8ef 5836 c970 3bb6
00000080: e92d 3bb3 bdf3 e1b4 41ef 0a32 1a4c 95b4
00000090: 528a 2535 affc c535 50bb 39b6 1e9f c335
000000a0: 8e4a fa34 fa36 d135 3fbd 38b6 380e e135
000000b0: d8fa 6935 8266 77b6 17d5 7336 c65b aa33
000000c0: 7088 8db5 955d 3cb6 585c 9034 914b 22b6
000000d0: 0095 4534 2f9f 36b5 f86b 0436 a220 62b4
000000e0: 4966 beb4 036d 5cb5 b4c3 83b5 b2e7 6bb4
000000f0: 03e0 d6b3 eeeb a2b4 60d7 d1b3 f045 7ab4
00000100: ea54 8c34 c624 5734 2f45 1a35 bb26 3db4
00000110: 97c7 f134 8994 fd35 669f 3db6 7427 b235
00000120: 269d 1e34 fb95 9234 af2d bab5 eaf6 0035
00000130: 1fd3 8f34 566b 8335 b700 41b6 a7a1 1735
00000140: b236 10b5 2e52 a2b5 5759 9934 7d80 3ab5
00000150: 5cda a1b5 1cab 86b5 f332 35b4 b908 52b5
00000160: 0460 9fb4 5e04 88b5 8a2f c134 6ddd e1b4
00000170: b5fc abb5 a555 eeb5 e6d7 6eb4 6903 ffb5
00000180: b43a 12b5 948d ffb5 761d 2635 9bc1 c8b5
00000190: f92a 92b5 57ff e9b5 11e9 93b4 8cc6 d6b5
000001a0: be6b 31b5 1fc8 e1b5 70f4 1835 857f 69b5
000001b0: 642d 9db5 7fd4 0fb6 b202 4f34 00f9 fcb5
000001c0: 3c98 e0b2 c066 cfb3 371e f8b0 047c 5cb3
000001d0: bbdc a335 e185 d535 2995 8a34 ac96 0936
000001e0: 4c25 aa35 b65e 2d35 8adb 2135 a770 9c35
000001f0: 86f0 3db4 0a74 64b5 c02f 7c35 abd0 1ab4
00000200: b159 1ab5 21c1 7cb5 faf9 95b4 1384 73b5
00000210: 95d4 00b6 0e94 13b6 4d07 18b5 54a4 e7b5
00000220: b3e4 a934 6127 c034 2cbd 5cb2 89c6 1735
00000230: 5016 f531 a17c 51b3 eb80 e331 40d0 e6b2
00000240: 8f46 81b3 4d14 29b3 f247 8732 22ec 2fb4
00000250: 17ea 6e35 0f6c 9f35 031c 4733 7dfb c035
00000260: 429b b134 90c2 8e34 8c9b f933 22dc 1635
00000270: cabd 6735 6798 5335 e33b af33 3a5c 9c35
00000280: aa73 bcb7 884f a1b8 1fef 9a38 7474 63b8
00000290: 9413 72b8 fdda 8bb8 83a9 c938 daa7 b4b8
000002a0: 5521 0e38 f303 dd38 01fd ceb8 ced2 ab38
000002b0: 4c6c 03b8 43e8 83b8 63da 4d38 4047 80b8
000002c0: 387e ce38 1892 3639 bf26 a8b8 4ab5 3039
000002d0: 735f 8137 df90 a438 544f c2b8 1bac 8b38
000002e0: 9928 7bb8 0617 5bb9 875a 6339 09f8 41b9
000002f0: 6f21 e537 51c3 e538 ca8b 00b9 5b14 b838
00000300: dbbf 1f36 e14a c236 2440 17b6 2441 cc36
00000310: 05d7 83b7 1ea6 29b8 6845 1938 276c 15b8
00000320: 7e43 75b6 9d48 4eb7 09b3 a737 d1c9 65b7
00000330: 28af 93b8 e09f 36b9 b454 3939 fe83 44b9
00000340: 658a 66b7 a7d7 20b8 8417 d637 abab 0cb8
00000350: 1cf6 1438 9a49 5838 9c57 2536 742c 2c38
00000360: 2e6f bbb7 3ee9 6db8 4ec7 f837 53f2 36b8
00000370: f15c 2836 b641 cf35 192e 26b5 6006 3836
00000380: 18e7 c737 3161 c335 4988 4b37 8d0d 4637
00000390: f41f c336 2639 b837 85e8 bbb7 9783 8a37
000003a0: b771 c6b6 4b50 64b7 b090 9537 f6fa 6db7
000003b0: 9b80 6c37 789f 3438 505e 0bb8 07a6 fd37
000003c0: b4bf 20b5 d20a 3db6 cc3e a335 b2eb c0b5
000003d0: 42a2 15b6 6855 56b6 5083 9035 8722 28b6
000003e0: 4e0d 10b4 48a4 39b6 51f5 9935 5a0e d0b5
000003f0: ff0c b4b5 1f03 73b6 df4d 0036 a8a1 32b6
-3.2209948e-07 -2.4701487e-06 1.3884177e-06 -1.015593e-06 -1.7726517e-06 -3.4264629e-06 1.3104492e-06 -2.6405303e-06
1.8960824e-07 -2.7504946e-06 1.3923266e-06 -1.5023594e-06 -7.0907663e-07 -3.1700213e-06 2.0250147e-06 -2.0228385e-06
-8.7083595e-07 -3.419889e-06 1.4045204e-06 -1.0202506e-06 -6.479125e-07 -3.9227157e-06 2.1703227e-06 -3.448453e-06
-3.2975973e-07 -4.862808e-06 2.2655918e-06 -2.4192511e-06 -5.162972e-07 -4.352647e-06 3.2326006e-06 -2.793082e-06
-4.3581085e-08 -4.208686e-07 8.087057e-09 -2.7808784e-07 6.166857e-07 1.4751184e-06 -2.7676178e-06 1.4574941e-06
4.6620374e-07 1.5587714e-06 -2.7528292e-06 1.6767945e-06 8.716429e-07 -3.6865536e-06 3.6333856e-06 7.9329354e-08
-1.0545027e-06 -2.8068655e-06 2.688928e-07 -2.4183867e-06 1.840126e-07 -6.8031926e-07 1.9732379e-06 -2.1059762e-07
-3.546468e-07 -8.211502e-07 -9.817218e-07 -2.1970371e-07 -1.0005899e-07 -3.0346513e-07 -9.7714974e-08 -2.3308507e-07
2.6138815e-07 2.0036813e-07 5.7470146e-07 -1.7616087e-07 4.503497e-07 1.8893198e-06 -2.8255977e-06 1.3273516e-06
1.4772067e-07 2.7303744e-07 -1.3871376e-06 4.8043023e-07 2.6789436e-07 9.7915e-07 -2.8759657e-06 5.648712e-07
-5.372377e-07 -1.2093858e-06 2.8563474e-07 -6.9477375e-07 -1.2058986e-06 -1.0033577e-06 -1.6875474e-07 -7.824379e-07
-2.9685918e-07 -1.0134061e-06 3.598364e-07 -4.2070624e-07 -1.281404e-06 -1.7757308e-06 -2.224402e-07 -1.8999973e-06
-5.447466e-07 -1.9040185e-06 6.188269e-07 -1.4957508e-06 -1.0890354e-06 -1.7434166e-06 -2.7550462e-07 -1.6002027e-06
-6.6094424e-07 -1.6822049e-06 5.6980116e-07 -8.698483e-07 -1.1710622e-06 -2.143235e-06 1.9279358e-07 -1.8847932e-06
-2.614626e-08 -9.657879e-08 -1.8052962e-09 -5.1335533e-08 1.2208687e-06 1.59087e-06 2.581303e-07 2.0502293e-06
1.2676842e-06 6.4585345e-07 6.0296645e-07 1.1655692e-06 -1.7689499e-07 -8.510548e-07 9.39468e-07 -1.441828e-07
-5.749999e-07 -9.4158355e-07 -2.7935295e-07 -9.071675e-07 -1.9197225e-06 -2.1990886e-06 -5.6635037e-07 -1.7258667e-06
3.1645104e-07 3.579144e-07 -1.2848698e-08 5.654079e-07 7.132975e-09 -4.8774954e-08 6.621226e-09 -2.6870225e-08
-6.019865e-08 -3.9366842e-08 1.5748785e-08 -1.638405e-07 8.9002555e-07 1.1877872e-06 4.6358775e-08 1.4378307e-06
3.3081784e-07 2.6591124e-07 1.162326e-07 5.619969e-07 8.6330385e-07 7.88254e-07 8.159966e-08 1.1649747e-06
-2.2465207e-05 -7.691892e-05 7.387832e-05 -5.4229473e-05 -5.771553e-05 -6.668826e-05 9.616001e-05 -8.614334e-05
3.388648e-05 0.00010538837 -9.869971e-05 8.193181e-05 -3.1333693e-05 -6.289829e-05 4.9079197e-05 -6.116787e-05
9.8463555e-05 0.00017411297 -8.018081e-05 0.00016852203 1.5422445e-05 7.847114e-05 -9.265417e-05 6.660094e-05
-5.9880873e-05 -0.00020894044 0.00021682131 -0.00018498315 2.7314496e-05 0.000109559514 -0.00012259107 8.777595e-05
2.380452e-06 5.7903676e-06 -2.2538088e-06 6.087257e-06 -1.5716543e-05 -4.044745e-05 3.6542682e-05 -3.5625093e-05
-3.654713e-06 -1.2295463e-05 1.9991321e-05 -1.3696453e-05 -7.0421316e-05 -0.0001741643 0.00017674529 -0.00018741188
-1.3741291e-05 -3.8347815e-05 2.5521738e-05 -3.353848e-05 3.5515157e-05 5.156696e-05 2.4637911e-06 4.1049396e-05
-2.234391e-05 -5.6722427e-05 2.9656712e-05 -4.3617863e-05 2.508805e-06 1.5441826e-06 -6.19069e-07 2.7421847e-06
2.383026e-05 1.4556919e-06 1.2131474e-05 1.1804875e-05 5.8151727e-06 2.1961121e-05 -2.2400412e-05 1.6512158e-05
-5.914098e-06 -1.3608554e-05 1.782956e-05 -1.4184732e-05 1.40966395e-05 4.306386e-05 -3.3228018e-05 3.0237263e-05
-5.988361e-07 -2.8169493e-06 1.2162723e-06 -1.4373711e-06 -2.2297177e-06 -3.1938198e-06 1.0767053e-06 -2.5054048e-06
-1.3415885e-07 -2.7662772e-06 1.1470785e-06 -1.5501384e-06 -1.3414827e-06 -3.6211638e-06 1.9118813e-06 -2.6618163e-06

exp_avg_sq f4 [80, 4]
00000000: a5a3 0a30 2105 6630 2897 c42f d9dd 2b30
00000010: 3c13 7d30 2211 1531 95cb 1230 f3c7 d830
00000020: 4622 a230 9f78 1e31 82d3 832f 9af4 6d30
00000030: da0a 1831 d780 0c31 55f5 b32f 1c19 1a30
00000040: 8b06 f030 e9a1 1031 f65b 5c30 7663 bb30
00000050: 5eb5 dd30 0249 2631 ed7b 162f d8cc 4330
00000060: c6e0 0f31 f843 6d31 37be 6630 8fee 1331
00000070: 1eaa 1131 cd41 0a31 5246 ca2f b433 3c30
00000080: c15c d12d dc85 222e 41f4 a52d 81b7 ee2d
00000090: 9248 7531 5972 3831 9d07 f32f 0540 f22f
000000a0: 4831 1031 4059 fc30 ac88 f12f 33ad 2630
000000b0: 57f2 3731 fee9 9831 f94e a830 d609 2d31
000000c0: 88e2 812f 7cd5 e82f b038 3a2f 52e5 a32f
000000d0: 0bae 0f30 e1b9 8030 e90a e22f 9ff5 3c30
000000e0: 2ccf a62f 721e 0130 a9cf 8d2f 91fc d32f
000000f0: 29f8 1f2d 719f 882d c464 0a2d dfd6 5a2d
00000100: 1a05 802f 3499 e82f 4cad 282f 1d05 a32f
00000110: c320 4731 ac06 0c31 f47f c92f 55e4 ab2f
00000120: 3197 e030 48db d230 207c 9b2f 86a7 0030
00000130: 6009 6d30 edfa 8430 5ed7 ee2f cd8e 1f30
00000140: 6cff 902e d43a 132f a687 862e e190 ef2e
00000150: 4cea 8b2f 138c 1f30 34a1 6a2f 76ec fc2f
00000160: efec 062f 3e59 ca2f 0c60 ea2e d8a3 962f
00000170: 2d45 4f2f 840f 0f30 4c75 5a2f a10b f42f
00000180: d918 5c2f 38c5 1f30 d0ed 682f 21e8 0a30
00000190: 1468 032f b39e c62f ae6c e52e 0749 972f
000001a0: d572 792f 1186 3730 657e 592f 7e8c 1630
000001b0: b00f ed2e 6090 cb2f aef8 f52e a9dd b12f
000001c0: 9d43 122c 9e55 802c 4eff 1b2c ded3 592c
000001d0: f68d 392f 01f0 0630 f8a9 312f cf02 dc2f
000001e0: 9bd0 f32e a018 982f 5494 052f 0780 842f
000001f0: 5463 842f 81e4 3e30 44c2 6c2f 9f24 1330
00000200: 6c97 f72d 8b19 7d2e 938e f72d 305d 5b2e
00000210: 047b eb2f fe7f 8330 4a7d ce2f fe9f 4a30
00000220: caed 902e 223c 0b2f dc48 9d2e fed7 f32e
00000230: f7b3 862b 0459 e72b a1c7 9c2b 36bf d52b
00000240: ce68 b92e 8fa0 3d2f 92c8 892e d7a0 062f
00000250: 3765 ce2e fc7f 9a2f e907 c52e 3eb3 7d2f
00000260: 4add 8a2e fa9a 302f 8939 842e 342a 0d2f
00000270: 29ef db2e 69d3 662f 940c c62e fa6c 3c2f
00000280: 87c5 9535 409f 9a35 f8ce 3934 cf1f d034
00000290: 08d1 b336 b854 a536 dff6 5335 c8ce c735
000002a0: 65f1 6536 ebd5 3c36 84d3 0935 69b4 5035
000002b0: 48d3 ac35 f210 a035 b878 5d34 795b d034
000002c0: 82ce 0237 1254 ef36 c9d0 8535 9936 0236
000002d0: 1767 3136 4aed 0b36 bb82 b134 5b07 ea34
000002e0: 5010 9137 92b8 7a37 dbec 0436 37cd 6336
000002f0: d307 8a36 95bf 6236 0ddb 0435 4341 3e35
00000300: f649 4532 2e55 7232 4ca5 9631 96b6 0532
00000310: a925 3735 1731 1a35 3630 ab33 d81a 0734
00000320: 7f82 0234 332b fb33 572d b732 e308 2533
00000330: fbc8 9337 c209 8337 bccf 0436 f1b2 7036
00000340: 5c93 9834 a0a7 9234 a87f 6533 ed28 cd33
00000350: 2134 0234 e27d 8634 f48f be33 9d0d 3d34
00000360: 0a86 af34 27e1 cb34 2280 be33 5906 3f34
00000370: cb18 da30 e29c 1331 ef50 a230 bdd9 e730
00000380: 2b67 b133 7952 1534 388f 1033 7423 ac33
00000390: 36a6 3434 9c9c 1334 8d57 a532 c2af e532
000003a0: 5eca 3f34 a809 2734 8bbc bc32 1f33 1e33
000003b0: fe7d ab34 4caf c734 d5dc e733 2593 4a34
000003c0: 1a9e 2a30 1a58 8e30 f6bd 0c30 1d5b 5f30
000003d0: cb67 a530 73f4 4831 21e1 7830 24b1 1d31
000003e0: b082 8c30 2773 1d31 11a6 c92f 1920 9a30
000003f0: 9559 0d31 5625 2d31 9478 0730 cf97 9430
5.043666e-10 8.36808e-10 3.5759595e-10 6.25247e-10 9.20682e-10 2.1692093e-09 5.34038e-10 1.5772897e-09
1.1796792e-09 2.3060591e-09 2.3979047e-10 8.65677e-10 2.212508e-09 2.0445918e-09 3.273423e-10 5.6060556e-10
1.7464158e-09 2.1046793e-09 8.016622e-10 1.3634309e-09 1.6131414e-09 2.419768e-09 1.3686448e-10 7.1231687e-10
2.0937008e-09 3.4526675e-09 8.3943824e-10 2.152692e-09 2.1196978e-09 2.0119046e-09 3.6793552e-10 6.8467476e-10
2.380174e-11 3.6953426e-11 1.8866799e-11 2.713896e-11 3.5693444e-09 2.6840523e-09 4.4206852e-10 4.4065032e-10
2.098277e-09 1.836078e-09 4.3934756e-10 6.063658e-10 2.676776e-09 4.450384e-09 1.2246054e-09 2.5180404e-09
2.3625923e-10 4.2352244e-10 1.6936741e-10 2.981247e-10 5.2270427e-10 9.366056e-10 4.1116913e-10 6.874305e-10
3.0342429e-10 4.697319e-10 2.5795302e-10 3.8560136e-10 9.093206e-12 1.5532216e-11 7.866766e-12 1.2439576e-11
2.328669e-10 4.2309412e-10 1.5341078e-10 2.965316e-10 2.8976934e-09 2.0376474e-09 3.6652603e-10 3.1266958e-10
1.6341116e-09 1.5341834e-09 2.8282532e-10 4.6804194e-10 8.623342e-10 9.675581e-10 4.3444975e-10 5.8046795e-10
6.593734e-11 1.3390472e-10 6.1177105e-11 1.08941973e-10 2.545043e-10 5.804292e-10 2.1339447e-10 4.6006549e-10
1.2271405e-10 3.6806996e-10 1.06581494e-10 2.740126e-10 1.8851117e-10 5.2045146e-10 1.9868657e-10 4.4391604e-10
2.0017711e-10 5.812413e-10 2.1184765e-10 5.053398e-10 1.1951357e-10 3.6128753e-10 1.043302e-10 2.751863e-10
2.2687215e-10 6.676553e-10 1.978094e-10 5.4769334e-10 1.0780299e-10 3.702807e-10 1.11854845e-10 3.2353611e-10
2.078538e-12 3.6474842e-12 2.2168547e-12 3.0955165e-12 1.6876087e-10 4.908998e-10 1.6158441e-10 4.0019763e-10
1.10874164e-10 2.7666136e-10 1.2148976e-10 2.410163e-10 2.4081237e-10 6.944632e-10 2.1533092e-10 5.353033e-10
2.8147894e-11 5.7548227e-11 2.8143965e-11 4.9877602e-11 4.283366e-10 9.567882e-10 3.7560205e-10 7.3714534e-10
6.590602e-11 1.266334e-10 7.152476e-11 1.10887285e-10 9.571223e-13 1.6438244e-12 1.1139875e-12 1.5187632e-12
8.431443e-11 1.7246492e-10 6.265667e-11 1.2244371e-10 9.385775e-11 2.8103375e-10 8.959928e-11 2.3073896e-10
6.314822e-11 1.6062165e-10 6.012885e-11 1.2838869e-10 1.00014504e-10 2.0993486e-10 9.006232e-11 1.7137217e-10
1.1158853e-06 1.1520242e-06 1.7304762e-07 3.8766163e-07 5.35895e-06 4.9272458e-06 7.896287e-07 1.4886837e-06
3.426417e-06 2.81387e-06 5.134427e-07 7.774857e-07 1.287649e-06 1.1925861e-06 2.0626146e-07 3.8809574e-07
7.796685e-06 7.132542e-06 9.970037e-07 1.940329e-06 2.6435061e-06 2.0850734e-06 3.3063938e-07 4.3591248e-07
1.7292943e-05 1.4944135e-05 1.98074e-06 3.3945087e-06 4.1136313e-06 3.378814e-06 4.949259e-07 7.0875484e-07
1.1483726e-08 1.4105622e-08 4.3843666e-09 7.783134e-09 6.8227615e-07 5.7440906e-07 7.9715775e-08 1.258262e-07
1.2154668e-07 1.1695956e-07 2.1324622e-08 3.842514e-08 1.7617354e-05 1.562096e-05 1.979045e-06 3.5866944e-06
2.8419424e-07 2.7316582e-07 5.343432e-08 9.553501e-08 1.2126158e-07 2.5051037e-07 8.8737494e-08 1.7606949e-07
3.2693816e-07 3.7975516e-07 8.870872e-08 1.779057e-07 1.5868634e-09 2.1480493e-09 1.1810054e-09 1.6869347e-09
8.260971e-08 1.390671e-07 3.365787e-08 8.015823e-08 1.6824274e-07 1.3747416e-07 1.9248342e-08 2.6739034e-08
1.7861882e-07 1.55566e-07 2.197182e-08 3.6833736e-08 3.1942903e-07 3.7194184e-07 1.0796945e-07 1.8866247e-07
6.2070316e-10 1.03569e-09 5.1201654e-10 8.1256407e-10 1.203483e-09 2.9242784e-09 9.05418e-10 2.29472e-09
1.0223484e-09 2.2911963e-09 3.6679684e-10 1.1214097e-09 2.0569122e-09 2.5196036e-09 4.9284066e-10 1.0811564e-09
