exp/output/tanh/state.pt (torch_old, 340506 bytes, 12 tensors)

conv1.weight f4 [128, 4, 1, 3]
0.45536077 0.9876183 0.2821457 -0.07558225 0.19920577 0.21510383 0.5496187 0.21765883
0.8872542 0.1191986 -0.013745086 0.08609575 -0.30909973 0.2848126 -0.12962763 -0.20292239
-0.5621036 0.117312886 -0.103422455 0.34797263 0.14654244 -1.7162664 -0.8563341 -0.22219533
0.052562986 0.8880733 0.0140077025 0.27629554 0.30249035 0.15350991 0.027756358 0.14573346
0.5180685 -0.30581117 -0.18502371 -0.3268088 -0.3699812 0.68763006 0.13978697 -0.44981545
-0.5015612 0.10669041 -0.6326697 0.033890493 0.47803754 -0.7258911 -0.76469815 -0.19630663
-0.18133561 0.12312591 -0.014911329 -0.22010149 0.47605357 0.31645942 -0.55778867 -0.13678917
0.5034516 -0.3936288 -0.29703084 0.71956104 -0.071913384 -0.81336755 0.38155895 -0.03994617
-0.19562383 0.6067848 0.09944711 -0.2769658 0.13294412 -0.8375053 0.315215 -0.7910168
-0.41120616 0.8049996 0.23628846 0.4192878 0.09980898 0.013056616 -0.6500924 -0.046422597
0.7880957 0.31214967 0.030234788 0.46766075 -0.5663202 0.41056034 -0.09145244 -0.35498822
0.45479953 0.4098871 -0.672384 -0.05560905 0.08226667 -1.1107064 -0.22533055 0.7883064
0.027150562 0.4103411 0.26200807 -0.4153231 -0.6811652 0.024494588 -0.19984928 0.1837728
0.17710079 -0.5961174 -0.4636091 -0.40229246 -0.31439087 0.51895535 0.34743863 -0.37334666
-0.3471563 0.19520824 -0.38957652 -0.10603428 0.42127505 -1.2586977 -0.87878275 -0.5590265
-0.23713632 0.76354754 0.30823824 0.25644588 0.5822961 -0.07723685 -0.44060963 0.23067214
0.6903194 -0.10459214 -0.0184613 0.24407516 -0.32595783 -0.588755 -1.06954 0.20622176
-0.15726718 -0.4394052 -0.23490106 -0.04493547 -0.53422517 -0.517419 -0.5658051 0.41937515
-0.42324382 -0.04137102 0.1395367 -0.08502661 -0.23809507 -0.57676464 -0.0024261351 -0.053277574
-0.7414037 0.26383552 -0.5737301 -0.1773025 -0.049222164 -0.64497036 -0.023509985 0.08698039
0.056619216 0.5088772 0.6093802 -0.2620747 0.42086816 -0.06328386 -0.5065393 -0.8238839
0.47517616 0.5735201 0.33174172 -0.061232075 0.12571123 0.29922074 0.7162945 0.44823864
1.0492303 0.2487405 0.11508878 0.51235163 0.075045235 -0.18257327 -0.851684 0.46008003
-0.12302808 -0.17205095 -0.0664896 0.27923703 0.027738957 -0.8379718 -0.6051656 0.2202082
0.32458672 0.67793185 0.01039777 -0.05296389 0.18538108 0.18198743 0.51264673 0.54921657
1.0649433 0.0123057095 0.12064594 0.6186214 0.30539852 1.0148505 -0.09996206 0.12766857
0.27863136 0.29983565 0.29834986 0.10386032 0.4070332 -0.47383362 -0.23920168 -0.39893672
-0.08130363 -0.31247836 0.12515423 -0.13568754 -0.1986261 -0.060891453 1.023261 0.21028133
0.13994838 0.37368956 -0.7893251 -0.511567 0.250276 0.87678164 0.5851646 -0.14720835
0.1560743 0.40101245 0.66793215 0.23873661 0.88488007 0.13931748 0.03268674 0.18953462
0.5217061 0.6229062 0.46720922 0.093205445 -0.048855815 0.23319668 0.49226442 0.57127655
0.7306632 0.24669892 0.35314077 0.7373761 -0.10827029 1.1154941 0.39571396 0.04671029
00000000: 0c25 e93e 8ed4 7c3f 6775 903e deca 9abd
00000010: 99fc 4b3e 2e44 5c3e d0b3 0c3f f5e1 5e3e
00000020: 1723 633f 651e f43d 1233 61bc f852 b03d
00000030: 5242 9ebe f5d2 913e 1bbd 04be e3ca 4fbe
00000040: 06e6 0fbf bd41 f03d 27cf d3bd 7829 b23e
00000050: 390f 163e 9eae dbbf b638 5bbf 2c87 63be
00000060: 494c 573d c658 633f 9080 653c 9c76 8d3e
00000070: 04e0 9a3e b431 1d3e 4d61 e33c 273b 153e
00000080: 23a0 043f 4893 9cbe db76 3dbe 7c53 a7be
00000090: 2d6e bdbe 8608 303f 5124 0f3e 364e e6be
000000a0: 5166 00bf 8080 da3d a4f6 21bf c2d0 0a3d
000000b0: 56c1 f43e 00d4 39bf 42c3 43bf 9b04 49be
000000c0: 0bb0 39be 7029 fc3d a64e 74bc 4962 61be
000000d0: 4bbd f33e f806 a23e 3dcb 0ebf 7612 0cbe
000000e0: 34e2 003f b789 c9be 6d14 98be 2735 383f
000000f0: 5347 93bd db38 50bf b25b c33e 989e 23bd
00000100: 9d51 48be 4056 1b3f edaa cb3d 76ce 8dbe
00000110: 8122 083e bf66 56bf dc63 a13e 1480 4abf
00000120: 9d89 d2be 7414 4e3f 9af5 713e e4ac d63e
00000130: a768 cc3d 6beb 553c 756c 26bf 9f25 3ebd
00000140: a4c0 493f 15d2 9f3e f2ae f73c 3b71 ef3e
00000150: 5cfa 10bf f734 d23e 6b4b bbbd 04c1 b5be
00000160: 7cdb e83e b9dc d13e 5c21 2cbf 51c6 63bd
00000170: 6e7b a83d a12b 8ebf 0dbd 66be 73ce 493f
00000180: db6a de3c 3b18 d23e ec25 863e 3ba5 d4be
00000190: d860 2ebf e0a8 c83c 4aa5 4cbe f02e 3c3e
000001a0: e959 353e 269b 18bf 2c5e edbe 47f9 cdbe
000001b0: d7f7 a0be 42da 043f 7ae3 b13e 4b27 bfbe
000001c0: 78be b1be abe4 473e 9376 c7be 8028 d9bd
000001d0: 5db1 d73e 021d a1bf e8f7 60bf 5c1c 0fbf
000001e0: ddd3 72be da77 433f 67d1 9d3e e04c 833e
000001f0: 5b11 153f 5b2e 9ebd 9697 e1be 5135 6c3e
00000200: c6b8 303f 6734 d6bd 273c 97bc d7ee 793e
00000210: f2e3 a6be a6b8 16bf b0e6 88bf cc2b 533e
00000220: a60a 21be b8f9 e0be e789 70be 410e 38bd
00000230: fbc2 08bf 9275 04bf 9ad8 10bf 57b8 d63e
00000240: 6ab3 d8be a974 29bd b5e2 0e3e 6e22 aebd
00000250: 32cf 73be d9a6 13bf cbff 1ebb 9639 5abd
00000260: a2cc 3dbf 7315 873e fadf 12bf c98e 35be
00000270: 2e9d 49bd c71c 25bf 0398 c0bc c622 b23d
00000280: 8de9 673d c745 023f 5700 1c3f a82e 86be
00000290: 087c d73e f89a 81bd 8fac 01bf 0eea 52bf
000002a0: 4a4a f33e 37d2 123f 0dda a93e 7cce 7abd
000002b0: 72ba 003e 7633 993e 145f 373f 897f e53e
000002c0: 2e4d 863f d4b5 7e3e abb3 eb3d 7a29 033f
000002d0: 51b1 993d 7df4 3abe f607 5abf 9c8f eb3e
000002e0: 25f6 fbbd 202e 30be b32b 88bd 28f8 8e3e
000002f0: cf3c e33c 5285 56bf 22ec 1abf 427e 613e
00000300: 3b30 a63e f18c 2d3f 695b 2a3c aaf0 58bd
00000310: 8ad4 3d3e ea5a 3a3e d13c 033f 7599 0c3f
00000320: 1050 883f e39d 493c 3815 f73d f95d 1e3f
00000330: 325d 9c3e 9fe6 813f e9b8 ccbd 8dbb 023e
00000340: c5a8 8e3e 0f84 993e 50c1 983e b8b4 d43d
00000350: a866 d03e 529a f2be 49f1 74be 6f41 ccbe
00000360: 8482 a6bd 2afd 9fbe 6e28 003e adf1 0abe
00000370: a464 4bbe 5169 79bd 37fa 823f fd53 573e
00000380: a14e 0f3e 3d54 bf3e 3611 4abf 0ef6 02bf
00000390: 2d24 803e c374 603f 59cd 153f c9bd 16be
000003a0: f1d1 1f3e 8151 cd3e 9afd 2a3f 5f77 743e
000003b0: 8087 623f 3ea9 0e3e 88e2 053d 5d15 423e
000003c0: 888e 053f c876 1f3f 0c36 ef3e 7fe2 be3d
000003d0: 091d 48bd 1ccb 6e3e 150a fc3e 2e3f 123f
000003e0: be0c 3b3f a49e 7c3e dece b43e aec4 3c3f
000003f0: d0bc ddbd 83c8 8e3f 059b ca3e 4a53 3f3d

conv2.weight f4 [64, 128, 1, 3]
-0.005159694 0.033997018 0.030148476 -0.032321956 -0.0018179138 -0.020264877 -0.04104339 0.029751575
0.012139231 0.042767562 0.036661256 -0.029119754 0.006089148 -0.019038491 0.0012713377 0.008156244
0.037406094 -0.009966031 -0.009819832 -0.021780597 0.03614434 -0.04262168 -0.040437877 -0.037087195
-0.03388623 0.034369573 -0.025177144 0.03333714 -0.010216843 -0.019499324 -0.018475449 -0.046756994
-0.0489657 -0.0552597 0.0056390236 0.014422268 0.04342202 -0.05333511 -0.04445492 0.036336992
-0.016582085 0.013848803 -0.046886634 -0.027541665 0.03051916 -0.0059502227 -0.02473866 -0.030617934
0.053380355 0.018586533 0.03757643 -0.017013319 0.017282236 -0.062829256 -0.012833488 -0.014954107
-0.03877547 0.025064647 0.008269818 0.016871415 -0.02660966 -0.022010317 0.012890492 -0.0045226896
-0.001971985 0.008984826 -0.0145702 0.04455533 0.025006784 -0.027147785 -0.051149894 -0.036947243
0.0460658 -0.010011782 0.013783354 -0.04582896 0.03930083 0.023300568 -0.0004721834 -0.049366508
0.017835207 -0.05167735 -0.037126295 -0.027993869 0.009364887 0.04140052 -0.016214564 0.017526675
-0.016032562 0.022119924 -0.029733941 0.05328411 -0.011734191 0.0053328453 0.005834132 0.025394106
-0.022948695 -0.029019076 0.009142216 -0.03352376 -0.053812757 -0.03580681 0.004396822 0.025627648
-0.044871252 -0.019722108 0.007494657 0.046888385 -0.00096901983 0.01957823 0.008893263 0.022490535
0.011069021 -0.032787677 0.015117744 -0.013659115 -0.016512625 0.002055868 -0.004023957 0.0015663385
0.025704205 0.046693444 0.043546967 -0.051561236 -0.042188905 0.010456612 -0.014077253 0.031674534
0.042665813 -0.0026926165 -0.050916795 0.014113094 0.02233627 -0.0033625872 -0.011573795 0.017330157
0.013180785 -0.0029833384 0.016700305 0.019826945 0.022040235 -0.033155367 -0.0004638387 -0.004972884
0.045460805 -0.013052972 0.013150119 -0.04450083 0.045618866 -0.040925924 -0.0006886392 0.031022537
-0.0020117164 -0.03620698 -0.036022577 -0.015644105 -0.0451972 -0.03293041 0.015226856 -0.03951542
0.00061171874 -0.024082543 -0.046140637 -0.009578897 0.012752731 0.03261781 0.03559219 0.018416988
-0.058461215 -0.021820156 -0.019750733 -0.01834743 0.04148903 -0.025316104 0.0031560843 0.025335189
0.017746022 0.02195712 0.017381255 -0.011663459 0.041938912 0.048261546 0.04602524 -0.026713384
0.017883914 0.04051328 0.03969446 -0.059203092 -0.0043816455 0.04131654 0.011310059 -0.0061726533
-0.039989386 0.012654655 -0.018190894 0.039885327 -0.0055818004 0.02051032 -0.025766488 -0.044909816
0.012989045 -0.0438256 0.0036735039 -0.028770685 0.025845772 -0.030087372 -0.05988496 0.024375403
-0.038638778 0.017371166 -0.04575996 0.039178442 0.024680177 0.032697015 -0.024996439 -0.03329778
0.037575092 -0.03543247 -0.00065039983 0.004402249 -0.027287839 0.02854224 -0.019480975 0.03276109
-0.012219963 0.029694771 -0.014309998 0.033515543 0.018831994 -0.042699497 -0.046927758 0.02262478
-0.06058113 -0.008682167 -0.010267423 0.009637618 0.032034744 0.03332961 -0.040098574 -0.04161471
-0.043875907 -0.0001672459 -0.0213139 -0.022107873 -0.047803868 0.027410619 0.037601534 0.0427888
0.0426331 0.02577347 -0.043206096 -0.029589657 -0.0070334813 -0.02572668 -0.04377858 -0.014063486
00000000: a612 a9bb 7540 0b3d f0f9 f63c 0764 04bd
00000010: 1147 eeba 8702 a6bc 1d1d 28bd 93b9 f33c
00000020: a0e3 463c 0a2d 2f3d 1d2a 163d 8d8c eebc
00000030: 7a87 c73b 9cf6 9bbc 04a3 a63a c4a1 053c
00000040: 2237 193d 9048 23bc 5ce3 20bc 396d b2bc
00000050: 160c 143d 1294 2ebd 30a2 25bd bee8 17bd
00000060: 4acc 0abd 1cc7 0c3d 4c40 cebc 868c 083d
00000070: 8c64 27bc 0cbd 9fbc d359 97bc 4384 3fbd
00000080: 4290 48bd ff57 62bd 8fc7 b83b 604b 6c3c
00000090: 4adb 313d eb75 5abd 5d16 36bd 19d6 143d
000000a0: 27d7 87bc 17e6 623c 330c 40bd 0f9f e1bc
000000b0: 5103 fa3c 16fa c2bb bba8 cabc 76d2 fabc
000000c0: 5ca5 5a3d c942 983c bee9 193d 845f 8bbc
000000d0: 7a93 8d3c a0ac 80bd 8d43 52bc 1202 75bc
000000e0: 07d3 1ebd 6054 cd3c 217e 073c ec35 8a3c
000000f0: 80fc d9bc fb4e b4bc a432 533c 1233 94bb
00000100: 6b3c 01bb 1735 133c d9b7 6ebc a67f 363d
00000110: 07db cc3c 0865 debc 8d82 51bd fe55 17bd
00000120: 7eaf 3c3d 7508 24bc 94d3 613c 26b7 3bbd
00000130: e8f9 203d d5e0 be3c 628f f7b9 8934 4abd
00000140: 241b 923c a1ab 53bd be11 18bd 6653 e5bc
00000150: 2f6f 193c 9793 293d 68d4 84bc 1a94 8f3c
00000160: b856 83bc d834 b53c 9894 f3bc 7040 5a3d
00000170: c440 40bc 26bf ae3b 3f2c bf3b 4d07 d03c
00000180: e7fe bbbc 6ab9 edbc 3cc9 153c 3650 09bd
00000190: c46a 5cbd 29aa 12bd 3713 903b 13f1 d13c
000001a0: ebca 37bd 4290 a1bc bd95 f53b 090e 403d
000001b0: d205 7eba 8662 a03c 0cb5 113c 123e b83c
000001c0: d75a 353c 5f4c 06bd 6ab0 773c 7bca 5fbc
000001d0: 7c45 87bc bebb 063b 66db 83bb 994d cd3a
000001e0: a091 d23c a041 3f3d 4e5e 323d e031 53bd
000001f0: 46ce 2cbd 3652 2b3c 47a4 66bc 28bd 013d
00000200: 59c2 2e3d 9c76 30bb 218e 50bd 9b3a 673c
00000210: 8efa b63c da5e 5cbb 04a0 3dbc f9f7 8d3c
00000220: 38f4 573c 1d84 43bb 14cf 883c 1e6c a23c
00000230: b98d b43c eccd 07bd 602f f3b9 93f3 a2bb
00000240: 1c35 3a3d 22dc 55bc 9973 573c 8146 36bd
00000250: d9da 3a3d f1a1 27bd cb85 34ba fa22 fe3c
00000260: 00d7 03bb c54d 14bd 698c 13bd 1128 80bc
00000270: b320 39bd 0ae2 06bd 107a 793c ecda 21bd
00000280: c05b 203a c148 c5bc f7fd 3cbd cef0 1cbc
00000290: d5f0 503c 419a 053d 1ec9 113d 39df 963c
000002a0: 0775 6fbd 2fc0 b2bc 4acc a1bc 594d 96bc
000002b0: 67f0 293d b863 cfbc 4fd6 4e3b be8b cf3c
000002c0: 1b60 913c 6bdf b33c 2263 8e3c 1818 3fbc
000002d0: 23c8 2b3d e6ad 453d f684 3c3d 07d6 dabc
000002e0: 4981 923c 41f1 253d a896 223d f17e 72bd
000002f0: e893 8fbb 883b 293d d34d 393c f843 cabb
00000300: e9cb 23bd 7855 4f3c 1205 95bc cc5e 233d
00000310: 89e7 b6bb 4205 a83c 3e14 d3bc 5bf3 37bd
00000320: 01d0 543c 7982 33bd 2bbf 703b 80b0 ebbc
00000330: 83ba d33c cb79 f6bc ef49 75bd edae c73c
00000340: b243 1ebd fa4d 8e3c cc6e 3bbd 9379 203d
00000350: 152e ca3c 4eed 053d 55c5 ccbc 4163 08bd
00000360: 57e8 193d a321 11bd 987f 2aba be40 903b
00000370: bf8a dfbc 6ad1 e93c 9196 9fbc 7e30 063d
00000380: 3d36 48bc 7342 f33c 7b74 6abc 9847 093d
00000390: 8e45 9a3c abe5 2ebd 5237 40bd 9a57 b93c
000003a0: eb23 78bd a63f 0ebc b138 28bc 1ae7 1d3c
000003b0: dd36 033d a184 083d 673e 24bd 3074 2abd
000003c0: 39b7 33bd bb5e 2fb9 7d9a aebc 921b b5bc
000003d0: fdcd 43bd 3c8c e03c 1104 1a3d 4f43 2f3d
000003e0: 0ca0 2e3d e222 d33c e0f8 30bd 0266 f2bc
000003f0: 1e79 e6bb c2c0 d2bc 2b51 33bd 896a 66bc

conv3.weight f4 [32, 64, 1, 1]
0.09371472 0.054064173 -0.015079101 0.13152516 -0.07907834 -0.023614578 0.06174325 1.0189245
0.03710295 0.85397166 0.08681496 -0.07068148 -0.13883497 -0.07315297 0.06446577 -0.13251495
0.963859 -0.09471541 0.04608175 -0.048362244 0.90266603 0.01598597 -0.0008863178 -0.017898459
-0.022900762 1.2746382 -0.077786095 -0.20529081 -0.13928469 0.8139249 -0.09425343 -0.06958221
0.04815104 1.0817235 0.021265663 0.0789702 0.10068192 0.08389424 -0.034838993 0.04062127
0.06238399 -0.075918935 -0.08244518 0.060317773 -0.12075101 -0.061558582 -0.080896474 -0.056696083
0.037129592 -0.039346673 0.008522593 0.93385243 -0.07037372 -0.085644774 0.06250081 -0.042264745
0.07942345 0.03168605 1.0691406 -0.031894077 0.018981854 0.071044676 -0.14101897 -0.07268231
0.08976023 -0.031487137 0.03881533 0.1243033 -0.059313588 0.0999979 0.0013293732 1.0512016
0.029924255 0.7348225 -0.025667597 0.094939485 -0.1103521 -0.08504014 -0.017328665 -0.05897269
0.9758743 -0.033967055 -0.053361814 0.11804828 1.1088899 0.042927135 0.040738124 0.052317627
-0.052079197 1.2057669 0.09075901 -0.12388354 -0.09836837 0.91238713 -0.079715446 -0.09931908
0.0011135865 1.1084232 -0.018888935 -0.079836965 -0.02465934 0.11001402 -0.047530007 -0.12262365
0.037682377 0.07419809 0.053734224 0.10266539 -0.0071484726 0.042442944 0.053194303 0.026772896
-0.045152936 0.026623845 0.08238344 0.9005549 0.06547584 0.0816959 -0.024743602 0.046300452
0.10218962 0.079864815 0.97121227 0.009152075 0.10146572 -0.001153132 0.10371394 -0.014518667
-0.09502107 0.026748486 -0.06432493 -0.06604076 -0.03246636 0.06391738 0.1048258 0.946435
0.0954536 0.7153039 0.103236146 0.004351564 -0.11422379 -0.046874847 0.10711968 0.054761246
0.8569969 0.07306278 0.06444485 0.073647715 1.0332928 0.038289413 0.025107631 0.03321375
-0.11413875 1.3047683 0.026868956 -0.04740227 0.048781414 0.68727607 -0.12833297 -0.027034663
0.09215017 1.1699829 -0.076397754 -0.03963879 -0.036327172 -0.09356091 -0.0705601 -0.08047572
-0.09846329 0.013736665 0.043280598 -0.06612925 -0.039446898 0.0012514584 -0.025682328 -0.025508372
-0.0929144 0.094289444 -0.089802735 0.82300484 -0.0689807 -0.072644204 0.06914381 0.0988805
0.115567245 0.090252146 0.96125853 0.09220238 -0.07632275 0.03015626 -0.080835156 0.0029802718
-0.06755451 -0.015398479 0.09412071 0.11618397 0.0097327335 -0.09931178 0.12190087 -0.48341292
-0.05534982 -0.40296945 0.10400572 -0.049004953 0.5353566 -0.07715871 -0.041654132 0.10015263
-0.5693356 -0.0888526 -0.084462136 0.0941907 -0.46253523 -0.044250984 0.046750363 -0.07705916
-0.0064625265 -0.5670453 -0.030802552 0.1568468 -0.013240268 -0.45872313 0.22610936 -0.07596375
0.109497376 -0.18745291 0.0221291 0.026052669 -0.1085001 0.07037377 0.042108454 -0.036759537
0.115820095 -0.069211304 0.06663588 -0.07419464 -0.06602995 -0.048078638 -0.037227336 0.06447276
0.11258351 0.001766151 0.10976668 -0.46917078 -0.10828763 -0.06587688 -0.062340964 -0.11727041
-0.03494609 0.07976303 -0.4096335 0.04280295 0.058673095 -0.06029062 -0.06634477 -0.06110072
00000000: 81ed bf3d 6572 5d3d 550e 77bc 88ae 063e
00000010: d3f3 a1bd 5c73 c1bc 7de6 7c3d 1e6c 823f
00000020: 43f9 173d e39d 5a3f 0bcc b13d 74c1 90bd
00000030: c12a 0ebe 39d1 95bd a106 843d 00b2 07be
00000040: 77bf 763f 27fa c1bd 38c0 3c3d 7d17 46bd
00000050: 1f15 673f 02f5 823c c857 68ba ca9f 92bc
00000060: 619a bbbc 5827 a33f 514e 9fbd c137 52be
00000070: a5a0 0ebe 625d 503f f107 c1bd 1e81 8ebd
00000080: 063a 453d ea75 8a3f 5435 ae3c 21bb a13d
00000090: 5332 ce3d bed0 ab3d 55b3 0ebd 7d62 263d
000000a0: 5b86 7f3d 637b 9bbd 05d9 a8bd c50f 773d
000000b0: 4e4c f7bd da24 7cbd 0dad a5bd 273a 68bd
000000c0: 3315 183d fa29 21bd 59a2 0b3c f410 6f3f
000000d0: 1920 90bd 8766 afbd 6d00 803d cc1d 2dbd
000000e0: c3a8 a23d 3bc9 013d 99d9 883f 5da3 02bd
000000f0: d57f 9b3c df7f 913d 4767 10be 77da 94bd
00000100: 36d4 b73d a8f8 00bd d3fc 1e3d bb92 fe3d
00000110: cef2 72bd b3cb cc3d 5d3e ae3a c68d 863f
00000120: b623 f53c 541d 3c3f da44 d2bc a26f c23d
00000130: 4800 e2bd 8629 aebd d8f4 8dbc 598d 71bd
00000140: e6d2 793f 0a21 0bbd eb91 5abd 4cc3 f13d
00000150: 1bf0 8d3f 5dd4 2f3d 05dd 263d 024b 563d
00000160: ff50 55bd 9256 9a3f dcdf b93d a7b6 fdbd
00000170: 5b75 c9bd 3492 693f da41 a3bd cd67 cbbd
00000180: c3f5 913a d0e0 8d3f f8bc 9abc 9081 a3bd
00000190: 6202 cabc 084f e13d d3ae 42bd 1c22 fbbd
000001a0: d658 1a3d 2bf5 973d 6b18 5c3d 3b42 d23d
000001b0: bc3d eabb a7d8 2d3d 45e2 593d d552 db3c
000001c0: 49f2 38bd 401a da3c a6b8 a83d c48a 663f
000001d0: 3218 863d 2e50 a73d 18b3 cabc 8ba5 3d3d
000001e0: cb48 d13d 2a90 a33d 5ea1 783f 96f2 153c
000001f0: 42cd cf3d b024 97ba f967 d43d b4df 6dbc
00000200: 689a c2bd a41f db3c cabc 83bd 6140 87bd
00000210: 72fb 04bd 1ee7 823d e9ae d63d 9049 723f
00000220: 2d7d c33d 281e 373f 796d d33d 9197 8e3b
00000230: 2aee e9bd d7ff 3fbd 9061 db3d 544d 603d
00000240: 2664 5b3f f0a1 953d a9fb 833d 9dd4 963d
00000250: f042 843f 5cd5 1c3d 85ae cd3c 240b 083d
00000260: 94c1 e9bd a602 a73f 491c dc3c e228 42bd
00000270: 05cf 473d 53f1 2f3f b869 03be cc77 ddbc
00000280: 3ab9 bc3d 00c2 953f 6d76 9cbd 495c 22bd
00000290: cdcb 14bd dd9c bfbd d081 90bd 74d0 a4bd
000002a0: 1fa7 c9bd c00f 613c ff46 313d c66e 87bd
000002b0: 1293 21bd fa07 a43a bf63 d2bc eff6 d0bc
000002c0: e849 bebd d31a c13d 7fea b7bd 72b0 523f
000002d0: c145 8dbd 7cc6 94bd 459b 8d3d dc81 ca3d
000002e0: 85ae ec3d 1ed6 b83d 0a15 763f 9ad4 bc3d
000002f0: 1a4f 9cbd 430a f73c e78c a5bd aa50 433b
00000300: 055a 8abd e749 7cbc 5cc2 c03d dcf1 ed3d
00000310: 0b76 1f3c f963 cbbd 2aa7 f93d e681 f7be
00000320: 7eb6 62bd 0352 cebe f300 d53d 6bb9 48bd
00000330: 210d 093f 6305 9ebd 869d 2abd d21c cd3d
00000340: fabf 11bf 5af8 b5bd 7cfa acbd 0ee7 c03d
00000350: 6bd1 ecbe 8540 35bd 4f7d 3f3d 31d1 9dbd
00000360: 9ac3 d3bb e129 11bf a255 fcbc 739c 203e
00000370: b6ed 58bc c2dd eabe 3689 673e e292 9bbd
00000380: 2940 e03d a8f3 3fbe 1648 b53c 686c d53c
00000390: 4d35 debd 2020 903d ea79 2c3d 2b91 16bd
000003a0: 1633 ed3d a8be 8dbd 6478 883d 5cf3 97bd
000003b0: b63a 87bd 1bee 44bd b17b 18bd 4b0a 843d
000003c0: 2f92 e63d 327e e73a 5acd e03d 2737 f0be
000003d0: e8c5 ddbd 75ea 86bd 3d59 7fbd 782b f0bd
000003e0: a223 0fbd cd5a a33d 7bbb d1be 2552 2f3d
000003f0: 3353 703d 4cf3 76bd c4df 87bd c044 7abd

conv4.weight f4 [1, 32, 1, 1]
1.0076684 0.9098731 1.0740967 -0.9662967 -0.050702285 1.1488961 -0.8925909 -0.16614935
-0.9332981 -0.7504872 1.048139 -0.80534863 -0.9172675 -0.98345774 -0.10824844 -0.75718427
-0.93841976 -0.8749557 -0.5019506 1.0060474 -0.1829704 -0.89358586 -0.16874526 1.1667948
-1.0686644 -0.73676175 -0.30555293 1.0324357 -0.83219564 -1.0396795 -0.06422989 0.9798407
00000000: 47fb 803f 72ed 683f 007c 893f 385f 77bf
00000010: 33ad 4fbd 070f 933f d680 64bf 0e23 2abe
00000020: a0ec 6ebf ee1f 40bf 6b29 863f 542b 4ebf
00000030: 0bd2 6abf e3c3 7bbf 5cb1 ddbd d4d6 41bf
00000040: 473c 70bf 19fd 5fbf d67f 00bf 29c6 803f
00000050: 985c 3bbe 0bc2 64bf 8fcb 2cbe 8859 953f
00000060: ffc9 88bf 6b9c 3cbf 6f71 9cbe da26 843f
00000070: c60a 55bf 3814 85bf f68a 83bd d7d6 7a3f

exp_avg f4 [128, 4, 1, 3]
9.5050956e-07 4.3267926e-07 1.4690413e-06 1.2881599e-06 1.2230837e-06 2.52647e-06 -1.640869e-06 -1.0514278e-06
-7.302653e-08 -7.078003e-07 1.4457216e-06 1.3742208e-06 0.00026691525 -0.0022223124 -0.0032945941 0.00043220932
-0.0012667374 -0.0021479172 -0.0023465701 -0.0031986837 -0.0059686885 -0.0012230752 -0.003026928 -0.003733072
0.00063911185 0.0001700654 3.7097725e-05 0.00069936865 0.0006518876 0.00018611121 -0.00022815097 1.7463199e-05
-0.0013664981 1.1647741e-05 2.9185894e-05 -0.000474342 0.0003859248 -0.0013518301 0.00024276429 -0.001159243
-0.0010352805 -0.0011746176 0.00042218273 0.0017003067 -0.00079328154 -0.0016314847 0.0011309424 -7.369024e-05
-1.6821898e-05 1.3407736e-05 -1.5766076e-05 1.50958695e-05 3.9224957e-05 -2.2682689e-06 -1.7012717e-05 -2.0607347e-05
-6.7763576e-05 1.02559125e-05 -4.610733e-06 -1.1338164e-05 0.0012013437 -0.0045157666 -0.001040777 -0.0015930601
-0.003068692 -0.001114248 -0.003066553 -0.000547221 -0.0035504568 -0.0039494666 -0.0025442531 -1.2864859e-05
1.6589935e-05 3.6113408e-05 -1.8275508e-05 4.5222394e-05 5.950419e-05 -7.877483e-06 1.5802463e-05 -4.672998e-06
-6.387761e-05 3.8100425e-05 9.210904e-06 -6.823152e-06 0.00075806264 -0.0026140225 -0.0026397905 0.00043922657
0.00060612644 -0.0020742554 -0.004368929 -0.001957171 -0.012211107 -0.0039683916 -0.0031240806 -0.005579194
5.890977e-05 -0.00075844873 -0.0009443893 7.57181e-05 -0.000408279 -0.00066528184 -0.0007640975 -0.00092991773
-0.0018514113 -0.00052978616 -0.0008403618 -0.0011787309 9.540363e-05 -0.0022966717 -0.003133298 0.0002437921
-0.001384363 -0.0021445837 -0.0021207673 -0.0028826878 -0.0057457765 -0.00118044 -0.0026999305 -0.0036206434
2.855133e-06 2.7978196e-05 -4.0215878e-06 3.611252e-05 5.8866433e-05 3.365634e-06 -4.6839014e-07 3.4734355e-06
-5.2247175e-05 3.2532138e-05 2.2813107e-05 -1.3457511e-06 -0.0007460928 0.0025194914 0.0012239991 0.00010234384
0.0011436745 0.0008736699 0.0027249928 0.001305117 0.003980786 0.0019309547 0.001560964 0.0015004094
-1.59536e-05 0.0024848774 0.0046666507 0.00014266848 0.0023525471 0.0031973617 0.0012825271 0.0038932129
0.006066766 0.0014627462 0.0046070437 0.0040594763 0.00079771836 -0.0038774738 -0.0047618197 0.00028913326
-0.0023250645 -0.0031132798 -0.0038857153 -0.0045744176 -0.008779139 -0.0025346344 -0.004874865 -0.004933143
7.744028e-07 9.009289e-07 8.571008e-07 8.287088e-07 3.0299788e-07 8.367189e-08 -3.4155203e-08 -3.5644086e-07
-8.7230836e-07 1.3990514e-07 4.8380053e-07 -8.271436e-07 -0.0005484678 0.0008578734 -0.0018012787 0.0009126612
0.0005045266 -0.000994298 6.9817426e-05 -0.0020260662 -0.0016696334 0.0012681289 -0.0008964615 -0.0023873213
-3.3959793e-07 2.465504e-07 -6.555437e-07 -6.9383026e-07 -1.3834504e-06 -2.3767784e-06 1.4125259e-06 6.997048e-07
-3.923137e-07 5.1481464e-07 -1.2409353e-06 -1.3806377e-06 0.0004172293 0.00011279 5.229133e-05 0.0004887676
0.00047055082 0.00016503794 -0.00020984237 1.6225657e-05 -0.00097406725 -2.4911926e-06 3.5200355e-05 -0.0003368142
-0.0002807016 -0.00053911156 -0.0050874404 0.002040264 -1.3864817e-06 -0.002973608 -0.0019237023 -0.0056262934
-0.007455609 0.00059001666 -0.0035328497 -0.0066789687 -3.763673e-06 1.6529217e-05 1.1582717e-05 2.153758e-05
4.7771726e-05 1.557145e-05 -1.324923e-05 1.0021907e-05 -3.3634755e-05 2.1788534e-05 3.6581612e-05 1.090657e-05
-3.3106627e-07 5.1111692e-06 4.1184926e-06 6.679815e-06 1.3435623e-05 5.1484644e-06 -4.103719e-06 2.1414394e-06
-9.57266e-06 5.7814195e-06 1.0599403e-05 2.8680374e-06 2.0072148e-05 1.610089e-05 -3.0640233e-06 1.6116306e-05
00000000: 8526 7f35 fc4a e834 e02b c535 d6e4 ac35
00000010: d628 a435 6d8c 2936 d43b dcb5 c91e 8db5
00000020: c2d2 9cb3 abff 3db5 9e0a c235 de71 b835
00000030: c2f0 8b39 37a4 11bb 1eea 57bb 279a e239
00000040: a708 a6ba 12c4 0cbb eac8 19bb 02a1 51bb
00000050: fd94 c3bb 984f a0ba 6d5f 46bb 8ea6 74bb
00000060: 128a 273a 9553 3239 6199 1b38 d655 373a
00000070: 70e3 2a3a d926 4339 cf3b 6fb9 ef7d 9237
00000080: 111c b3ba ab6a 4337 3bd4 f437 1bb1 f8b9
00000090: f355 ca39 e42f b1ba 8b8e 7e39 bef1 97ba
000000a0: 40b2 87ba a0f5 99ba 6858 dd39 d3dc de3a
000000b0: 39f4 4fba 8bd7 d5ba 213c 943a 258a 9ab8
000000c0: c01c 8db7 caf1 6037 6441 84b7 4444 7d37
000000d0: 7a85 2438 9038 18b6 88b6 8eb7 f1dd acb7
000000e0: 4b1c 8eb8 cf10 2c37 e5b5 9ab6 0b39 3eb7
000000f0: 6876 9d3a fff8 93bb ae6a 88ba 3ace d0ba
00000100: 1c1c 49bb f50b 92ba 39f8 48bb 6173 0fba
00000110: c8ae 68bb 876a 81bb 7cbd 26bb 26d6 57b7
00000120: 9d2a 8b37 7a78 1738 5b4e 99b7 2dad 3d38
00000130: 2394 7938 8829 04b7 888f 8437 bfcc 9cb6
00000140: 08f6 85b8 05ce 1f38 8888 1a37 6ef2 e4b6
00000150: b9b8 463a 0550 2bbb 5600 2dbb fe47 e639
00000160: 75e4 1e3a 3bf0 07bb 3c29 8fbb e143 00bb
00000170: 1811 48bc 4809 82bb 60bd 4cbb acd1 b6bb
00000180: e215 7738 a2d2 46ba e590 77ba d8ca 9e38
00000190: 480e d6b9 4f66 2eba b74d 48ba b9c5 73ba
000001a0: 0eab f2ba 59e1 0aba ba4b 5cba a57f 9aba
000001b0: 6f13 c838 c283 16bb 0458 4dbb 72a2 7f39
000001c0: 8473 b5ba 258c 0cbb 92fc 0abb 7aeb 3cbb
000001d0: 1147 bcbb feb8 9aba 51f1 30bb 5148 6dbb
000001e0: d09a 3f36 b8b2 ea37 2df1 86b6 8677 1738
000001f0: 5ae7 7638 27dd 6136 0d77 fbb4 2b19 6936
00000200: fa23 5bb8 1e73 0838 c65e bf37 a89f b4b5
00000210: 7195 43ba 0d1e 253b 986e a03a 6ea1 d638
00000220: 59e7 953a ff06 653a cb95 323b 7610 ab3a
00000230: 4171 823b 1718 fd3a 4399 cc3a 63a9 c43a
00000240: 18d4 85b7 53d9 223b b4ea 983b 4799 1539
00000250: 312d 1a3b d48a 513b 781a a83a 4625 7f3b
00000260: b9cb c63b 9eb9 bf3a aff6 963b 5b05 853b
00000270: f91d 513a 371d 7ebb 0a09 9cbb cf96 9739
00000280: 1c60 18bb 2b08 4cbb 7ca7 7ebb ffe4 95bb
00000290: 61d6 0fbc 1c1c 26bb 55bd 9fbb 34a6 a1bb
000002a0: 8ee0 4f35 5dd7 7135 8513 6635 6f74 5e35
000002b0: b6ab a234 1caf b333 0bb2 12b3 dc5c bfb4
000002c0: 9328 6ab5 d538 1634 85de 0135 e008 5eb5
000002d0: 0dc7 0fba e9e2 603a e218 ecba a83f 6f3a
000002e0: 3542 043a 1b53 82ba f26a 9238 c0c7 04bb
000002f0: 9ad7 daba 5837 a63a 8300 6bba 9b74 1cbb
00000300: fc51 b6b4 a15d 8434 9ff8 2fb5 a73f 3ab5
00000310: feae b9b5 be80 1fb6 0596 bd35 59d3 3b35
00000320: 2f9f d2b4 cb31 0a35 368e a6b5 5a4e b9b5
00000330: 92bf da39 ac89 ec38 6353 5b38 a320 003a
00000340: 43b4 f639 090e 2d39 2209 5cb9 551c 8837
00000350: 8c58 7fba 5d2e 27b6 18a4 1338 7096 b0b9
00000360: 222b 93b9 2a53 0dba 8bb4 a6bb f3b5 053b
00000370: 2617 bab5 dde0 42bb bd24 fcba c55c b8bb
00000380: 2e4e f4bb 59ab 1a3a 6287 67bb 40db dabb
00000390: 6993 7cb6 39a8 8a37 6453 4237 9aab b437
000003a0: 805e 4838 6f9f 8237 0249 5eb7 c323 2837
000003b0: 0b13 0db8 85c6 b637 356f 1938 5dfb 3637
000003c0: 67bd b1b4 9c80 ab36 9531 8a36 2d23 e036
000003d0: 9069 6137 f9c0 ac36 aeb2 89b6 a6b5 0f36
000003e0: 439a 20b7 04fe c136 17d4 3137 8278 4036
000003f0: 9c60 a837 6610 8737 859f 4db6 8131 8737

exp_avg_sq f4 [128, 4, 1, 3]
3.5970031e-06 2.0002628e-06 5.100964e-06 1.2037852e-05 1.6092034e-05 1.5738082e-05 2.3179634e-06 1.1180265e-06
4.2972365e-06 2.0277052e-06 4.281969e-06 3.7424172e-06 2.964443e-05 7.975675e-05 0.00050098257 1.707862e-05
9.214622e-06 0.00028195034 0.00016041673 0.00021346324 0.0007286967 6.542748e-05 0.0001363443 0.00045519104
1.1330931e-05 1.8461903e-06 4.9690507e-06 3.0160638e-05 1.7168115e-05 8.862027e-06 5.415762e-06 3.7586226e-06
2.796743e-05 6.4852253e-07 6.652739e-06 1.855507e-05 4.0137613e-05 7.8989215e-06 5.0882143e-05 4.7095973e-06
2.6752026e-05 0.00011231314 6.795565e-05 5.944198e-05 6.754878e-05 7.294437e-06 3.148685e-05 3.3042874e-05
4.618044e-06 3.4418626e-06 4.4726876e-06 4.8637667e-06 6.825059e-06 4.085322e-06 5.494543e-06 8.092854e-06
8.027111e-06 3.157211e-06 6.3069915e-06 2.3125122e-06 1.6577542e-05 5.9349488e-05 0.000446234 3.328542e-05
6.6053806e-05 0.0006875875 9.0894406e-05 0.00019522633 0.00063935714 5.4615353e-05 9.6746764e-05 0.00039141008
6.432476e-06 5.082954e-06 3.1422685e-06 1.0053385e-05 1.0375967e-05 4.0237123e-06 5.5479977e-06 2.2583583e-06
1.1466597e-05 5.178595e-06 3.3830058e-06 3.9593633e-06 0.00029802334 0.00057241 0.004826717 0.00018909406
4.9735947e-05 0.0034884645 0.0013907846 0.0010006756 0.0066325846 0.0005478119 0.00081173086 0.003850634
1.7566449e-06 4.389271e-06 3.9110764e-05 1.4429357e-06 1.0480786e-06 3.3881315e-05 9.696277e-06 8.671944e-06
5.2908814e-05 3.815986e-06 6.9814973e-06 3.1055246e-05 5.150332e-05 0.000115287876 0.00064120995 2.3051507e-05
2.7039994e-05 0.00033580253 0.00024545658 0.00034825967 0.0009728703 8.269578e-05 0.00021361602 0.000604097
2.9854757e-06 3.576092e-06 1.843265e-06 7.975126e-06 9.56751e-06 1.5368678e-06 2.5392505e-06 1.3285813e-06
9.686373e-06 4.1077915e-06 2.2939903e-06 4.0438335e-06 4.519439e-06 2.048785e-05 0.00014152189 5.3555823e-06
1.599876e-05 0.00020202034 3.8649585e-05 4.0852086e-05 0.00021266403 2.7923235e-05 2.016075e-05 0.00012292368
8.681798e-05 6.8655885e-05 0.0004109417 9.5610885e-05 2.285611e-05 0.00024867748 9.600032e-05 0.00016275808
0.00043561676 7.3807576e-05 0.00013397039 0.00032445858 2.3321509e-05 5.180467e-05 0.00011164688 3.1196607e-05
3.0893112e-05 5.178829e-05 4.671066e-05 0.00014094921 0.00016389469 4.540209e-05 0.00010215 0.00013517009
3.6777974e-06 8.038327e-07 6.498026e-06 8.555951e-06 1.1606786e-05 2.013472e-05 3.3678307e-06 8.0884405e-07
2.8047755e-06 8.740325e-07 3.621614e-06 4.7998897e-06 1.5428246e-05 1.1721635e-05 1.4637956e-05 1.9608598e-05
1.4962615e-05 1.933811e-05 1.3082731e-05 6.792572e-05 4.491122e-05 1.9783967e-05 2.4015533e-05 3.0517047e-05
2.715993e-06 5.2589735e-07 5.4385996e-06 6.312492e-06 1.00000025e-05 1.8206667e-05 3.1199675e-06 3.8391892e-07
1.7329497e-06 4.2806502e-07 3.195246e-06 4.395424e-06 8.449515e-06 2.0750779e-06 3.158431e-06 2.6489186e-05
1.7571052e-05 6.8756995e-06 2.8209165e-06 6.1829e-06 2.2837814e-05 1.3929425e-06 5.914594e-06 1.3573135e-05
2.3960026e-06 2.1463752e-06 4.7233087e-05 1.9651137e-05 1.1356736e-06 1.4550221e-05 6.2658764e-06 4.8620885e-05
0.00017734068 6.2146037e-06 3.1524538e-05 0.000100977515 2.4585838e-06 1.4354716e-06 6.7240376e-06 8.588818e-06
1.235983e-05 1.6981747e-05 1.6141398e-06 1.4852441e-06 4.1743606e-06 1.5159433e-06 3.879213e-06 3.478127e-06
4.4544995e-06 4.6706475e-07 7.357681e-06 1.0022094e-05 1.2921522e-05 2.2624792e-05 3.773353e-06 9.813796e-07
2.7207234e-06 1.4075428e-07 4.0436717e-06 5.322908e-06 2.49764e-06 1.5471011e-06 1.6129889e-06 4.6712316e-06
00000000: 0b64 7136 413c 0636 f228 ab36 2ef6 4937
00000010: 61fd 8637 4605 8437 4f8e 1b36 190f 9635
00000020: fb30 9036 b613 0836 d5ad 8f36 3d26 7b36
00000030: eeac f837 1443 a738 5f54 033a 0f44 8f37
00000040: 8098 1a37 bcd2 9339 8a35 2839 1ad5 5f39
00000050: 0206 3f3a 1c36 8938 a5f7 0e39 b5a6 ee39
00000060: fa19 3e37 9eca f735 d2bb a636 7a01 fd37
00000070: 3f04 9037 1eae 1437 0bb9 b536 a53c 7c36
00000080: 999b ea37 2116 2e35 983a df36 b6a6 9b37
00000090: 6f59 2838 9c85 0437 496a 5538 2207 9e36
000000a0: 8a69 e037 a889 eb38 6983 8e38 5751 7938
000000b0: faa8 8d38 bdc2 f436 bf10 0438 8497 0a38
000000c0: b2f4 9a36 c0fa 6636 1814 9636 7033 a336
000000d0: cf02 e536 a614 8936 c45d b836 8bc6 0737
000000e0: 2eac 0637 79e0 5336 a5a0 d336 a830 1b36
000000f0: 0010 8b37 07ee 7838 83f4 e939 f39b 0b38
00000100: 5e86 8a38 373f 343a 909e be38 abb5 4c39
00000110: 889a 273a ca12 6538 86e4 ca38 2c36 cd39
00000120: 8cd6 d736 3e8e aa36 c3df 5236 f6aa 2837
00000130: 7014 2e37 6d03 8736 f028 ba36 4d8e 1736
00000140: a960 4037 cbc3 ad36 9907 6336 acda 8436
00000150: 0440 9c39 c90d 163a 7029 9e3b 8d47 4639
00000160: 919b 5038 b99e 643b fd4a b63a 1a29 833a
00000170: 2756 d93b 099b 0f3a 56ca 543a eb5a 7c3b
00000180: dcc5 eb35 8d47 9336 dd0a 2438 e5aa c135
00000190: b5ab 8c35 c91b 0e38 31ad 2237 b77d 1137
000001a0: 68ea 5d38 120b 8036 9b42 ea36 5141 0238
000001b0: 4505 5838 b5c6 f138 df16 283a bc5e c137
000001c0: f2d3 e237 a70e b039 a0b0 8039 9f96 b639
000001d0: 3808 7f3a f56c ad38 1dfe 5f39 435c 1e3a
000001e0: 155a 4836 cbfc 6f36 1a66 f735 e8cc 0537
000001f0: 2484 2037 6046 ce35 fe67 2a36 b551 b235
00000200: a882 2237 a9d5 8936 74f2 1936 44b0 8736
00000210: afa5 9736 53dd ab37 7e65 1439 1ab4 b336
00000220: 1335 8637 6cd5 5339 ad1b 2238 9858 2b38
00000230: 91fe 5e39 b13c ea37 e21e a937 13e5 0039
00000240: 0c12 b638 59fb 8f38 a973 d739 b482 c838
00000250: 1fbb bf37 ed60 8239 c853 c938 0aaa 2a39
00000260: 7e63 e439 24c9 9a38 677a 0c39 181c aa39
00000270: 8fa2 c337 d748 5938 f623 ea38 1ad9 0238
00000280: 3a93 0138 4137 5938 30eb 4338 c4cb 1339
00000290: 25db 2b39 1f6e 3e38 5d39 d638 72bc 0d39
000002a0: 14d0 7636 f6c6 5735 9e09 da36 888b 0f37
000002b0: c4ba 4237 fbe6 a837 e402 6236 571f 5935
000002c0: ad39 3c36 0e9f 6a35 db0a 7336 bd0e a136
000002d0: e86b 8137 0aa8 4437 8b95 7537 257d a437
000002e0: f107 7b37 4638 a237 e77d 5b37 5873 8e38
000002f0: 0e5f 3c38 bff5 a537 f774 c937 dcfe ff37
00000300: 6844 3636 642b 0d35 377d b636 e5cf d336
00000310: afc5 2737 85ba 9837 a260 5136 6a1d ce34
00000320: b397 e835 cfd0 e534 e96d 5636 687c 9336
00000330: 64c2 0d37 9141 0b36 6ef5 5336 1835 de37
00000340: 8c65 9337 cfb5 e636 fa4e 3d36 b576 cf36
00000350: d593 bf37 24f5 ba35 fa75 c636 2cb8 6337
00000360: 03cb 2036 720a 1036 241c 4638 7fd8 a437
00000370: 736d 9835 b91c 7437 783f d236 47ee 4b38
00000380: 87f4 3939 0a87 d036 3739 0438 e4c3 d338
00000390: 26fe 2436 6eaa c035 0b9f e136 b118 1037
000003a0: 115d 4f37 0674 8e37 6ca5 d835 9958 c735
000003b0: 7c11 8c36 6a77 cb35 302a 8236 c469 6936
000003c0: dc77 9536 e4c0 fa34 00e2 f636 9124 2837
000003d0: 84c9 5837 5fca bd37 b639 7d36 f2b7 8335
000003e0: ac95 3636 3e22 1734 e0ae 8736 6e9b b236
000003f0: 219d 2736 fda5 cf35 e07d d835 93bd 9c36

exp_avg f4 [64, 128, 1, 3]
6e-45 6e-45 6e-45 -6e-45 6e-45 6e-45 6e-45 6e-45
6e-45 6e-45 6e-45 0.0 6e-45 6e-45 6e-45 -6e-45
6e-45 6e-45 6e-45 6e-45 6e-45 6e-45 -6e-45 6e-45
-6e-45 6e-45 0.0 6e-45 6e-45 0.0 6e-45 6e-45
6e-45 6e-45 6e-45 0.0 -6e-45 6e-45 6e-45 6e-45
6e-45 6e-45 -6e-45 6e-45 6e-45 6e-45 6e-45 6e-45
6e-45 6e-45 6e-45 6e-45 6e-45 6e-45 6e-45 6e-45
6e-45 6e-45 6e-45 6e-45 6e-45 6e-45 6e-45 6e-45
6e-45 6e-45 6e-45 6e-45 6e-45 6e-45 6e-45 6e-45
-6e-45 6e-45 6e-45 6e-45 6e-45 6e-45 6e-45 6e-45
0.0 6e-45 6e-45 6e-45 6e-45 6e-45 6e-45 6e-45
6e-45 6e-45 6e-45 -6e-45 6e-45 6e-45 6e-45 6e-45
6e-45 6e-45 0.0 6e-45 6e-45 6e-45 6e-45 -6e-45
6e-45 -6e-45 -6e-45 6e-45 6e-45 6e-45 6e-45 6e-45
6e-45 6e-45 6e-45 6e-45 6e-45 6e-45 6e-45 6e-45
0.0 0.0 6e-45 6e-45 6e-45 6e-45 6e-45 6e-45
6e-45 6e-45 6e-45 6e-45 6e-45 6e-45 0.0 6e-45
6e-45 6e-45 6e-45 6e-45 6e-45 6e-45 6e-45 6e-45
0.0 6e-45 6e-45 6e-45 6e-45 6e-45 6e-45 6e-45
0.0 6e-45 6e-45 6e-45 -6e-45 -6e-45 6e-45 6e-45
0.0 6e-45 6e-45 6e-45 6e-45 6e-45 6e-45 6e-45
6e-45 6e-45 0.0 6e-45 6e-45 6e-45 6e-45 6e-45
6e-45 6e-45 6e-45 6e-45 6e-45 0.0 0.0 6e-45
6e-45 6e-45 6e-45 6e-45 0.0 6e-45 6e-45 6e-45
0.0 0.0 0.0 6e-45 6e-45 6e-45 6e-45 6e-45
6e-45 6e-45 6e-45 6e-45 6e-45 6e-45 6e-45 6e-45
6e-45 6e-45 6e-45 6e-45 6e-45 6e-45 6e-45 6e-45
6e-45 6e-45 6e-45 6e-45 6e-45 6e-45 6e-45 6e-45
6e-45 6e-45 6e-45 6e-45 6e-45 6e-45 6e-45 -6e-45
6e-45 6e-45 6e-45 6e-45 6e-45 6e-45 6e-45 6e-45
-6e-45 6e-45 6e-45 6e-45 6e-45 6e-45 6e-45 6e-45
6e-45 6e-45 6e-45 6e-45 6e-45 6e-45 6e-45 6e-45
00000000: 0400 0000 0400 0000 0400 0000 0400 0080
00000010: 0400 0000 0400 0000 0400 0000 0400 0000
00000020: 0400 0000 0400 0000 0400 0000 0000 0000
00000030: 0400 0000 0400 0000 0400 0000 0400 0080
00000040: 0400 0000 0400 0000 0400 0000 0400 0000
00000050: 0400 0000 0400 0000 0400 0080 0400 0000
00000060: 0400 0080 0400 0000 0000 0000 0400 0000
00000070: 0400 0000 0000 0000 0400 0000 0400 0000
00000080: 0400 0000 0400 0000 0400 0000 0000 0000
00000090: 0400 0080 0400 0000 0400 0000 0400 0000
000000a0: 0400 0000 0400 0000 0400 0080 0400 0000
000000b0: 0400 0000 0400 0000 0400 0000 0400 0000
000000c0: 0400 0000 0400 0000 0400 0000 0400 0000
000000d0: 0400 0000 0400 0000 0400 0000 0400 0000
000000e0: 0400 0000 0400 0000 0400 0000 0400 0000
000000f0: 0400 0000 0400 0000 0400 0000 0400 0000
00000100: 0400 0000 0400 0000 0400 0000 0400 0000
00000110: 0400 0000 0400 0000 0400 0000 0400 0000
00000120: 0400 0080 0400 0000 0400 0000 0400 0000
00000130: 0400 0000 0400 0000 0400 0000 0400 0000
00000140: 0000 0000 0400 0000 0400 0000 0400 0000
00000150: 0400 0000 0400 0000 0400 0000 0400 0000
00000160: 0400 0000 0400 0000 0400 0000 0400 0080
00000170: 0400 0000 0400 0000 0400 0000 0400 0000
00000180: 0400 0000 0400 0000 0000 0000 0400 0000
00000190: 0400 0000 0400 0000 0400 0000 0400 0080
000001a0: 0400 0000 0400 0080 0400 0080 0400 0000
000001b0: 0400 0000 0400 0000 0400 0000 0400 0000
000001c0: 0400 0000 0400 0000 0400 0000 0400 0000
000001d0: 0400 0000 0400 0000 0400 0000 0400 0000
000001e0: 0000 0000 0000 0000 0400 0000 0400 0000
000001f0: 0400 0000 0400 0000 0400 0000 0400 0000
00000200: 0400 0000 0400 0000 0400 0000 0400 0000
00000210: 0400 0000 0400 0000 0000 0000 0400 0000
00000220: 0400 0000 0400 0000 0400 0000 0400 0000
00000230: 0400 0000 0400 0000 0400 0000 0400 0000
00000240: 0000 0000 0400 0000 0400 0000 0400 0000
00000250: 0400 0000 0400 0000 0400 0000 0400 0000
00000260: 0000 0000 0400 0000 0400 0000 0400 0000
00000270: 0400 0080 0400 0080 0400 0000 0400 0000
00000280: 0000 0000 0400 0000 0400 0000 0400 0000
00000290: 0400 0000 0400 0000 0400 0000 0400 0000
000002a0: 0400 0000 0400 0000 0000 0000 0400 0000
000002b0: 0400 0000 0400 0000 0400 0000 0400 0000
000002c0: 0400 0000 0400 0000 0400 0000 0400 0000
000002d0: 0400 0000 0000 0000 0000 0000 0400 0000
000002e0: 0400 0000 0400 0000 0400 0000 0400 0000
000002f0: 0000 0000 0400 0000 0400 0000 0400 0000
00000300: 0000 0000 0000 0000 0000 0000 0400 0000
00000310: 0400 0000 0400 0000 0400 0000 0400 0000
00000320: 0400 0000 0400 0000 0400 0000 0400 0000
00000330: 0400 0000 0400 0000 0400 0000 0400 0000
00000340: 0400 0000 0400 0000 0400 0000 0400 0000
00000350: 0400 0000 0400 0000 0400 0000 0400 0000
00000360: 0400 0000 0400 0000 0400 0000 0400 0000
00000370: 0400 0000 0400 0000 0400 0000 0400 0000
00000380: 0400 0000 0400 0000 0400 0000 0400 0000
00000390: 0400 0000 0400 0000 0400 0000 0400 0080
000003a0: 0400 0000 0400 0000 0400 0000 0400 0000
000003b0: 0400 0000 0400 0000 0400 0000 0400 0000
000003c0: 0400 0080 0400 0000 0400 0000 0400 0000
000003d0: 0400 0000 0400 0000 0400 0000 0400 0000
000003e0: 0400 0000 0400 0000 0400 0000 0400 0000
000003f0: 0400 0000 0400 0000 0400 0000 0400 0000

exp_avg_sq f4 [64, 128, 1, 3]
7e-43 7e-43 7e-43 7e-43 7e-43 7e-43 7e-43 7e-43
7e-43 7e-43 7e-43 0.0 7e-43 7e-43 7e-43 7e-43
7e-43 7e-43 7e-43 7e-43 7e-43 7e-43 7e-43 7e-43
7e-43 7e-43 0.0 7e-43 7e-43 0.0 7e-43 7e-43
7e-43 7e-43 7e-43 0.0 7e-43 7e-43 7e-43 7e-43
7e-43 7e-43 7e-43 7e-43 7e-43 7e-43 7e-43 7e-43
7e-43 7e-43 7e-43 7e-43 7e-43 7e-43 7e-43 7e-43
7e-43 7e-43 7e-43 7e-43 7e-43 7e-43 7e-43 7e-43
7e-43 7e-43 7e-43 7e-43 7e-43 7e-43 7e-43 7e-43
7e-43 7e-43 7e-43 7e-43 7e-43 7e-43 7e-43 7e-43
0.0 7e-43 7e-43 7e-43 7e-43 7e-43 7e-43 7e-43
7e-43 7e-43 7e-43 7e-43 7e-43 7e-43 7e-43 7e-43
7e-43 7e-43 0.0 7e-43 7e-43 7e-43 7e-43 7e-43
7e-43 7e-43 7e-43 7e-43 7e-43 7e-43 7e-43 7e-43
7e-43 7e-43 7e-43 7e-43 7e-43 7e-43 7e-43 7e-43
0.0 0.0 7e-43 7e-43 7e-43 7e-43 7e-43 7e-43
7e-43 7e-43 7e-43 7e-43 7e-43 7e-43 0.0 7e-43
7e-43 7e-43 7e-43 7e-43 7e-43 7e-43 7e-43 7e-43
0.0 7e-43 7e-43 7e-43 7e-43 7e-43 7e-43 7e-43
0.0 7e-43 7e-43 7e-43 7e-43 7e-43 7e-43 7e-43
0.0 7e-43 7e-43 7e-43 7e-43 7e-43 7e-43 7e-43
7e-43 7e-43 0.0 7e-43 7e-43 7e-43 7e-43 7e-43
7e-43 7e-43 7e-43 7e-43 7e-43 0.0 0.0 7e-43
7e-43 7e-43 7e-43 7e-43 0.0 7e-43 7e-43 7e-43
0.0 0.0 0.0 7e-43 7e-43 7e-43 7e-43 7e-43
7e-43 7e-43 7e-43 7e-43 7e-43 7e-43 7e-43 7e-43
7e-43 7e-43 7e-43 7e-43 7e-43 7e-43 7e-43 7e-43
7e-43 7e-43 7e-43 7e-43 7e-43 7e-43 7e-43 7e-43
7e-43 7e-43 7e-43 7e-43 7e-43 7e-43 7e-43 7e-43
7e-43 7e-43 7e-43 7e-43 7e-43 7e-43 7e-43 7e-43
7e-43 7e-43 7e-43 7e-43 7e-43 7e-43 7e-43 7e-43
7e-43 7e-43 7e-43 7e-43 7e-43 7e-43 7e-43 7e-43
00000000: f401 0000 f401 0000 f401 0000 f401 0000
00000010: f401 0000 f401 0000 f401 0000 f401 0000
00000020: f401 0000 f401 0000 f401 0000 0000 0000
00000030: f401 0000 f401 0000 f401 0000 f401 0000
00000040: f401 0000 f401 0000 f401 0000 f401 0000
00000050: f401 0000 f401 0000 f401 0000 f401 0000
00000060: f401 0000 f401 0000 0000 0000 f401 0000
00000070: f401 0000 0000 0000 f401 0000 f401 0000
00000080: f401 0000 f401 0000 f401 0000 0000 0000
00000090: f401 0000 f401 0000 f401 0000 f401 0000
000000a0: f401 0000 f401 0000 f401 0000 f401 0000
000000b0: f401 0000 f401 0000 f401 0000 f401 0000
000000c0: f401 0000 f401 0000 f401 0000 f401 0000
000000d0: f401 0000 f401 0000 f401 0000 f401 0000
000000e0: f401 0000 f401 0000 f401 0000 f401 0000
000000f0: f401 0000 f401 0000 f401 0000 f401 0000
00000100: f401 0000 f401 0000 f401 0000 f401 0000
00000110: f401 0000 f401 0000 f401 0000 f401 0000
00000120: f401 0000 f401 0000 f401 0000 f401 0000
00000130: f401 0000 f401 0000 f401 0000 f401 0000
00000140: 0000 0000 f401 0000 f401 0000 f401 0000
00000150: f401 0000 f401 0000 f401 0000 f401 0000
00000160: f401 0000 f401 0000 f401 0000 f401 0000
00000170: f401 0000 f401 0000 f401 0000 f401 0000
00000180: f401 0000 f401 0000 0000 0000 f401 0000
00000190: f401 0000 f401 0000 f401 0000 f401 0000
000001a0: f401 0000 f401 0000 f401 0000 f401 0000
000001b0: f401 0000 f401 0000 f401 0000 f401 0000
000001c0: f401 0000 f401 0000 f401 0000 f401 0000
000001d0: f401 0000 f401 0000 f401 0000 f401 0000
000001e0: 0000 0000 0000 0000 f401 0000 f401 0000
000001f0: f401 0000 f401 0000 f401 0000 f401 0000
00000200: f401 0000 f401 0000 f401 0000 f401 0000
00000210: f401 0000 f401 0000 0000 0000 f401 0000
00000220: f401 0000 f401 0000 f401 0000 f401 0000
00000230: f401 0000 f401 0000 f401 0000 f401 0000
00000240: 0000 0000 f401 0000 f401 0000 f401 0000
00000250: f401 0000 f401 0000 f401 0000 f401 0000
00000260: 0000 0000 f401 0000 f401 0000 f401 0000
00000270: f401 0000 f401 0000 f401 0000 f401 0000
00000280: 0000 0000 f401 0000 f401 0000 f401 0000
00000290: f401 0000 f401 0000 f401 0000 f401 0000
000002a0: f401 0000 f401 0000 0000 0000 f401 0000
000002b0: f401 0000 f401 0000 f401 0000 f401 0000
000002c0: f401 0000 f401 0000 f401 0000 f401 0000
000002d0: f401 0000 0000 0000 0000 0000 f401 0000
000002e0: f401 0000 f401 0000 f401 0000 f401 0000
000002f0: 0000 0000 f401 0000 f401 0000 f401 0000
00000300: 0000 0000 0000 0000 0000 0000 f401 0000
00000310: f401 0000 f401 0000 f401 0000 f401 0000
00000320: f401 0000 f401 0000 f401 0000 f401 0000
00000330: f401 0000 f401 0000 f401 0000 f401 0000
00000340: f401 0000 f401 0000 f401 0000 f401 0000
00000350: f401 0000 f401 0000 f401 0000 f401 0000
00000360: f401 0000 f401 0000 f401 0000 f401 0000
00000370: f401 0000 f401 0000 f401 0000 f401 0000
00000380: f401 0000 f401 0000 f401 0000 f401 0000
00000390: f401 0000 f401 0000 f401 0000 f401 0000
000003a0: f401 0000 f401 0000 f401 0000 f401 0000
000003b0: f401 0000 f401 0000 f401 0000 f401 0000
000003c0: f401 0000 f401 0000 f401 0000 f401 0000
000003d0: f401 0000 f401 0000 f401 0000 f401 0000
000003e0: f401 0000 f401 0000 f401 0000 f401 0000
000003f0: f401 0000 f401 0000 f401 0000 f401 0000

exp_avg f4 [32, 64, 1, 1]
-6e-45 -6e-45 -6e-45 -6e-45 6e-45 6e-45 -6e-45 0.0003070728
-6e-45 0.0002355215 6e-45 6e-45 0.0026948198 6e-45 -6e-45 -6e-45
0.00023456135 -6e-45 6e-45 -6e-45 0.00015754595 6e-45 6e-45 -6e-45
6e-45 0.00021960596 6e-45 0.00047576436 6e-45 0.00016688138 0.0010682603 -6e-45
6e-45 7.422464e-05 -6e-45 -6e-45 -6e-45 6e-45 -6e-45 -6e-45
6e-45 6e-45 6e-45 6e-45 6e-45 6e-45 -6e-45 -6e-45
-6e-45 6e-45 -6e-45 0.00016897958 6e-45 -6e-45 -6e-45 -6e-45
6e-45 6e-45 0.0003867907 -6e-45 -6e-45 -6e-45 6e-45 -6e-45
-6e-45 -6e-45 -6e-45 -6e-45 6e-45 6e-45 -6e-45 0.0002773315
-6e-45 0.00021271111 6e-45 6e-45 0.0024338244 6e-45 -6e-45 6e-45
0.0002118434 -6e-45 6e-45 -6e-45 0.00014228774 6e-45 6e-45 -6e-45
6e-45 0.00019833545 6e-45 0.00042969038 6e-45 0.00015071857 0.00096480973 -6e-45
6e-45 6.7048124e-05 -6e-45 -6e-45 -6e-45 6e-45 -6e-45 -6e-45
-6e-45 6e-45 -6e-45 6e-45 6e-45 -6e-45 -6e-45 -6e-45
-6e-45 6e-45 -6e-45 0.000152613 6e-45 -6e-45 -6e-45 -6e-45
6e-45 6e-45 0.0003493273 -6e-45 -6e-45 -6e-45 6e-45 -6e-45
-6e-45 6e-45 -6e-45 -6e-45 -6e-45 6e-45 -6e-45 0.0003272542
-6e-45 0.00025099955 6e-45 6e-45 0.002871919 6e-45 6e-45 6e-45
0.00024997658 -6e-45 6e-45 6e-45 0.00016789923 6e-45 6e-45 -6e-45
6e-45 0.00023403918 6e-45 0.0005070277 6e-45 0.00017784869 0.0011384555 -6e-45
6e-45 7.909289e-05 -6e-45 -6e-45 6e-45 6e-45 6e-45 -6e-45
-6e-45 6e-45 -6e-45 6e-45 -6e-45 -6e-45 -6e-45 -6e-45
-6e-45 6e-45 -6e-45 0.00018008526 6e-45 -6e-45 -6e-45 6e-45
6e-45 6e-45 0.000412212 -6e-45 -6e-45 -6e-45 6e-45 -6e-45
6e-45 6e-45 -6e-45 6e-45 -6e-45 -6e-45 6e-45 -0.0002931002
6e-45 -0.00022478693 6e-45 -6e-45 -0.0025719232 -6e-45 6e-45 -6e-45
-0.00022388039 6e-45 -6e-45 6e-45 -0.00015036044 -6e-45 6e-45 6e-45
-6e-45 -0.00020962952 -6e-45 -0.00045397045 6e-45 -0.00015928083 -0.0010193493 6e-45
6e-45 -7.057867e-05 6e-45 6e-45 6e-45 6e-45 6e-45 6e-45
-6e-45 -6e-45 6e-45 0.0 6e-45 -6e-45 6e-45 -6e-45
6e-45 -6e-45 0.0 -0.00016129465 -6e-45 -6e-45 6e-45 6e-45
6e-45 6e-45 -0.0003692125 -6e-45 6e-45 6e-45 6e-45 -6e-45
00000000: 0400 0080 0400 0080 0400 0080 0400 0080
00000010: 0400 0000 0400 0000 0400 0080 9dfe a039
00000020: 0400 0080 52f6 7639 0400 0000 0400 0000
00000030: 939b 303b 0400 0000 0400 0080 0400 0080
00000040: 95f4 7539 0400 0080 0400 0000 0400 0080
00000050: eb32 2539 0400 0000 0400 0000 0400 0080
00000060: 0400 0000 0746 6639 0400 0000 0370 f939
00000070: 0400 0000 e1fc 2e39 de04 8c3a 0400 0080
00000080: 0400 0000 0da9 9b38 0400 0080 0400 0080
00000090: 0400 0080 0400 0000 0400 0080 0400 0080
000000a0: 0400 0000 0400 0000 0400 0000 0400 0000
000000b0: 0400 0000 0400 0000 0400 0080 0400 0080
000000c0: 0400 0080 0400 0000 0400 0080 1c30 3139
000000d0: 0400 0000 0400 0080 0400 0080 0400 0080
000000e0: 0400 0000 0400 0000 2bca ca39 0400 0080
000000f0: 0400 0080 0400 0080 0400 0000 0400 0080
00000100: 0400 0080 0400 0080 0400 0080 0400 0080
00000110: 0400 0000 0400 0000 0400 0080 ce66 9139
00000120: 0400 0080 340b 5f39 0400 0000 0400 0000
00000130: cc80 1f3b 0400 0000 0400 0080 0400 0000
00000140: 4822 5e39 0400 0080 0400 0000 0400 0080
00000150: 1333 1539 0400 0000 0400 0000 0400 0080
00000160: 0400 0000 44f8 4f39 0400 0000 1148 e139
00000170: 0400 0000 350a 1e39 49eb 7c3a 0400 0080
00000180: 0400 0000 309c 8c38 0400 0080 0400 0080
00000190: 0400 0080 0400 0000 0400 0080 0400 0080
000001a0: 0400 0080 0400 0000 0400 0080 0400 0000
000001b0: 0400 0000 0400 0080 0400 0080 0400 0080
000001c0: 0400 0080 0400 0000 0400 0080 be06 2039
000001d0: 0400 0000 0400 0080 0400 0080 0400 0080
000001e0: 0400 0000 0400 0000 eb25 b739 0400 0080
000001f0: 0400 0080 0400 0080 0400 0000 0400 0080
00000200: 0400 0080 0400 0000 0400 0080 0400 0080
00000210: 0400 0080 0400 0000 0400 0080 5193 ab39
00000220: 0400 0080 9798 8339 0400 0000 0400 0000
00000230: ce36 3c3b 0400 0000 0400 0000 0400 0000
00000240: 4a0f 8339 0400 0080 0400 0000 0400 0000
00000250: 1b0e 3039 0400 0000 0400 0000 0400 0080
00000260: 0400 0000 6a68 7539 0400 0000 0eea 043a
00000270: 0400 0000 e57c 3a39 3a38 953a 0400 0080
00000280: 0400 0000 acde a538 0400 0080 0400 0080
00000290: 0400 0000 0400 0000 0400 0000 0400 0080
000002a0: 0400 0080 0400 0000 0400 0080 0400 0000
000002b0: 0400 0080 0400 0080 0400 0080 0400 0080
000002c0: 0400 0080 0400 0000 0400 0080 45d5 3c39
000002d0: 0400 0000 0400 0080 0400 0080 0400 0000
000002e0: 0400 0000 0400 0000 281e d839 0400 0080
000002f0: 0400 0080 0400 0080 0400 0000 0400 0080
00000300: 0400 0000 0400 0000 0400 0080 0400 0000
00000310: 0400 0080 0400 0080 0400 0000 3eab 99b9
00000320: 0400 0000 c8b4 6bb9 0400 0000 0400 0080
00000330: b68d 28bb 0400 0080 0400 0000 0400 0080
00000340: 6fc1 6ab9 0400 0000 0400 0080 0400 0000
00000350: 13aa 1db9 0400 0080 0400 0000 0400 0000
00000360: 0400 0080 ffcf 5bb9 0400 0080 e202 eeb9
00000370: 0400 0000 9f04 27b9 b09b 85ba 0400 0000
00000380: 0400 0000 a303 94b8 0400 0000 0400 0000
00000390: 0400 0000 0400 0000 0400 0000 0400 0000
000003a0: 0400 0080 0400 0080 0400 0000 0000 0000
000003b0: 0400 0000 0400 0080 0400 0000 0400 0080
000003c0: 0400 0000 0400 0080 0000 0000 3421 29b9
000003d0: 0400 0080 0400 0080 0400 0000 0400 0000
000003e0: 0400 0000 0400 0000 dd92 c1b9 0400 0080
000003f0: 0400 0000 0400 0000 0400 0000 0400 0080
