exp/hyperparameters/window/15/state.pt (torch_old, 709141 bytes, 12 tensors)

conv1.weight f4 [128, 4, 1, 3]
000000 ed 8f 84 3e b7 79 75 be d8 1d 9d bd 18 ad 2d bd
       0.25891057 -0.23972212 -0.07671708 -0.042401403
000010 35 71 3a bd 28 2d f4 3c 32 26 80 be fa 99 81 be
       -0.04551812 0.029806688 -0.2502914 -0.25312787
000020 bc ed 92 be e5 07 d5 bc ba 47 2a 3e 26 66 59 3e
       -0.28697002 -0.026004741 0.16628924 0.21230373
000030 b9 ba ed bb 55 fe 00 3c db 39 3f 3d 8d d5 88 3e
       -0.007254925 0.0078731375 0.046686035 0.26725426
000040 31 1e 75 bd e4 a8 05 be d6 09 82 3c 6f 9d 6c be
       -0.059843246 -0.13052708 0.01587383 -0.23106931
000050 c9 aa 44 3e b1 06 22 3e 56 bc 8a be 33 0d 9a be
       0.19205774 0.15822865 -0.27096814 -0.30088195
000060 ee 09 1b be 33 b4 8a be c2 f7 32 3e 9c e3 52 be
       -0.15140507 -0.27090606 0.17477325 -0.20594639
000070 3e 34 ef bd f2 d0 76 3e af 46 90 be d0 e3 82 be
       -0.11679886 0.24103144 -0.28178927 -0.25564432
000080 7f 9a 07 be 41 48 00 3d d0 d6 47 be bc 72 ac 3d
       -0.1324253 0.031318907 -0.19515538 0.08420321
000090 55 e9 c7 3d 70 5c 14 3e f2 78 32 bd 35 4c 15 be
       0.097613014 0.14488387 -0.043572374 -0.14579852
0000a0 ec 28 2e be b6 84 03 be b6 08 92 be ea 97 04 be
       -0.17007798 -0.12843594 -0.2852227 -0.12948576
0000b0 e1 91 ae bd df 00 eb 3d 58 63 80 be d5 04 5a bd
       -0.08523918 0.114747755 -0.25075793 -0.053227264
0000c0 14 03 51 bd f4 62 7f bd 6c 87 22 3d 60 0a 27 3e
       -0.051028326 -0.06235023 0.03967993 0.16312551
0000d0 89 da 4d bd 68 a8 c1 bd c7 c5 22 3d 85 c5 7a bc
       -0.05025724 -0.09455949 0.039739396 -0.015305881
0000e0 59 0f 88 3d 5a ef 2d be 7e 27 04 3e 8f c0 76 3e
       0.06643552 -0.16985837 0.1290569 0.24096893
0000f0 7e 66 a5 3e 98 ad 4d bd fa 12 88 be 90 69 7c 3d
       0.32304758 -0.05021438 -0.26576978 0.06162411
000100 ed 6f 8b 3e 74 5d 1d be 59 02 66 3e aa 3b a0 bd
       0.2723383 -0.15367681 0.22461833 -0.0782388
000110 28 af 7e be 0b 9b 5e 3e a3 90 ca be 8c bd 46 be
       -0.24871504 0.21738832 -0.39563474 -0.19408244
000120 5f 98 78 be 16 2b 75 3e 1c b7 01 3e b4 f2 58 3e
       -0.24276875 0.23942217 0.12667507 0.21186334
000130 d3 02 75 3d 41 f7 89 bd 57 50 76 bd 86 7d 93 be
       0.059817147 -0.06736613 -0.06013521 -0.28806704
000140 18 1e 5c be 64 23 7f be 59 16 e8 3d 2f 50 b3 be
       -0.21495855 -0.24915844 0.113323875 -0.35022113
000150 2d 9a de 3e 95 75 ea bd d8 0c 89 3d 25 cb ab 3e
       0.43477002 -0.11448208 0.06691903 0.33553424
000160 22 cd 77 be 35 35 62 3d e4 32 87 be 64 15 8c bd
       -0.24199346 0.055226523 -0.26406014 -0.068400174
000170 6f f4 db 3d c3 ac 8f be 96 ba 91 bc 38 d8 81 bd
       0.107399814 -0.28061494 -0.017789166 -0.063400686
000180 e8 8d c5 bd c2 06 34 be a6 cc ac 3d 73 b4 d6 bd
       -0.09646207 -0.17580703 0.08437471 -0.10483637
000190 f9 d6 b3 3e 9e a7 07 bd 50 49 1b be 8b 81 07 3f
       0.3512495 -0.033118837 -0.15164685 0.5293204
0001a0 0e 38 cb 3e 19 20 c9 3e 24 ce 06 3f 85 dd 72 3e
       0.39691204 0.392823 0.52658296 0.23717315
0001b0 8f e4 9a 3d 84 38 8c 3c f5 32 ab 3e 54 6a 02 3d
       0.07563125 0.017116793 0.33437315 0.031839684
0001c0 bb bd 5b 3e d4 22 d6 bd f9 e8 0c 3f 5e 4b d9 3e
       0.21459095 -0.10455862 0.5504299 0.42440313
0001d0 c0 2b 19 3f ee e6 af 3e d1 62 a8 3e 1b e4 f9 3d
       0.5983238 0.34355873 0.3288789 0.12201711
0001e0 60 a8 9a be 0c 4f 09 be 0e 89 a8 3e f1 32 83 3d
       -0.30206585 -0.1340906 0.32917064 0.06406201
0001f0 0c fd f8 3e e9 f3 31 3d e7 c2 af be 0a 8a 23 be
       0.4863056 0.0434455 -0.34328386 -0.15970626
000200 56 ae 16 bd 7a 50 91 3d 50 0b be 3d 6b 82 1d 3d
       -0.036787353 0.07095428 0.092795014 0.038454454
000210 f3 85 3c 3e 94 41 25 be a1 d2 a1 bd e6 d5 c3 3e
       0.18410473 -0.16138297 -0.079015024 0.3824913
000220 46 e3 33 3e 7f ed 8d 3d 9c 49 9e 3e f4 ff 98 be
       0.17567167 0.069300644 0.30915534 -0.29882777
000230 55 a6 89 3d e6 c2 be 3c e5 88 cd be 6f dc aa be
       0.067211784 0.023286294 -0.40143505 -0.33371302
000240 1a fa 10 be ac 96 7d 3d 50 95 ba 3e 73 80 f2 3e
       -0.14157906 0.06191127 0.3644204 0.47363624
000250 6c f7 00 3f f6 bb c4 bd 5a 72 b7 3e df 66 bf 3e
       0.50377536 -0.09606163 0.3582943 0.37383172
000260 23 cd 6b 3d a3 76 9d 3e e9 16 8b 3e 9e ba 7b 3e
       0.05756868 0.30754575 0.27165917 0.24582908
000270 c1 8a 62 be e4 47 c8 3d 26 fa 23 3e a4 75 4b 3d
       -0.22123243 0.09779337 0.16013393 0.049672738
000280 6b d3 e5 3e 52 49 3d 3e 68 66 94 3e 38 5b d7 3e
       0.44887862 0.18485 0.2898438 0.42061782
000290 7d b6 e7 3e 9b b5 47 3e 41 bc f4 3e 3e fa 04 3e
       0.45256415 0.1950287 0.47799876 0.12986085
0002a0 ed b0 3a 3e 6e c1 0c be a1 94 cd bd 14 2c 77 be
       0.18231554 -0.13745663 -0.10038114 -0.24137908
0002b0 3c 93 7d 3e 64 88 00 bd 0e 0f 72 bd fa e8 df 3d
       0.24763197 -0.031380072 -0.05909639 0.10933109
0002c0 8f 50 a2 bd a4 5e 8e be 3b 81 06 bd 6a 90 46 bd
       -0.079255216 -0.2780658 -0.032838088 -0.048477568
0002d0 26 29 b9 3e 0a 84 1f 3e a9 3b 89 3e 50 4b a8 3e
       0.36164206 0.15577713 0.2680333 0.3286996
0002e0 36 c5 ef 3e 7c 65 ba 3e d7 2b 84 3e 90 a3 4c 3c
       0.46830148 0.3640555 0.25814697 0.012490168
0002f0 f6 13 02 bd 80 67 19 3d b2 d9 d3 3e 84 ba cc 3d
       -0.031757317 0.03745222 0.41377026 0.099965125
000300 3e d3 1c 3e 24 02 db 3d 2e d8 ce 3c 40 9a d9 3e
       0.15314957 0.10693768 0.025249567 0.42500496
000310 eb 54 ba 3e cd f3 dd 3e 57 ff 2d 3e b3 a0 9f 3e
       0.36392912 0.43350068 0.16991936 0.3117729
000320 67 7c e7 3c 26 a3 87 bc c9 ae c5 3e 58 a1 9c 3e
       0.028257562 -0.016557287 0.38609913 0.30591846
000330 26 75 64 be f0 e1 0b be 85 5d 15 3e dd 51 ee 3c
       -0.22310314 -0.13660407 0.14586456 0.02909177
000340 e0 17 05 bd 2f fc 77 3d d4 24 7b bd a6 a4 89 be
       -0.032493472 0.060543235 -0.06131442 -0.2688343
000350 d5 e4 61 be 20 28 93 be cc 25 d6 3c a0 10 b5 be
       -0.22059949 -0.2874155 0.02614107 -0.35364246
000360 94 be c4 3e 25 18 c3 3e af 9e 14 3e e6 aa 6c 3e
       0.3842665 0.38104358 0.14513658 0.23112068
000370 d4 b7 c2 3e 6a a8 19 be 0f 19 e4 3e 8e 2e 27 3e
       0.38030875 -0.15005651 0.44550368 0.16326353
000380 81 8b ac 3e ba b2 5b 3e e5 7a 92 3e f2 f8 91 3e
       0.33700183 0.21454898 0.28609386 0.28510243
000390 94 3f 94 3e 46 a1 f8 bc ad 6c 48 be 2f a7 61 be
       0.28954756 -0.030350339 -0.19572707 -0.22036432
0003a0 82 8c f9 bb d5 65 06 3e bb 23 2f be 87 86 57 be
       -0.007615627 0.13124783 -0.17103474 -0.21047412
0003b0 58 ee 64 3e e2 3f 10 be 78 2e d5 bd 48 c2 dc bd
       0.22356546 -0.1408687 -0.10409254 -0.10779244
0003c0 71 4c 45 be 36 84 c3 3e 06 d9 60 3e 62 67 aa bc
       -0.19267441 0.38186806 0.21957788 -0.02080125
0003d0 d7 61 27 3e 69 c0 95 3e 79 0d d4 3e 73 89 af 3e
       0.16345917 0.2924836 0.4141653 0.34284553
0003e0 5c 56 5a 3e 24 5c 98 3d 35 76 c2 3e 20 da 7d bd
       0.21322006 0.074394494 0.3798081 -0.0619756
0003f0 86 06 26 bd 65 46 b9 3d 7e c6 90 3e 63 87 88 3e
       -0.040533565 0.0904663 0.28276438 0.26665792

conv2.weight f4 [64, 128, 1, 3]
000000 25 12 f6 bc 08 c2 cb bc 9c c7 bd bc 15 ee 34 bd
       -0.030037949 -0.024872795 -0.02316647 -0.044172365
000010 02 04 b7 37 1c 51 23 bd 42 2f 24 bd 92 e2 e0 bb
       2.1817166e-05 -0.039872274 -0.04008413 -0.006862947
000020 0f bb 18 bd d8 56 be 3b 37 c9 9e bc 5c 7d d1 3b
       -0.037287768 0.0058086924 -0.019383056 0.006393118
000030 cf d0 d4 3c e5 dc 2a 3d be e4 73 bd ad ad 34 bd
       0.025978474 0.041714568 -0.059544317 -0.044110943
000040 94 58 f9 bc cb 5a d7 3c a9 2b 36 bc cc 18 1d 3c
       -0.030437745 0.02628841 -0.011118808 0.009588432
000050 e6 bf 71 3c fe 21 15 bb b9 b5 04 3d ee 88 05 bd
       0.014755225 -0.0022755857 0.032399867 -0.03260129
000060 68 2a 3e bb a6 7a 86 3c ca 68 dc 3c 12 9f 39 bb
       -0.0029016975 0.016415905 0.026905436 -0.0028323573
000070 af 6f 15 bd 41 43 32 bd 82 41 2b bb e5 31 85 38
       -0.036483463 -0.04352117 -0.0026131575 6.351228e-05
000080 5c b7 3f 3c 14 ba 98 bc 45 81 1b 3d fd 0d 2c bd
       0.011701431 -0.018643416 0.037965078 -0.042005528
000090 61 01 2d bc 07 00 d6 bb 96 e9 f0 bc d9 d0 04 bc
       -0.010559411 -0.006530765 -0.029408257 -0.008106434
0000a0 49 d5 15 bd ea c0 22 3d c0 22 dd bc fd 24 2c bd
       -0.036580358 0.03973476 -0.02699411 -0.042027462
0000b0 66 9e 1a bc 4b a2 a1 bb 9e c6 1f bd 21 b7 84 b9
       -0.009437179 -0.004932677 -0.039007775 -0.00025313444
0000c0 35 28 08 3d 00 77 a7 bc 22 4e 10 3d 16 6c 74 bd
       0.03324147 -0.020442486 0.035230763 -0.05967339
0000d0 7c fb 9b 3c 73 c4 c4 bb 29 b7 d0 bc 17 bd 3d bd
       0.019040816 -0.006004864 -0.025477963 -0.04632291
0000e0 1d 73 1f bd 3d dd c5 bc 29 4a 3d bd 7c 6b 45 bc
       -0.03892814 -0.024153346 -0.046213303 -0.012049552
0000f0 e1 e1 ca 3c fb ea 21 3d 69 fa 39 3c a7 f4 6c 3a
       0.02476591 0.039530735 0.011351206 0.00090391416
000100 6b 73 78 bc c8 e0 0f 3b 6d a6 ac 3c 43 f4 0d bd
       -0.015164237 0.0021954048 0.021075452 -0.034656774
000110 7c 65 20 3d 6b 85 fd bc 69 73 0a 3b 56 8f 37 b9
       0.039159283 -0.030947408 0.0021125919 -0.00017505637
000120 e7 c1 92 bb 1a f8 4a bb 7f 86 5d bd b0 0e 74 bd
       -0.0044786814 -0.0030970634 -0.054083344 -0.05958432
000130 5e ae 13 3d 52 c4 c0 bb ab d2 7d 3c 41 1f 26 bd
       0.03605496 -0.005882778 0.015492122 -0.04055715
000140 e3 96 17 bc 17 8b cb bc d8 1b ab 3c cd a4 4f 3c
       -0.009252283 -0.024846597 0.0208873 0.012673569
000150 7b 53 55 bd a5 e0 69 bd e1 5a 31 bc de aa 23 3d
       -0.052081566 -0.057099003 -0.01082489 0.039957874
000160 8d 16 82 3c 7d 5a e4 3c 4e 73 11 bd b5 4e f3 bc
       0.015879894 0.02787518 -0.035510354 -0.029700616
000170 0d 81 04 3d 82 99 d2 bc b8 97 1c bd a1 61 fc bc
       0.032349635 -0.025707964 -0.038230628 -0.030808272
000180 2a 77 3b bd 3f ed bb bc 05 80 9f bc 3d 78 bd 3c
       -0.04576794 -0.022940276 -0.019470224 0.023128623
000190 74 04 cc 3c 0f 01 d1 bc a5 07 22 bd e8 9e 30 bc
       0.024904467 -0.0255132 -0.03955807 -0.010780074
0001a0 97 57 00 3c bf 5b fa 3c 1a 7a 9e bc be 4b 96 bb
       0.007833383 0.030561326 -0.019345332 -0.004586666
0001b0 46 70 e9 3b f2 ab c9 3c 59 bd 40 3c 0c 68 81 3c
       0.0071239797 0.024618123 0.011763894 0.015796684
0001c0 2e ce a2 3c 51 78 3b bd 8e fa 31 bc 00 74 ae 3c
       0.019873705 -0.04576904 -0.01086296 0.021295547
0001d0 32 f9 f9 b9 d9 1a f8 bb c3 1a 1b 3d 95 d7 33 3c
       -0.00047678646 -0.00757156 0.03786732 0.010976692
0001e0 7c bd 30 3d ee f6 25 bd 9b 41 9d 3c f8 04 03 bd
       0.043149456 -0.040518694 0.019196322 -0.03198716
0001f0 e1 64 20 bd 8d 56 29 3d c1 58 07 bc ff 48 ee 3c
       -0.039158706 0.041342307 -0.008260907 0.029087542
000200 1e 2b 1a bd 9d 27 42 ba ae 04 b8 bc 48 dc 5a bd
       -0.037638776 -0.00074064155 -0.022463169 -0.053432733
000210 3d 30 20 bd 1e fc 34 3d cb 05 2a bc 44 31 01 3d
       -0.039108504 0.04418575 -0.010377358 0.031541124
000220 3d 59 27 3d 01 df 43 bd 98 dd b3 3c 5a 7f d8 bb
       0.04085659 -0.047820095 0.02195625 -0.0066069784
000230 d5 88 65 bd f1 e7 ce 3a 88 2a 3d 3d 79 fe df bc
       -0.056038696 0.0015785677 0.04618314 -0.027343022
000240 6c 86 5c 3c 9f a6 cc 3c d1 e6 9a ba fc 44 c6 bc
       0.013459783 0.024981795 -0.0011818056 -0.024202816
000250 05 e8 24 bd 58 25 bd 3c d5 22 89 bc 31 11 ba 3c
       -0.040260334 0.023089096 -0.016740242 0.022713276
000260 f2 4b 81 bc 3a 29 2f bd 1e 49 03 3d 0f 53 5b bd
       -0.015783284 -0.042763926 0.03205215 -0.053546008
000270 7b d6 19 3d bd 02 30 3d 48 10 03 3c d2 0c 23 3d
       0.03755806 0.04297136 0.007999487 0.03980715
000280 a0 52 f5 3c 3e a4 74 bd d3 2a 1a 3d 66 c1 dd bb
       0.029946625 -0.059726946 0.037638497 -0.0067674397
000290 16 c2 47 3c b6 69 3d bc 99 a5 2a bd c2 f7 d3 3b
       0.01219227 -0.011560848 -0.041661832 0.006468744
0002a0 58 b3 ff bc bb f7 21 bd 8c b3 68 bd 00 44 03 bd
       -0.031213447 -0.039542895 -0.056811854 -0.03204727
0002b0 73 19 06 3d 1f d6 0e 3d 04 03 8b bc 9c 3d 00 3c
       0.032739114 0.03487217 -0.016969211 0.007827189
0002c0 ee 86 59 3b 82 cb 88 bc d8 b9 fd 3c f9 1b 24 bc
       0.0033191997 -0.016698603 0.030972406 -0.010016435
0002d0 f9 e9 54 3c 92 2d 10 bd 85 be b0 bc 6a 20 2d 3d
       0.012995237 -0.03519971 -0.021575222 0.04226724
0002e0 d0 d4 87 bc e6 b4 9a 3c da 62 9b 3c 14 82 da 3c
       -0.01658097 0.018885087 0.018968035 0.026673354
0002f0 6d fa 5f 3c b3 1f 48 bd e2 b3 41 bc bd b5 48 bc
       0.013670546 -0.048858356 -0.011822673 -0.012250361
000300 3e 04 26 bd b4 f3 fe 3c 58 30 0b b8 1d 0e f4 bc
       -0.04053139 0.031122066 -3.3185206e-05 -0.029791886
000310 06 28 c2 39 bc 10 49 bd 80 4e 11 bd bf df d3 bc
       0.00037032383 -0.049088225 -0.035475254 -0.025863526
000320 83 b5 03 bd b4 0b b0 bc 4a b0 ab bc 08 88 4a bc
       -0.032155525 -0.021489955 -0.020958085 -0.012361534
000330 96 3e af bc 99 be 01 3c 51 fe 16 3c 6b 32 1c bd
       -0.021392148 0.007918977 0.009215907 -0.03813402
000340 bd 79 df bc 08 df 3d 3d 64 b9 84 3c 8b e5 b2 3c
       -0.027279729 0.046355277 0.016201682 0.02183797
000350 c6 66 ec 3b 61 f0 e2 bc 1a d9 e4 3c 29 b2 0e bd
       0.0072144 -0.027702512 0.027935553 -0.034837876
000360 ee 92 9d 3c a5 f5 59 bd 43 bd 4d bd 7b 5b 98 bc
       0.0192351 -0.05321278 -0.050229322 -0.018598309
000370 df 76 b0 bb 5d 35 22 3d 4f 0a 4c bd 19 47 af 3c
       -0.0053852643 0.039601672 -0.04981452 0.021396207
000380 1d 8b 9e bc 24 8c 56 bd 36 be ca 3b 5d f4 13 3d
       -0.019353444 -0.052379742 0.0061872257 0.036121715
000390 de fc 8d 3c 32 11 17 3d 71 c6 a4 bc 3d e3 44 bd
       0.01733249 0.036881633 -0.020114155 -0.048068274
0003a0 f7 50 96 3c 26 d9 96 bb 88 b3 4e 3d 4a 0a 4a bd
       0.018349154 -0.004603523 0.050464183 -0.04932622
0003b0 fc d4 30 bd 8e d7 bd bb fe 96 3b bd f1 bc 34 bd
       -0.043171868 -0.0057935184 -0.045798294 -0.0441255
0003c0 55 3d a5 bc a0 6c e0 bb b5 4e 2f bc a0 34 0a 3c
       -0.020170847 -0.0068488866 -0.010699918 0.008435398
0003d0 2e 2f 9a 3c 96 e5 00 bc 1a e3 20 3d ea 45 34 3c
       0.018821325 -0.007867238 0.03927908 0.011002997
0003e0 37 58 d0 bc e8 98 ac 3c a2 3d 0e 3d fd 69 4d bc
       -0.02543269 0.021069005 0.034726746 -0.012537477
0003f0 c1 90 d1 3c d8 b3 19 3d bd d0 7e 3c d7 6e 2d bd
       0.02558172 0.037525028 0.015552697 -0.042342033

conv3.weight f4 [32, 64, 1, 16]
000000 26 d4 00 3d 7f 55 3d 3c 22 40 d2 3b 17 99 28 3c
       0.03145232 0.011556028 0.0064163366 0.010290406
000010 9d 23 39 bc 85 5e f2 3a 66 b9 83 bb 2a f5 b3 bc
       -0.011299995 0.0018491304 -0.004019904 -0.02196749
000020 6f 08 01 3c e7 3c 08 3a 0a f4 30 bb 2b 9d 0e 3c
       0.007875546 0.00051970634 -0.0027000927 0.008704464
000030 bd 43 08 bd 09 ed a9 3c 30 5d 54 bb 2a 4c ec 3c
       -0.033267725 0.02074291 -0.0032404177 0.028844912
000040 6b 5c 95 be 68 1e fd bb b6 e2 a6 3d a5 f0 ad 3c
       -0.29172072 -0.007724572 0.081487104 0.021232912
000050 2a 60 ab bd 06 54 3d 3d ac f4 c1 3d 9c c5 5c 3d
       -0.08367951 0.04622271 0.094704956 0.053899392
000060 92 eb c3 3c a5 44 ac 3d 53 8c 30 3d c5 d8 be bd
       0.02391604 0.084115304 0.043102574 -0.09318689
000070 60 33 50 be 5a 8b 24 be 57 ce 87 3d d7 ec 24 3e
       -0.20332098 -0.16068783 0.06631153 0.16105972
000080 aa 13 05 bc a7 28 72 3c ee ad 96 bc b5 72 0a bc
       -0.008122364 0.0147802 -0.018393483 -0.0084502
000090 f2 e9 a5 bc de 4f 32 bc 08 28 81 bc 68 d5 74 bc
       -0.020253155 -0.0108833 -0.015766159 -0.014943458
0000a0 c9 12 24 3c 7e 68 26 3c e2 31 dd bc 11 30 83 3b
       0.010014244 0.010156749 -0.027001325 0.0040035327
0000b0 72 d6 b6 3c 77 57 8e bc 37 7c 32 3c 58 20 97 bc
       0.022319052 -0.01737569 0.010893873 -0.01844804
0000c0 aa 43 ea 3c 2e 72 69 3c 2f c9 5b bc 64 4c d4 3c
       0.028596718 0.014248414 -0.013414665 0.025915332
0000d0 0f 9c b4 3b 8f 19 64 3b 14 f1 bb bc 73 ff 1d 38
       0.0055117677 0.0034805273 -0.022942103 3.7669623e-05
0000e0 2e 70 00 bd 65 59 df 3c 18 f5 81 3c 2f 19 a1 bc
       -0.031356983 0.027264306 0.01586394 -0.019665329
0000f0 93 52 15 3b 54 41 49 3c 4e fb 40 3c 32 b9 27 bc
       0.0022784814 0.012283642 0.011778666 -0.010237025
000100 36 2e 82 3e dc 58 27 3e 0e 79 2a 3e f8 9d 80 3e
       0.2542588 0.16342491 0.16647741 0.2512052
000110 fc ff 87 3e 1b 7f 4b 3e bb b4 17 3e 51 32 2a 3e
       0.26562488 0.19872706 0.14815037 0.16620757
000120 29 39 4d 3e 00 95 6b 3e 17 f3 91 3e 53 4a 8c 3e
       0.20041336 0.23006058 0.28505775 0.27400455
000130 f7 54 5d 3e 23 4f 15 3e d0 19 4d 3e 0f 46 7d 3e
       0.21614443 0.1458097 0.20029378 0.24733756
000140 95 ca 4d be b0 9d e9 ba e3 99 48 3d ad db f0 bc
       -0.2009681 -0.0017823484 0.048974883 -0.029401625
000150 f6 24 ba bd 63 3b 38 bc 3d 56 35 3d 66 e1 96 3d
       -0.09089081 -0.011244628 0.044271696 0.0736721
000160 43 7b 3a 3d cc d6 bc ba 0b 00 69 3c 33 bc 98 bd
       0.045527708 -0.0014407276 0.014221202 -0.07457771
000170 dc dd 67 bd 01 40 ee 3b 3a a0 f9 3d 24 47 04 3e
       -0.056608066 0.0072708135 0.12188764 0.12917763
000180 66 63 25 3d bb f0 8a bc 16 53 bc 3c dd 91 67 3b
       0.040377997 -0.016960492 0.022988837 0.0035334744
000190 56 00 74 3c ce 62 72 3c 94 30 5f bc 95 47 1d 3d
       0.014892658 0.014794065 -0.013622422 0.038398344
0001a0 4e ac d1 3c 36 b3 91 3c 02 f3 bd 3c db 52 a2 bb
       0.025594857 0.01778565 0.023187164 -0.004953725
0001b0 8c f6 61 3c de e7 3c bc 79 c1 33 3c eb 0a aa bc
       0.0137916915 -0.011529891 0.01097142 -0.02075716
0001c0 40 db 04 3e 01 e0 e9 3d ba 5b f0 3d 93 16 fa 3d
       0.12974262 0.114196785 0.117362455 0.12211337
0001d0 9c dc d0 3d 0b d8 be 3d ed 6e 43 3d 91 4e 7d 3d
       0.10198328 0.09318551 0.04771321 0.061842505
0001e0 f1 19 9a 3d 1a 05 60 3d b3 a8 ac 3d ab 06 8f 3d
       0.07524479 0.054692365 0.08430614 0.06983694
0001f0 41 95 d7 3c ec 83 79 bc 8b ce 36 bd fa 98 41 bd
       0.026316287 -0.0152292065 -0.04463057 -0.04726503
000200 fa 25 18 3e bf 8e c2 3d 88 d6 59 3e 82 72 6b 3e
       0.14858237 0.09499883 0.21273243 0.229929
000210 6a d4 8b 3e 89 86 4e 3e 9b b3 4c 3e a5 90 3b 3e
       0.27310497 0.20168509 0.19990389 0.18316896
000220 e9 42 39 3e ff 02 79 3e 17 fc 8b 3e b4 45 95 3e
       0.1809193 0.24317549 0.27340767 0.29154742
000230 d0 81 86 3e 22 ba 49 3e b1 4f 51 3e ce 21 8f 3e
       0.26270914 0.1969991 0.20440556 0.27955478
000240 d2 79 1c be f2 53 0e be 45 07 87 3e e9 cd 72 3e
       -0.15280846 -0.1389921 0.26372734 0.23711361
000250 c4 49 70 bd 46 b1 38 bd e7 c9 06 be 1f 53 4a 3d
       -0.0586641 -0.045090936 -0.13162957 0.049395677
000260 18 eb 37 3e c7 47 dc 3d a4 8e ef bc 2c 33 bf 3c
       0.17960775 0.10755878 -0.029242821 0.02333983
000270 79 4b a9 bd 59 38 fb bd bf bd 48 3d 12 8b 82 3d
       -0.082663484 -0.12266607 0.04900908 0.06374182
000280 ad 38 e8 bd 2f 91 47 3e c8 26 81 3e 0e 3e d4 3c
       -0.11338935 0.19488977 0.252249 0.025908496
000290 c4 f0 70 bd e3 98 af bd 84 1c 00 be ad 41 48 bc
       -0.058823362 -0.08574083 -0.12510878 -0.01222269
0002a0 26 0c 2f 3e 56 eb 5c 39 52 32 82 bd 5a 49 08 be
       0.17094478 0.00021068504 -0.06357254 -0.13309231
0002b0 5a 13 26 be af d4 c3 bd ed 9f 39 3e 94 88 24 3e
       -0.1621832 -0.095620506 0.18127413 0.16067725
0002c0 dd 75 9a bd 7b 71 a3 3b 90 47 83 3e 0a 00 cc 3d
       -0.07542012 0.004987893 0.25640535 0.09960945
0002d0 10 cf 14 bd 98 a8 a1 bd fb 25 93 bd a2 15 a8 3d
       -0.036330283 -0.07893485 -0.071849786 0.08207251
0002e0 70 42 07 3d cb 8f 30 bd 1b 6a d7 bd f9 e3 f6 bd
       0.033022344 -0.04310588 -0.10518285 -0.12055201
0002f0 8c b2 79 bd 0e 14 14 3c 68 e8 0f 3e e5 76 62 3d
       -0.06096129 0.009037985 0.140535 0.055289168
000300 db 77 c3 bd b4 9c 6f bd 57 f4 84 bd fb 21 fd bb
       -0.09544345 -0.058499053 -0.064919166 -0.007724998
000310 9c b0 72 bd b9 5f 96 bc ac 76 a5 bc 13 61 f4 bc
       -0.05925046 -0.018356191 -0.020198189 -0.029831445
000320 ed 81 fe 3b 38 6a 05 3d b2 b6 d6 3c 88 9e 51 3c
       0.007766953 0.032572 0.026210163 0.012794144
000330 75 d7 16 3d 94 da 40 3c 4b 8c 74 bc f1 80 4b 3c
       0.03682657 0.011770863 -0.014926027 0.012420879
000340 47 93 b2 bc 6c f2 dd 3c 54 c2 bb ba 03 fc e1 3c
       -0.021798743 0.027093135 -0.0014324882 0.027585989
000350 52 23 5f 3d aa 68 aa bc a7 5a f8 bc 5f f8 59 ba
       0.054477043 -0.02080186 -0.030316664 -0.0008314903
000360 8b 32 c2 bb dc f4 a6 3b 9f a9 4c bd 25 fc 8c bc
       -0.0059264353 0.0050951075 -0.04996645 -0.017210076
000370 bc f4 af bc 83 ff 09 bc 81 68 a0 bc b9 fc 1a bd
       -0.021479003 -0.008422735 -0.019581081 -0.03783867
000380 00 af 1a bc 51 b8 85 bd d7 b0 ea bc 48 06 33 3b
       -0.009441137 -0.06529296 -0.028648777 0.0027316976
000390 da a4 52 bd 15 d1 4a bd e2 d4 78 bd fa c6 76 bd
       -0.051426746 -0.049515802 -0.060749896 -0.060248353
0003a0 70 6d 99 bc a1 8f 74 3c 24 48 4c bb e1 d9 af bc
       -0.018728942 0.014926822 -0.003117093 -0.021466197
0003b0 7b ef e6 3c 9e 78 84 bc d3 95 33 bd aa 31 d7 ba
       0.028190365 -0.016170796 -0.043844055 -0.0016417999
0003c0 69 62 27 bd 2b 84 2f bd ed b9 12 3d 16 1e 8f bc
       -0.040865336 -0.042850655 0.035821844 -0.0174704
0003d0 52 78 af 3c 52 37 30 bd 87 b5 67 3c 7c 47 03 bd
       0.021419678 -0.043021508 0.014142401 -0.032050595
0003e0 0b 70 a8 3c 44 d6 1d bb de 98 45 3c 4a 0d f2 bc
       0.020561239 -0.002408401 0.012060372 -0.029547352
0003f0 ce 0d d0 3c f3 18 3c 3c 49 e8 89 3c d2 d9 64 bb
       0.025397208 0.011480558 0.016834395 -0.003491987

conv4.weight f4 [1, 32, 1, 1]
000000 bf 14 11 3f 6e e0 8e bd b1 81 da 3c e4 c0 28 be
       0.5667228 -0.069764 0.02667317 -0.16479832
000010 7a d5 a6 bd 92 a4 23 3f c6 60 86 3c 85 3b 73 bb
       -0.08146186 0.6392299 0.016403567 -0.0037114334
000020 78 f8 d7 bd e7 df 61 bc b3 fd dc 3c fc 05 51 bd
       -0.105454385 -0.013786293 0.026976442 -0.051031098
000030 d7 c3 6e 3c 69 a2 2a 3f f1 77 1e 3e b7 13 4b 3f
       0.014573059 0.6665407 0.15475442 0.7932696
000040 d0 82 3a be b0 eb 22 3e 7e 92 81 3e 1b 3d 26 be
       -0.18213964 0.1591022 0.25307077 -0.16234247
000050 e9 c9 fd 3e e7 53 76 ba 80 43 73 3d 5a 7d 1c 3f
       0.49568108 -0.00093966577 0.059390545 0.6112877
000060 c5 4a 39 3f d4 ed 2b 3f 05 6c 36 3f bd c4 05 be
       0.72379714 0.6715977 0.71258575 -0.13063331
000070 ef df e5 3d 45 73 6b bd d5 6c 4a 3d 71 e9 30 3c
       0.112243526 -0.057482976 0.049420197 0.010797844

exp_avg f4 [128, 4, 1, 3]
000000 fc d1 8d b7 7e 1b 98 b7 44 86 c3 b7 56 9b 4f b7
       -1.6906291e-05 -1.8132614e-05 -2.3308334e-05 -1.2374328e-05
000010 46 ee 7c b7 96 d2 b1 b7 9c 6d af b7 6b 08 be b7
       -1.5075848e-05 -2.1198106e-05 -2.0912667e-05 -2.2653685e-05
000020 f8 ad f0 b7 e6 8e 9b b7 79 7a b1 b7 78 7a da b7
       -2.869124e-05 -1.8543982e-05 -2.1157075e-05 -2.6044654e-05
000030 b6 2b fb b4 1d 3d 8e b6 a9 4e b8 b6 44 6f e6 b5
       -4.6784197e-07 -4.2390443e-06 -5.4927846e-06 -1.7168718e-06
000040 4c 82 4e b6 95 88 86 b6 88 ff d4 b6 67 a9 b7 b6
       -3.0772235e-06 -4.0094114e-06 -6.34784e-06 -5.473546e-06
000050 e7 cc b6 b6 88 99 93 b6 63 3d 8f b6 c9 11 b3 b6
       -5.4478764e-06 -4.398815e-06 -4.2688785e-06 -5.336686e-06
000060 41 8b b9 b7 0b 46 c4 b7 12 8b fb b7 e8 ba 87 b7
       -2.2118564e-05 -2.3397637e-05 -2.9986291e-05 -1.618029e-05
000070 be c8 ac b7 c6 3f ee b7 93 1f d7 b7 15 f2 fa b7
       -2.0597476e-05 -2.8401508e-05 -2.56447e-05 -2.991505e-05
000080 a8 fb 19 b8 04 d7 c5 b7 a8 1b e7 b7 79 3c 0f b8
       -3.6712416e-05 -2.3584354e-05 -2.7550224e-05 -3.4150176e-05
000090 41 37 70 b7 6d 56 61 b7 bb f5 5f b7 47 3c 2d b7
       -1.431798e-05 -1.3431168e-05 -1.3349049e-05 -1.0325638e-05
0000a0 48 38 1f b7 73 fb 20 b7 59 fc 8f b7 89 05 85 b7
       -9.4902425e-06 -9.595288e-06 -1.7164437e-05 -1.5857413e-05
0000b0 e5 0d 8c b7 1e 06 6b b7 f4 ed 67 b7 e7 90 66 b7
       -1.669577e-05 -1.4008516e-05 -1.3824076e-05 -1.3742806e-05
0000c0 85 f1 87 36 f7 5d 10 36 87 b3 20 b6 a6 5d 81 36
       4.05143e-06 2.1512367e-06 -2.3946357e-06 3.8554017e-06
0000d0 18 1d db 35 55 82 2a b6 c4 b0 86 36 cb 9d 16 36
       1.6325239e-06 -2.5407837e-06 4.0140894e-06 2.244359e-06
0000e0 4a 21 fb b5 7d a0 7f 36 ca ce d6 35 d0 22 10 b6
       -1.8710646e-06 3.8091378e-06 1.6004426e-06 -2.1477936e-06
0000f0 cd 8f 5b b7 de 30 9d b7 78 0a 8b b7 fa 7f 4e b7
       -1.3086898e-05 -1.8738614e-05 -1.6574966e-05 -1.2308354e-05
000100 73 12 40 b7 65 e4 82 b7 03 1e bb b7 86 74 92 b7
       -1.1448387e-05 -1.5603562e-05 -2.2306112e-05 -1.7458817e-05
000110 03 f9 a0 b7 62 da 8b b7 47 45 7c b7 23 ea 9c b7
       -1.9189441e-05 -1.6671784e-05 -1.50365e-05 -1.8705678e-05
000120 41 dd f8 b7 9d 5c 0c b8 b9 31 15 b8 b8 c1 cc b7
       -2.9666933e-05 -3.3464854e-05 -3.5570676e-05 -2.4408902e-05
000130 13 2c e7 b7 49 44 e0 b7 ea 3a 2b b8 45 08 36 b8
       -2.755787e-05 -2.6734679e-05 -4.0824445e-05 -4.3399883e-05
000140 6e 02 35 b8 6a 8f 15 b8 bf 63 22 b8 f8 e9 1b b8
       -4.3156026e-05 -3.5657933e-05 -3.8716706e-05 -3.717278e-05
000150 53 89 13 b7 21 6f 22 b7 05 0c 60 b7 07 22 a4 b6
       -8.793856e-06 -9.681827e-06 -1.3354239e-05 -4.891542e-06
000160 e0 22 ea b6 5e 56 31 b7 e4 d2 45 b7 03 06 41 b7
       -6.9778034e-06 -1.0570131e-05 -1.1791217e-05 -1.1505096e-05
000170 19 6e 80 b7 9e 79 0e b7 27 57 2f b7 79 f9 52 b7
       -1.5310057e-05 -8.492176e-06 -1.0451105e-05 -1.257506e-05
000180 04 61 2e b6 7d 09 3c 36 d7 dc a5 36 63 3a 56 b7
       -2.598449e-06 2.8019706e-06 4.9430923e-06 -1.2768988e-05
000190 62 06 21 b7 1b 88 6d b7 4d d5 98 34 0f 21 cb 36
       -9.597834e-06 -1.415799e-05 2.8467403e-07 6.05372e-06
0001a0 f3 cb ee 36 53 71 26 b7 01 c7 a7 b6 33 d5 f1 b6
       7.1166955e-06 -9.920756e-06 -5.000155e-06 -7.2071794e-06
0001b0 ef fc 8d b6 8f d9 b0 36 f0 48 53 b6 6e 22 4d b7
       -4.231573e-06 5.270536e-06 -3.1483905e-06 -1.22269685e-05
0001c0 9c e4 17 b7 28 d4 88 b7 6e ff 7d b5 e5 ce f5 36
       -9.053529e-06 -1.6311256e-05 -9.4621544e-07 7.3256547e-06
0001d0 58 b1 66 34 13 0d 04 b7 a6 fa 8a b6 bd b6 30 b7
       2.1484936e-07 -7.870857e-06 -4.1419e-06 -1.0532965e-05
0001e0 d9 9c a3 b5 30 95 9a b7 86 96 d1 b7 6e eb db b5
       -1.2190095e-06 -1.8427701e-05 -2.4984834e-05 -1.638529e-06
0001f0 a9 e6 af b7 14 68 d8 b7 23 5e 17 b6 5f 58 a1 b7
       -2.0969035e-05 -2.5797672e-05 -2.2555548e-06 -1.9233847e-05
000200 bf cf d6 b7 90 48 9f b6 29 78 aa b7 31 10 d9 b7
       -2.5607527e-05 -4.7470166e-06 -2.0321533e-05 -2.5875956e-05
000210 46 9d 8e b7 39 09 b8 b7 32 d0 bf b7 38 bf 89 b7
       -1.7000955e-05 -2.1938804e-05 -2.2865923e-05 -1.6420716e-05
000220 30 fe 8c b7 39 21 b0 b7 1d aa dc b7 d8 27 b8 b7
       -1.6807666e-05 -2.0996305e-05 -2.6305259e-05 -2.1953063e-05
000230 8e 00 d0 b7 64 90 b6 b7 99 42 af b7 ed e7 ca b7
       -2.479579e-05 -2.1763328e-05 -2.0892638e-05 -2.4188275e-05
000240 c0 01 2b b6 9e a0 11 36 b9 c7 9c b6 95 52 4f b7
       -2.5482004e-06 2.1700175e-06 -4.672413e-06 -1.2357389e-05
000250 78 bb 37 b7 cf ba b2 b7 4c b5 b3 35 a7 09 c3 36
       -1.09512985e-05 -2.1306243e-05 1.3389304e-06 5.8125765e-06
000260 5c 13 92 b5 1e 10 06 b7 6a 1e a8 b6 b8 38 79 b7
       -1.0883482e-06 -7.990775e-06 -5.010331e-06 -1.4854762e-05
000270 b9 23 78 b5 23 f9 b7 35 36 1b 22 36 12 99 24 b7
       -9.243918e-07 1.3707071e-06 2.415572e-06 -9.810801e-06
000280 bc 32 1d b7 ba 76 65 b7 fa 8f fc 35 79 fc 98 36
       -9.369742e-06 -1.3677107e-05 1.8817366e-06 4.5593447e-06
000290 77 ad 9e 36 59 89 ed b6 53 7e ad b6 a8 16 f6 b6
       4.728961e-06 -7.07914e-06 -5.170508e-06 -7.334009e-06
0002a0 5e 50 1c b7 b5 e3 19 b7 20 1f 27 b7 5b a0 b9 b6
       -9.3170365e-06 -9.172528e-06 -9.9612225e-06 -5.5320975e-06
0002b0 e3 c6 ed b6 1e 96 ea b6 2e c8 33 b7 31 85 5a b7
       -7.086304e-06 -6.9912194e-06 -1.0715839e-05 -1.3024824e-05
0002c0 32 d7 6f b7 16 66 20 b7 b4 33 3b b7 42 38 31 b7
       -1.4295614e-05 -9.560512e-06 -1.1158107e-05 -1.0563121e-05
0002d0 81 54 57 b6 83 c3 a2 36 a1 e4 80 b5 50 a1 48 b7
       -3.2086684e-06 4.850737e-06 -9.603283e-07 -1.1958487e-05
0002e0 09 ef ef b6 13 fd 8d b7 3b 22 58 33 6f cf f3 36
       -7.1505824e-06 -1.6926357e-05 5.032255e-08 7.266113e-06
0002f0 d7 4a b4 35 8b 42 fc b6 0d fc 35 b6 79 10 4b b7
       1.3432826e-06 -7.517932e-06 -2.7117815e-06 -1.2103578e-05
000300 98 2f aa b6 57 d2 4a 35 9e 14 bc 36 72 54 5e b7
       -5.0719354e-06 7.555695e-07 5.6052368e-06 -1.3251893e-05
000310 c5 f4 17 b7 3d cf 22 b7 3d eb 02 b6 9c 7e 80 36
       -9.057291e-06 -9.704204e-06 -1.9508436e-06 3.8294365e-06
000320 75 35 fe 36 e6 62 25 b7 94 c4 9b b6 2d ed 97 b6
       7.576013e-06 -9.857793e-06 -4.6422447e-06 -4.5277616e-06
000330 e2 c0 dd b7 b4 08 e9 b7 a5 a8 d9 b7 7c c0 9b b7
       -2.6435071e-05 -2.7779817e-05 -2.5946947e-05 -1.8567072e-05
000340 73 aa ab b7 5d b5 94 b7 ac 22 13 b8 69 62 1a b8
       -2.046416e-05 -1.7727429e-05 -3.5079822e-05 -3.6808113e-05
000350 41 cb 11 b8 a0 33 f6 b7 4a 8c 01 b8 f0 7f e4 b7
       -3.475999e-05 -2.9349525e-05 -3.088665e-05 -2.7239294e-05
000360 19 32 c1 b6 ae 4e 41 36 bf a3 44 b6 bb 88 48 b7
       -5.7576804e-06 2.8805039e-06 -2.9301589e-06 -1.1952764e-05
000370 55 fd 07 b7 5e 29 62 b7 2e 85 2b b6 92 bc a7 36
       -8.1056105e-06 -1.3480281e-05 -2.5558506e-06 4.9989403e-06
000380 be 12 58 b4 12 d1 07 b7 6a f3 5e b6 63 17 19 b7
       -2.0123386e-07 -8.095305e-06 -3.3222263e-06 -9.124956e-06
000390 83 c4 04 b7 29 a3 f3 b6 74 ab 67 b7 bf 49 92 b6
       -7.913567e-06 -7.2609587e-06 -1.38085925e-05 -4.3597242e-06
0003a0 26 d6 cd b6 8b 2a 52 b7 91 7f 01 b7 bf a6 21 b7
       -6.1344062e-06 -1.2526881e-05 -7.7187005e-06 -9.635171e-06
0003b0 fc 58 93 b7 2f 11 ec b6 9e 5a 1f b7 d1 0a 77 b7
       -1.7565202e-05 -7.0353485e-06 -9.498237e-06 -1.4724866e-05
0003c0 b8 e9 ea 35 10 98 a2 36 59 37 3e b6 74 7d 01 b7
       1.750238e-06 4.8456786e-06 -2.8344423e-06 -7.7182085e-06
0003d0 d1 bd 02 b7 a9 56 a4 b7 9a 91 a8 36 9e 5e 06 37
       -7.792799e-06 -1.9590678e-05 5.0237404e-06 8.009052e-06
0003e0 f9 ec 07 35 3d be 86 b6 a9 e2 54 b6 53 93 57 b7
       5.063626e-07 -4.015658e-06 -3.1722395e-06 -1.28493e-05
0003f0 ea be d2 35 cf d2 87 36 c3 48 c6 35 b8 6a f4 b6
       1.5701783e-06 4.047855e-06 1.4773326e-06 -7.2841904e-06

exp_avg_sq f4 [128, 4, 1, 3]
000000 4f 57 50 33 22 74 73 33 93 ad 8b 33 03 e4 38 33
       4.850818e-08 5.668347e-08 6.504265e-08 4.3048214e-08
000010 78 ec 5f 33 73 65 85 33 60 b7 89 33 db 6e 9c 33
       5.21363e-08 6.2117486e-08 6.412915e-08 7.2844806e-08
000020 ed 24 af 33 6a d6 69 33 a1 85 88 33 54 4a 9a 33
       8.155789e-08 5.444455e-08 6.3573005e-08 7.184704e-08
000030 5a cd 61 32 d0 02 7f 32 4d a9 64 32 7f 8a 60 32
       1.3143415e-08 1.4843593e-08 1.3309841e-08 1.3070006e-08
000040 7b 11 58 32 40 32 37 32 ab 1b 91 32 02 e4 95 32
       1.2576829e-08 1.06634275e-08 1.6892804e-08 1.7449569e-08
000050 f8 04 86 32 4b 29 86 32 f1 cb 6d 32 4e 5d 52 32
       1.5601913e-08 1.5618431e-08 1.38415865e-08 1.2244824e-08
000060 e4 55 93 33 04 1e ad 33 a8 e8 c2 33 cd 04 84 33
       6.860844e-08 8.0614e-08 9.076149e-08 6.147602e-08
000070 41 75 a1 33 f9 12 ba 33 e4 12 c4 33 00 97 df 33
       7.518475e-08 8.664751e-08 9.1303974e-08 1.04117134e-07
000080 ac 73 f9 33 3b f8 a8 33 97 6d c0 33 b7 2a d9 33
       1.1616007e-07 7.8682625e-08 8.960631e-08 1.011262e-07
000090 af 64 67 33 c4 b0 82 33 0b f0 90 33 af be 4a 33
       5.387545e-08 6.08575e-08 6.749186e-08 4.7205216e-08
0000a0 30 df 69 33 49 1e 82 33 9b 0c 98 33 82 69 a8 33
       5.4452528e-08 6.0591056e-08 7.0803445e-08 7.8423014e-08
0000b0 41 1e b6 33 76 97 7c 33 a8 2e 90 33 da d5 9c 33
       8.4805386e-08 5.8811075e-08 6.714009e-08 7.3032155e-08
0000c0 2f 52 e2 2f 6e ad bb 2f 2f 26 f2 2f 7e 75 c6 2f
       4.1167555e-10 3.413833e-10 4.4046675e-10 3.6099473e-10
0000d0 78 09 ee 2f c4 23 10 30 32 9d 0e 30 46 74 04 30
       4.3298676e-10 5.243772e-10 5.1882687e-10 4.8186555e-10
0000e0 27 ce f9 2f ad 18 dd 2f 87 af f2 2f e9 11 e3 2f
       4.5439316e-10 4.02172e-10 4.4144263e-10 4.1303785e-10
0000f0 45 66 23 33 a9 16 33 33 a3 c3 67 33 38 0e 09 33
       3.804441e-08 4.1697295e-08 5.396181e-08 3.191073e-08
000100 ea a3 19 33 15 34 58 33 18 9f 5e 33 5b 30 74 33
       3.5772167e-08 5.0338787e-08 5.1833098e-08 5.6854656e-08
000110 b9 9d 96 33 55 f4 1f 33 ec 2f 54 33 c2 11 82 33
       7.013609e-08 3.724229e-08 4.940368e-08 6.056827e-08
000120 6f fe 0b 34 00 bc 25 34 be 37 42 34 87 9c ff 33
       1.3037946e-07 1.5435216e-07 1.8087937e-07 1.1902835e-07
000130 8d cb 19 34 16 0f 32 34 26 7c 3c 34 d1 e2 5a 34
       1.4323287e-07 1.658303e-07 1.755403e-07 2.0385347e-07
000140 4a 46 77 34 90 7a 1b 34 3d 06 3b 34 44 50 55 34
       2.3029239e-07 1.4480088e-07 1.7418002e-07 1.9866371e-07
000150 90 00 24 32 7c ad 60 32 9a 9e 88 32 d4 13 02 32
       9.546184e-09 1.3077962e-08 1.5904607e-08 7.571504e-09
000160 b8 e9 47 32 52 3b 81 32 4e fc 70 32 9d 82 9a 32
       1.1636466e-08 1.5044552e-08 1.4027206e-08 1.7987356e-08
000170 44 90 b5 32 f3 4a 3f 32 b9 0c 86 32 f5 4d a0 32
       2.1136778e-08 1.1134705e-08 1.5605439e-08 1.8661902e-08
000180 dd 7b 41 32 06 da 2c 32 11 89 52 32 3d 6f 85 32
       1.1262242e-08 1.00612905e-08 1.2254774e-08 1.5533823e-08
000190 d2 64 c5 32 9f f3 d7 32 ae 04 2e 32 0e ae f8 31
       2.2979666e-08 2.514008e-08 1.0129197e-08 7.2375377e-09
0001a0 f4 73 27 32 91 f7 17 32 7c 5f 41 32 8f 6a 71 32
       9.747044e-09 8.845647e-09 1.1255789e-08 1.4052275e-08
0001b0 51 48 0a 32 d5 f5 07 32 51 ea 17 32 04 a4 93 32
       8.0491e-09 7.91393e-09 8.842634e-09 1.7187638e-08
0001c0 fb 94 9d 32 51 da 9b 32 73 77 da 31 3f 4a df 31
       1.8344954e-08 1.8143654e-08 6.358215e-09 6.498595e-09
0001d0 dd cc 10 32 c4 40 09 32 60 56 10 32 ee 81 39 32
       8.428484e-09 7.9891755e-09 8.401543e-09 1.079796e-08
0001e0 60 01 09 32 f5 78 65 32 f8 f2 93 32 50 92 0d 32
       7.974762e-09 1.3357057e-08 1.7223542e-08 8.240548e-09
0001f0 20 f6 82 32 b0 25 99 32 67 b8 3c 32 6a d6 73 32
       1.5245917e-08 1.7828683e-08 1.09849685e-08 1.4193214e-08
000200 f8 af 90 32 19 09 24 32 2a 8e 83 32 a8 6a 8c 32
       1.6843828e-08 9.548125e-09 1.5315056e-08 1.6346647e-08
000210 87 6a 52 33 79 16 6c 33 3f a0 95 33 f2 dc 2f 33
       4.899132e-08 5.496847e-08 6.967502e-08 4.094631e-08
000220 fb 32 4e 33 30 d6 8a 33 9f dc 90 33 60 84 a0 33
       4.800948e-08 6.465086e-08 6.745653e-08 7.4746595e-08
000230 e1 15 c2 33 00 0a 57 33 6c 96 89 33 77 bf a8 33
       9.037809e-08 5.0067683e-08 6.406921e-08 7.857937e-08
000240 f1 58 d2 31 cd 0a e1 31 e5 49 f9 31 e2 a3 78 32
       6.121916e-09 6.5495898e-09 7.2552546e-09 1.44727625e-08
000250 f6 1b 8d 32 73 ba 94 32 3e c5 b6 31 48 29 a8 31
       1.6427276e-08 1.7314255e-08 5.319321e-09 4.8941367e-09
000260 e4 86 e0 31 78 8f d3 31 e8 5e e7 31 bd 9e 19 32
       6.5345933e-09 6.1572187e-09 6.7337744e-09 8.941865e-09
000270 7a 39 c5 31 23 63 db 31 02 d6 fd 31 9d cc 5e 32
       5.739989e-09 6.3850094e-09 7.387599e-09 1.2968624e-08
000280 f7 db 8d 32 25 1f 90 32 28 34 b8 31 0c 82 ab 31
       1.6514589e-08 1.677797e-08 5.3610343e-09 4.9915396e-09
000290 08 6a eb 31 6a 82 ca 31 48 4f f0 31 f9 5c 18 32
       6.8514545e-09 5.8938e-09 6.9939325e-09 8.868704e-09
0002a0 fc b6 c9 32 59 c6 e8 32 ff 38 fb 32 8c 29 b5 32
       2.3482691e-08 2.7098553e-08 2.9246165e-08 2.1090067e-08
0002b0 6e 89 d3 32 9e 53 e4 32 dd 71 03 33 17 b4 13 33
       2.4626129e-08 2.6580718e-08 3.0604372e-08 3.4389895e-08
0002c0 8f 4d 1f 33 13 f2 e6 32 63 3e fe 32 b1 b2 08 33
       3.709061e-08 2.6885607e-08 2.9597862e-08 3.1827486e-08
0002d0 da 11 c0 31 1e a3 d1 31 23 f5 e2 31 3e aa 7a 32
       5.589965e-09 6.101245e-09 6.6053345e-09 1.4590624e-08
0002e0 d5 02 8f 32 0f 4d 98 32 7a 29 ee 31 ad 80 d2 31
       1.6648679e-08 1.7730171e-08 6.931427e-09 6.126433e-09
0002f0 4c 0c fb 31 fc 51 b9 31 ef b2 d0 31 5f 86 0d 32
       7.3064594e-09 5.393529e-09 6.073939e-09 8.237833e-09
000300 2e 8d b7 31 ea a2 c0 31 56 40 d6 31 37 8e 5a 32
       5.3420512e-09 5.6064566e-09 6.235534e-09 1.2721606e-08
000310 01 91 84 32 e6 a2 88 32 96 9f ec 31 df e4 bb 31
       1.5432763e-08 1.5906561e-08 6.886647e-09 5.468436e-09
000320 96 54 d7 31 99 e6 b2 31 46 06 c7 31 b9 b4 f0 31
       6.26694e-09 5.2066977e-09 5.7923755e-09 7.005465e-09
000330 54 7c ea 33 5d 6b 05 34 22 d3 16 34 a5 76 cc 33
       1.0919089e-07 1.2425649e-07 1.4046648e-07 9.5210716e-08
000340 da db f0 33 da 92 08 34 0b 22 1d 34 f1 e3 2f 34
       1.1215862e-07 1.2719411e-07 1.4634149e-07 1.638107e-07
000350 d6 32 41 34 76 d5 00 34 a5 53 14 34 c4 5f 23 34
       1.799302e-07 1.1998586e-07 1.3814004e-07 1.5215397e-07
000360 f4 26 99 31 6b 42 92 31 05 d2 9d 31 03 75 3b 32
       4.4573145e-09 4.25671e-09 4.593178e-09 1.0911438e-08
000370 91 90 36 32 34 ec 30 32 e2 8b 78 31 24 e5 7b 31
       1.0626665e-08 1.0298255e-08 3.6168264e-09 3.6655559e-09
000380 7a 11 a5 31 72 af 96 31 3c 76 92 31 b4 e8 ae 31
       4.804119e-09 4.3855204e-09 4.262601e-09 5.090522e-09
000390 41 71 cc 32 dc c8 f5 32 c5 72 07 33 42 1d ba 32
       2.3800228e-08 2.8613094e-08 3.153652e-08 2.1666555e-08
0003a0 39 90 e0 32 2d e0 00 33 8a 91 06 33 a7 ef 19 33
       2.6142617e-08 3.000621e-08 3.1331673e-08 3.584105e-08
0003b0 3a b9 28 33 4b 7a f1 32 65 58 07 33 6e d1 15 33
       3.928401e-08 2.8111705e-08 3.151253e-08 3.488224e-08
0003c0 ee e1 d0 31 cd 71 eb 31 45 59 07 32 dd ee 6d 32
       6.079282e-09 6.852338e-09 7.878332e-09 1.3849527e-08
0003d0 50 c4 92 32 dd a7 9d 32 77 e0 b1 31 7f 82 ac 31
       1.708591e-08 1.8353541e-08 5.1768967e-09 5.0206945e-09
0003e0 ee c3 ee 31 10 96 cf 31 0c fe f9 31 ef 98 25 32
       6.9489863e-09 6.041553e-09 7.2757356e-09 9.639037e-09
0003f0 19 21 c7 31 2d 4e c0 31 93 cc d7 31 2e af 3f 32
       5.795425e-09 5.596823e-09 6.280581e-09 1.11574945e-08

exp_avg f4 [64, 128, 1, 3]
000000 03 00 00 00 03 00 00 00 02 00 00 00 04 00 00 80
       4e-45 4e-45 3e-45 -6e-45
000010 03 00 00 00 04 00 00 00 03 00 00 00 04 00 00 00
       4e-45 6e-45 4e-45 6e-45
000020 01 00 00 00 00 00 00 00 02 00 00 80 04 00 00 00
       1e-45 0.0 -3e-45 6e-45
000030 04 00 00 00 04 00 00 80 04 00 00 00 04 00 00 00
       6e-45 -6e-45 6e-45 6e-45
000040 04 00 00 00 04 00 00 00 03 00 00 00 02 00 00 00
       6e-45 6e-45 4e-45 3e-45
000050 04 00 00 00 04 00 00 00 03 00 00 00 04 00 00 00
       6e-45 6e-45 4e-45 6e-45
000060 04 00 00 00 04 00 00 00 04 00 00 00 04 00 00 80
       6e-45 6e-45 6e-45 -6e-45
000070 04 00 00 00 04 00 00 00 03 00 00 00 03 00 00 00
       6e-45 6e-45 4e-45 4e-45
000080 03 00 00 00 01 00 00 80 03 00 00 00 04 00 00 00
       4e-45 -1e-45 4e-45 6e-45
000090 03 00 00 00 04 00 00 00 04 00 00 00 04 00 00 00
       4e-45 6e-45 6e-45 6e-45
0000a0 04 00 00 00 04 00 00 80 04 00 00 00 03 00 00 00
       6e-45 -6e-45 6e-45 4e-45
0000b0 04 00 00 00 03 00 00 00 03 00 00 00 03 00 00 00
       6e-45 4e-45 4e-45 4e-45
0000c0 03 00 00 00 04 00 00 00 01 00 00 00 04 00 00 00
       4e-45 6e-45 1e-45 6e-45
0000d0 02 00 00 00 04 00 00 00 04 00 00 80 04 00 00 00
       3e-45 6e-45 -6e-45 6e-45
0000e0 04 00 00 00 04 00 00 80 04 00 00 00 04 00 00 00
       6e-45 -6e-45 6e-45 6e-45
0000f0 04 00 00 00 04 00 00 00 04 00 00 80 03 00 00 00
       6e-45 6e-45 -6e-45 4e-45
000100 04 00 00 00 03 00 00 00 04 00 00 80 04 00 00 00
       6e-45 4e-45 -6e-45 6e-45
000110 04 00 00 00 04 00 00 00 04 00 00 00 04 00 00 80
       6e-45 6e-45 6e-45 -6e-45
000120 04 00 00 00 04 00 00 00 03 00 00 00 03 00 00 00
       6e-45 6e-45 4e-45 4e-45
000130 03 00 00 00 04 00 00 80 04 00 00 80 04 00 00 00
       4e-45 -6e-45 -6e-45 6e-45
000140 04 00 00 00 03 00 00 00 02 00 00 00 03 00 00 00
       6e-45 4e-45 3e-45 4e-45
000150 03 00 00 00 03 00 00 00 02 00 00 00 03 00 00 00
       4e-45 4e-45 3e-45 4e-45
000160 03 00 00 00 01 00 00 00 04 00 00 80 03 00 00 00
       4e-45 1e-45 -6e-45 4e-45
000170 03 00 00 00 04 00 00 80 04 00 00 00 04 00 00 80
       4e-45 -6e-45 6e-45 -6e-45
000180 04 00 00 00 04 00 00 80 04 00 00 00 04 00 00 00
       6e-45 -6e-45 6e-45 6e-45
000190 04 00 00 00 04 00 00 80 04 00 00 80 04 00 00 80
       6e-45 -6e-45 -6e-45 -6e-45
0001a0 04 00 00 00 04 00 00 00 04 00 00 00 04 00 00 00
       6e-45 6e-45 6e-45 6e-45
0001b0 04 00 00 00 04 00 00 00 04 00 00 00 04 00 00 80
       6e-45 6e-45 6e-45 -6e-45
0001c0 03 00 00 00 04 00 00 00 04 00 00 80 04 00 00 00
       4e-45 6e-45 -6e-45 6e-45
0001d0 04 00 00 00 04 00 00 00 04 00 00 80 04 00 00 00
       6e-45 6e-45 -6e-45 6e-45
0001e0 04 00 00 80 04 00 00 00 04 00 00 80 03 00 00 00
       -6e-45 6e-45 -6e-45 4e-45
0001f0 04 00 00 00 00 00 00 00 03 00 00 00 04 00 00 00
       6e-45 0.0 4e-45 6e-45
000200 04 00 00 80 04 00 00 00 04 00 00 00 02 00 00 00
       -6e-45 6e-45 6e-45 3e-45
000210 04 00 00 80 01 00 00 00 04 00 00 00 04 00 00 80
       -6e-45 1e-45 6e-45 -6e-45
000220 03 00 00 00 04 00 00 00 04 00 00 00 04 00 00 00
       4e-45 6e-45 6e-45 6e-45
000230 04 00 00 00 04 00 00 80 04 00 00 00 03 00 00 00
       6e-45 -6e-45 6e-45 4e-45
000240 04 00 00 00 04 00 00 00 04 00 00 00 04 00 00 00
       6e-45 6e-45 6e-45 6e-45
000250 04 00 00 00 04 00 00 80 04 00 00 00 04 00 00 80
       6e-45 -6e-45 6e-45 -6e-45
000260 04 00 00 80 04 00 00 00 04 00 00 80 04 00 00 00
       -6e-45 6e-45 -6e-45 6e-45
000270 04 00 00 80 04 00 00 00 04 00 00 80 04 00 00 80
       -6e-45 6e-45 -6e-45 -6e-45
000280 04 00 00 00 04 00 00 00 04 00 00 80 04 00 00 00
       6e-45 6e-45 -6e-45 6e-45
000290 04 00 00 80 04 00 00 00 04 00 00 00 04 00 00 80
       -6e-45 6e-45 6e-45 -6e-45
0002a0 04 00 00 00 04 00 00 80 04 00 00 00 04 00 00 80
       6e-45 -6e-45 6e-45 -6e-45
0002b0 04 00 00 00 04 00 00 00 04 00 00 00 04 00 00 00
       6e-45 6e-45 6e-45 6e-45
0002c0 04 00 00 80 04 00 00 00 04 00 00 00 04 00 00 80
       -6e-45 6e-45 6e-45 -6e-45
0002d0 04 00 00 00 04 00 00 00 03 00 00 00 04 00 00 00
       6e-45 6e-45 4e-45 6e-45
0002e0 04 00 00 80 04 00 00 80 04 00 00 00 04 00 00 00
       -6e-45 -6e-45 6e-45 6e-45
0002f0 04 00 00 00 04 00 00 80 04 00 00 00 04 00 00 00
       6e-45 -6e-45 6e-45 6e-45
000300 00 00 00 00 02 00 00 00 04 00 00 00 04 00 00 00
       0.0 3e-45 6e-45 6e-45
000310 04 00 00 00 03 00 00 80 02 00 00 80 04 00 00 00
       6e-45 -4e-45 -3e-45 6e-45
000320 04 00 00 00 04 00 00 80 04 00 00 80 04 00 00 00
       6e-45 -6e-45 -6e-45 6e-45
000330 04 00 00 00 04 00 00 00 04 00 00 80 04 00 00 00
       6e-45 6e-45 -6e-45 6e-45
000340 04 00 00 00 04 00 00 80 04 00 00 00 04 00 00 00
       6e-45 -6e-45 6e-45 6e-45
000350 04 00 00 80 04 00 00 00 03 00 00 00 03 00 00 80
       -6e-45 6e-45 4e-45 -4e-45
000360 04 00 00 00 04 00 00 00 04 00 00 00 04 00 00 00
       6e-45 6e-45 6e-45 6e-45
000370 03 00 00 00 03 00 00 00 03 00 00 00 04 00 00 00
       4e-45 4e-45 4e-45 6e-45
000380 03 00 00 00 03 00 00 00 04 00 00 00 01 00 00 00
       4e-45 4e-45 6e-45 1e-45
000390 04 00 00 80 04 00 00 80 04 00 00 00 04 00 00 00
       -6e-45 -6e-45 6e-45 6e-45
0003a0 04 00 00 00 04 00 00 80 04 00 00 00 04 00 00 80
       6e-45 -6e-45 6e-45 -6e-45
0003b0 04 00 00 80 04 00 00 80 03 00 00 00 04 00 00 00
       -6e-45 -6e-45 4e-45 6e-45
0003c0 04 00 00 80 04 00 00 00 04 00 00 80 04 00 00 80
       -6e-45 6e-45 -6e-45 -6e-45
0003d0 04 00 00 00 04 00 00 00 04 00 00 00 01 00 00 80
       6e-45 6e-45 6e-45 -1e-45
0003e0 03 00 00 00 04 00 00 00 04 00 00 00 04 00 00 00
       4e-45 6e-45 6e-45 6e-45
0003f0 04 00 00 80 04 00 00 80 01 00 00 00 03 00 00 00
       -6e-45 -6e-45 1e-45 4e-45
