exp/features/all/state.pt (torch_old, 349714 bytes, 12 tensors)

conv1.weight f4 [128, 6, 1, 3]
00000000: a473 173e 5812 1b3e d613 d5bd 05ce 8a3e
00000010: 53b3 a3bd da43 c9be dcfe 243e 16b4 55be
00000020: baf2 c1bb 866d 00be 0d1b 0b3e 986b 19be
00000030: 2bb3 e33e 540d 673e 19e2 533e 0ad9 6e3e
00000040: afac 9dbe d01d 2e3e 6ead 9bbe cae1 82be
00000050: f4d5 bc3e c938 3dbe fd77 2bbd 20c6 05be
00000060: 72de 603e 5ee2 4f3e 00de 703e e828 f2bd
00000070: 0286 8a3e bba1 a63e f2fa 87be 44f3 4fbe
00000080: d9b2 66be 9517 703e 192c ef3c a28c ecbe
00000090: bcb2 613b 857f b0be d10c 273f 501b a13e
000000a0: c508 bbbd c47b 163f c4fd 67be 318c b3be
000000b0: 2efd a03e 3eac 3fbe 427c 883e 00af df3e
000000c0: e6f7 c2bd 8e92 4fbd 77fd d13e 929e a93d
000000d0: be85 9fbe 777d 33be 3806 ebbd fdba 98be
000000e0: 520f ce3e dbce 22bd cb9e e1bd 362f 193f
000000f0: d196 493c 85a4 4fbe 9c48 023f 427b d7be
00000100: 9834 863e 9b5f 273f ca26 d0be c5ca 7bbe
00000110: beca 183e 3cdd 8a3d 7c67 49be f05b 96be
00000120: 3adb 20be 7b17 66be b17d 883e 5115 68be
00000130: 6713 57bc 4b8e 3b3e 5db8 40bd 4bb6 ae3c
00000140: 7e27 073f 53b5 e7be 1611 ff3d 886f 993e
00000150: 178b c7be 08d5 0fbe a674 ae3d 705b 313e
00000160: b3b6 d1bc 352a 9fbe 3562 173e fdbc 06bf
00000170: 3432 15bf 110c b73d e6d4 583e b39e 96be
00000180: 3003 3fbe 3f9b e3be b5b0 9abe 577a a6be
00000190: fd43 35be 3a2f 91be 5f57 c83e 78e2 d53e
000001a0: ac32 a53e d2c5 d6be 98f2 d0be 89de c53d
000001b0: df40 0f3e ca72 ffbe bfd5 a7be fa90 803e
000001c0: da30 71be 0446 bcbd a8cc ebbe c755 f7be
000001d0: cf25 87be f67e 083d 7264 ffbd 19f7 28bf
000001e0: ce0b 673d 5bee 933e 1abb 0fbe 412c 2abe
000001f0: 1811 363e 2dac 073e dc64 34be 4193 f3be
00000200: 3650 5e3d cb2f 90be fd86 f33c 7c07 30be
00000210: 10bc e4be 2f0a a7be 052f 13be 3e0b 263e
00000220: 499e 50be 147a cebe 96a8 8a3e 8e91 b03e
00000230: 74ef 993c 54bb ffbd fa58 ac3d 8c88 0c3d
00000240: 24a3 39be 4917 95be 1b61 8abe 9fd1 603e
00000250: ee48 c3bc c2cc 8bbe a826 adbe 8ee6 b9be
00000260: 94ff dabe 44f6 62bc 1422 48be 56df 7abe
00000270: a2cf 193d a8a1 4bbe abeb b7bd 7528 0c3c
00000280: da0d c8bd ebc4 d03d ee1a 0d3f 3f2b b33c
00000290: c069 2bbd 5b18 2d3f 7569 9a3d edf8 833d
000002a0: f27f 75be 5371 243d 8880 cc3d ef4e 12be
000002b0: a573 c63e 615d c03d 8736 3dbe ceb3 9f3d
000002c0: b67e 65be 41a2 00bf b3a9 f23d 32c6 4ebe
000002d0: 3cb2 17be de86 f0be d330 d8be b705 083e
000002e0: 4414 a8be ebbd b9be 5dfc 25be b8f6 d8be
000002f0: 2f85 93be 1111 a03d 7396 72be da61 02bf
00000300: a745 f0bd 2bb7 70bc d08e 9dbe 6ff3 2fbc
00000310: 3500 29be 4ea9 f63d 23db 843e 519e f5bd
00000320: b53f 013f c74d 96bd 99cf d1bd a235 bfbd
00000330: fcb8 993e 477d 8e3e 13c3 a03e 2eae e2be
00000340: c010 c83e 6339 183f ae22 98be 1ebb 13be
00000350: 7d45 41bd 7a98 583d a471 2ebe 9a5d 96be
00000360: df74 8ebe 19c0 da3d 0c19 28bf abe3 9e3d
00000370: 8857 03bf 071d 96be f948 96be 066e 903d
00000380: 70bf bfbe 0e2a 503e f7a9 95be 848a 70bd
00000390: bb8f 913d 7fd3 5bbe f6c7 a23e c7be bebd
000003a0: 5f8f 76bd 4db7 62bd bf9e 35be 2fdc 89bd
000003b0: 2f85 9c3e 3018 4fbd 9563 0bbe 11b0 d13e
000003c0: 7ff1 1cbe e1db 693e c578 963e a466 92be
000003d0: 05de 9a3d 0358 f73e 707f 92be 9b4c a7bd
000003e0: fffe 79bd b2eb 1d3e 871f 1ebe 42f2 8ebe
000003f0: bf3f 30be 4312 aebe d67a 9fbe cbb0 7cbe
0.14790207 0.15143716 -0.10404174 0.27110305 -0.07993188 -0.3930958 0.16112846 -0.20869479
-0.005918828 -0.1254178 0.13584538 -0.1498245 0.44472632 0.22563678 0.20691718 0.23324981
-0.3079581 0.1700356 -0.30405754 -0.25562888 0.36881983 -0.18478693 -0.041862477 -0.1306386
0.21959856 0.20301196 0.23522186 -0.118242085 0.27055365 0.32545266 -0.26558644 -0.20307642
-0.22529162 0.23446496 0.029195832 -0.46201044 0.003443881 -0.3447229 0.6525393 0.3146615
-0.09132532 0.587826 -0.22655398 -0.35067895 0.3144316 -0.18718049 0.266573 0.43688202
-0.09519939 -0.050676875 0.4101369 0.08282198 -0.31156725 -0.1752833 -0.114757955 -0.2983016
0.40246063 -0.039748054 -0.110166155 0.59837663 0.012304024 -0.20277603 0.50892043 -0.42086226
0.26212 0.6538026 -0.40654594 -0.24589069 0.1492109 0.06780478 -0.19668382 -0.29367018
-0.15708628 -0.22469895 0.26658395 -0.22664382 -0.0131271845 0.18315999 -0.047050823 0.021327158
0.52794635 -0.45255527 0.12454431 0.29967904 -0.38973305 -0.14046109 0.08518343 0.17320037
-0.025599813 -0.3108689 0.14783557 -0.52632123 -0.5827973 0.08937848 0.21174964 -0.29417953
-0.1865356 -0.4445438 -0.30212942 -0.32515213 -0.17701717 -0.28356344 0.3912916 0.41774344
0.32265222 -0.419478 -0.40810084 0.09661586 0.1398959 -0.49892265 -0.32780263 0.25110608
-0.23553792 -0.09193042 -0.46054578 -0.4830763 -0.26396033 0.033324204 -0.1247033 -0.6600204
0.056407742 0.28892788 -0.14036217 -0.16618444 0.17779958 0.13249274 -0.176166 -0.47573283
0.054275714 -0.28161463 0.029727453 -0.17190355 -0.4467473 -0.32624957 -0.14373405 0.16215226
-0.20372881 -0.40327513 0.27081746 0.3448605 0.018790938 -0.12486902 0.084154084 0.03430991
-0.1812864 -0.29119328 -0.2702721 0.21954964 -0.023838487 -0.27304655 -0.33818555 -0.36308712
-0.42773116 -0.01385266 -0.1954425 -0.24499258 0.03755153 -0.19885886 -0.08980497 0.008554568
-0.09768267 0.10193809 0.55119216 0.021871207 -0.041848898 0.6761529 0.075396456 0.06443963
-0.23974589 0.040147137 0.09985453 -0.14287923 0.38760105 0.093928106 -0.18477832 0.07797967
-0.22411618 -0.5024758 0.11848774 -0.20192793 -0.14814085 -0.46977895 -0.4222475 0.1328343
-0.3282796 -0.36277708 -0.1620955 -0.4237573 -0.2881255 0.07815755 -0.23690204 -0.5093056
-0.11732035 -0.014692108 -0.3077302 -0.010739191 -0.16503985 0.12044011 0.25948438 -0.11993087
0.50487834 -0.073390536 -0.10244674 -0.093364015 0.30023944 0.27829954 0.3139883 -0.44273514
0.3907528 0.59462565 -0.29713959 -0.14426848 -0.04718541 0.052879788 -0.17035538 -0.29368287
-0.2782354 0.10681171 -0.6566322 0.07758268 -0.5130544 -0.2931902 -0.2935255 0.07052235
-0.37450743 0.20328543 -0.29231235 -0.05872585 0.071074925 -0.21467398 0.31793183 -0.09313732
-0.060195323 -0.05535059 -0.17736338 -0.0673145 0.3057036 -0.050560176 -0.13612206 0.4095464
-0.15326498 0.22837783 0.29389015 -0.28593934 0.07561878 0.48309335 -0.28612852 -0.08168908
-0.0610342 0.15421942 -0.15441714 -0.27919203 -0.17211817 -0.33998308 -0.31148404 -0.24676816

conv2.weight f4 [64, 128, 1, 3]
00000000: a158 3ebd 17ca 91bd 8a6f 153e c793 f73d
00000010: 212f 0a3e f752 b33e 16ae ebbc 2497 b53e
00000020: 71a7 073e 6d82 eb3d 259b 683e e0e4 e23d
00000030: a883 0b3e adee f03d 36ff c83e a7ea 9fbe
00000040: ada8 61be 1dff dd3d b383 f83d 282e acbd
00000050: f204 023c c4f1 163d f81d bdbc 84d0 afbd
00000060: c750 943d 9736 19bd 3592 123d 6708 7f3e
00000070: 12f4 37be c15d 373d 3f94 e83d 11d5 68bd
00000080: fd24 fabc 64bd 183e 3090 ca3d df87 03bd
00000090: 91ef 163e a97e 76bc 34c3 453e 5d74 3d3e
000000a0: dfcb 833e 02f4 d93d ac4d d23d 486e c2bc
000000b0: 9329 c2bd 5cdc 7cbd da69 43be 3321 573e
000000c0: e4d5 883d 152b 813e b38e 293e 0755 333e
000000d0: 64a0 9a3e 21bc 773e 3367 283d 904e 723e
000000e0: e928 af3c 11f9 e03d cfde e3bc 2ab9 113e
000000f0: b240 8f3e c36c cdbd f2a9 733d 223e 48be
00000100: acbb 763e 6385 073d 0327 6b3e e335 67bc
00000110: 68af 22be 9abf 273e 664b ea3d a2a0 3dbe
00000120: 77eb 973d 35e0 783c 757d 8d3c 77ca 043e
00000130: d6ec b83d 587e fdbc a742 043e 5ceb 983e
00000140: 2d9a 9b3d c372 9c3e c242 3dbe d7d2 3c3e
00000150: 97c4 a93d 7982 f23d 3a5e 703e fe13 6c3d
00000160: 45eb bebc 3225 5fbd b5c2 de3d e030 56be
00000170: e33a dbbd 64ce 7c3d f8c8 a3bd 193e 013d
00000180: c17e 753e e8f4 abbd a2c7 17be 06c8 3d3e
00000190: 4a76 59bd c3c4 903e 7d41 d9bb 4a8c e23d
000001a0: 3329 a0bd 4de1 05be d796 2abe 39ea 423e
000001b0: 10fd 213e 2f5e 77bc 1111 9a3d 29c5 183e
000001c0: bdfd 91bc 919a 693e 6311 163e 6b1e 5f3e
000001d0: a2fb 39bd 3ba9 503e 6e9d da3d 2c00 e93d
000001e0: 788a 1ebe 06f4 643e b4d1 9bbd 0463 c83b
000001f0: 4495 5a3e 4c4a febc 05ce 953d d516 31be
00000200: f809 bcbd e0ca 85be 41f4 8fbd 73d4 903e
00000210: c818 0e3e 3691 dbbc 9a4a 13bd 4f80 103e
00000220: 015b c83c 6978 91bd 38ff bc3c 2c7d 93bd
00000230: efe4 0abd 4423 933d 5734 93bd 50a3 68bc
00000240: 4ef6 fabd 13db f83d 9b56 83bd 46fa 32be
00000250: ec05 b1be 85ed 463d 6237 4bbd 4c71 833b
00000260: 75c7 42be 571e d33d c93a 45bd 7f20 5fbd
00000270: d92a e3ba a186 77be 72b2 04bd 0f15 bb3e
00000280: 26a5 04bc 6735 2f3e d5ff c93d ef45 41bc
00000290: 1846 aabc c2d3 0d3e 210c 7e3e 18f3 283e
000002a0: bab2 d73d fe17 803e accf 0f3e 141d b43d
000002b0: 795b 263e fef3 a13e 4ff1 933d 51e2 1d3c
000002c0: 55ab 84bd 957e a6bd 0f2e 483e d679 783e
000002d0: 969e d23d ca45 da3d 8635 6fbc ab1f c43c
000002e0: 488f 38be 668d 583e 7320 efbd 5c77 003e
000002f0: 4b4f 303d 7490 eabd 7fd4 0fbc effc 673e
00000300: 48a8 4dbe ba21 39bc db3e 5e3e 6b51 493d
00000310: 364b cfbd 2806 0c3e 42a8 123e 6c09 21bb
00000320: 585f a5bd de35 4b3e ad54 c43d f251 40bc
00000330: 0b75 703e c56b 243e 4e4b b13e 5d5a b33d
00000340: 1f52 6a39 7a6d e73d 0d2f 023e 2245 a13e
00000350: 7e0d df3d 3cfa 9abd b80b 173d cbd8 a0be
00000360: 8f0a 2d3e 880e 7e3c 601c 933b 7483 ad3d
00000370: 1e1d 20bd 7463 d73d dc34 cdbd 5240 3c3e
00000380: f78d 33be 82ca e0bc 8bb3 513e 56a5 cdbd
00000390: 5fc4 683d 3b01 553e fd87 0b3e 8227 043e
000003a0: cdd5 4d3d 2cfd 6e3e fcc4 45bb d006 26bd
000003b0: ed05 a4bd b0e3 0f3e 743f f3bc 4736 cdbd
000003c0: 88e9 ba3c a515 98be c7e3 1a3e d160 8ebe
000003d0: 0a67 a9bd 15f3 1b3d d2ed 993d f3f8 503e
000003e0: db6a c33e cd51 87bb ad76 8bbe 6913 d63d
000003f0: 9115 b53e 6f1e 983d 6b06 0fbd 9991 643e
-0.04647124 -0.07118624 0.1459333 0.12088733 0.13494541 0.35024235 -0.028769534 0.35466874
0.13247468 0.11499486 0.22715433 0.11078811 0.13624442 0.11764274 0.3925721 -0.31233713
-0.22037001 0.108396746 0.12134495 -0.08407241 0.007935749 0.03685166 -0.02308558 -0.08584693
0.072419696 -0.037405577 0.035783965 0.24905549 -0.17964199 0.044767145 0.11356401 -0.05684382
-0.030535216 0.14915997 0.09890783 -0.032112 0.14739825 -0.015044847 0.19312745 0.1850142
0.2574148 0.10642244 0.10268721 -0.023734227 -0.09480586 -0.06173359 -0.19083348 0.21008758
0.066814214 0.2522818 0.16558342 0.17512904 0.30200493 0.24192859 0.041114043 0.23662782
0.021381812 0.10985006 -0.027816204 0.1423079 0.27979046 -0.1003051 0.059488244 -0.19554952
0.24095029 0.033086192 0.229641 -0.014111969 -0.15887225 0.16381684 0.11440162 -0.18518308
0.07417958 0.015190174 0.017271737 0.12967859 0.09029548 -0.030944034 0.12916051 0.29867065
0.07597766 0.30556306 -0.18482497 0.18439804 0.0828945 0.11841292 0.23473445 0.057636254
-0.023305545 -0.05447883 0.10876981 -0.20917082 -0.10704591 0.061720267 -0.07997316 0.03155336
0.23974134 -0.083963215 -0.14822248 0.18533334 -0.053091325 0.28275117 -0.0066301213 0.11061914
-0.07820358 -0.13074227 -0.16659103 0.19034661 0.15819192 -0.015098139 0.075227864 0.1491896
-0.017821187 0.22812869 0.1465507 0.21788947 -0.04540599 0.20377056 0.106745586 0.11376986
-0.15482509 0.22358713 -0.07608357 0.006115319 0.21346003 -0.031041287 0.07314686 -0.17293866
-0.09181589 -0.26131344 -0.070290096 0.28287086 0.13876641 -0.02680264 -0.035959817 0.14111446
0.024457457 -0.071030445 0.023070917 -0.07201609 -0.033909734 0.07184461 -0.071877174 -0.014199093
-0.1225401 0.1215116 -0.06413003 -0.17478284 -0.3457483 0.04856636 -0.049613364 0.004011309
-0.190214 0.10308521 -0.048151765 -0.05447435 -0.0017331495 -0.2417245 -0.03239674 0.36539504
-0.008096015 0.17110215 0.09863249 -0.011796459 -0.020785376 0.1385031 0.24809314 0.16498983
0.10532136 0.25018305 0.14044064 0.08794609 0.16245832 0.31631464 0.0722376 0.009636478
-0.064779915 -0.08129612 0.1954882 0.24265227 0.10284154 0.106578425 -0.014600163 0.023940882
-0.18023407 0.21147689 -0.11676111 0.12545532 0.04304437 -0.114533335 -0.00877869 0.2265508
-0.20083725 -0.011299545 0.21703665 0.04914991 -0.10121767 0.13674223 0.14321998 -0.0024572266
-0.08074826 0.19844767 0.09586463 -0.011738287 0.23482148 0.16056736 0.34627765 0.0875747
0.00022346571 0.11300178 0.12713261 0.31498057 0.10891245 -0.0756726 0.03687641 -0.314154
0.16898559 0.015506394 0.0044894665 0.08472338 -0.03909027 0.10517016 -0.10019848 0.18383911
-0.17534624 -0.027440313 0.20478646 -0.10041301 0.0568279 0.2080125 0.13626094 0.12905696
0.050252724 0.23338765 -0.0030177226 -0.04053384 -0.08008943 0.140517 -0.029693343 -0.10020118
0.022816435 -0.29704013 0.15125953 -0.2780824 -0.08271606 0.038073618 0.07516064 0.20407467
0.38167462 -0.0041296245 -0.2723898 0.10452921 0.35368016 0.0742768 -0.03491823 0.22321166

conv3.weight f4 [32, 64, 1, 1]
00000000: 931e f2bd f731 ff3c 0f00 223c 2c4e 2bbe
00000010: b2c0 893d f067 853d c6f9 9fbe 0e32 833e
00000020: 08d9 983e b3f4 893d 8753 2cbe f4ea 203e
00000030: 0cb1 2ebe fdc6 4dbe b3fa 51be b72d 1bbe
00000040: 0f8d 3ebe 4862 6b3d 0df5 803d 6cbf c63d
00000050: 6548 1abe cd5c 3fbd c603 1e3f 1f07 a6bd
00000060: cb62 8dbd 9ec8 29bd d65b 6b3d 45b6 ea3d
00000070: 94b8 953e f2c1 043f 20db 993c bbe0 fdbd
00000080: 9f46 a33e 478f 0abe e652 0cbd e2aa 913c
00000090: 0d74 ea3e a79d af3d db56 d6bd 23f2 7fbe
000000a0: aac8 943c f6de c3bc adb9 54bc 1420 f03e
000000b0: 83bf 153f adcb 4e3e ba25 643d b015 873d
000000c0: 0a9a 0a3f 7e5a a03e cd13 e53e eec3 2cbe
000000d0: ebd7 24be 82a1 da3e db85 33be b28e 1a3c
000000e0: 7ff3 f63e fce0 8f3c f65f e03d aec7 ad3e
000000f0: e925 9abe acc7 e33d d05d 0abe fd64 913d
00000100: a9fe 583e de9c 3a39 98cc 833d 70d5 a13e
00000110: 805e 9d3d d21f 9d3d 70b6 f03e d554 4b3b
00000120: de86 1cbe fb2b df3d 7f71 0b3e 4b1c 5f3d
00000130: 8b7a 513e 7ece 5c3e 0401 6c3e f2a9 113e
00000140: a4c5 603d aaa6 95bd 6e76 a8bc c05e b9bc
00000150: 93da 9ebc 973b 823e bc5a 21be 12c0 473e
00000160: 37e1 02be b026 da3d 058b 903c e6e5 8cbd
00000170: 0367 13be 3505 afbd cfc9 7e3d 7465 8dbc
00000180: 31e6 f9bd 53ea 843d edf0 5e3d 029c 86bd
00000190: bdbd 82bd f788 d93d ec9c c03c 0fc7 3f3e
000001a0: 8656 d13d c9a1 ba3d 5ce7 c4bc a054 c8bd
000001b0: b5f3 f3bd 9879 b53e 2469 bf3d 0f70 483d
000001c0: abe8 fb3d ee32 6cbe 2167 00be beae 513e
000001d0: 7904 0b3d 8fc4 84bd a817 503e fc53 1d3b
000001e0: bd1d 3fbe 8bcb 0a3e 0051 023c 9916 89be
000001f0: ab3f 843e 89a0 cebb 7bb7 cd3d 8bf4 be3d
00000200: 4855 3ebe 5178 a5bd 0250 803b 32c2 573c
00000210: e79c f73d 2fc1 653c d4c0 f9bd 15c2 a53e
00000220: e471 003f ff66 7a3c 97b6 81be f4b1 113e
00000230: 91b9 47be 4661 dabd 5824 d9bd ab35 c7bd
00000240: 3804 5fbe 7d30 d33c f07d 59bd f8bb a73d
00000250: bd1b 52be f0d9 97bb a512 143f 1f69 86bd
00000260: 95e1 0f3e e888 09bd abc7 9a3d b7be 133e
00000270: b0ea bc3e f9f0 d23e fc21 cfbd 5f42 87bd
00000280: 3370 a93e 65d1 2ebe c607 5b3d 8ee4 14bd
00000290: e040 de3e 93fb acbb b621 53be 9026 24be
000002a0: 0ab3 843c 0d86 d7bc 03c0 3cbd 7b05 9e3e
000002b0: 8997 063f 53a0 333e 445a 36bd c48f f2bc
000002c0: ccd2 fe3e 9b13 cf3e 5640 9a3e 2417 3dbd
000002d0: 06f2 47be 26bc bf3e a09e 50be 281e 4bbd
000002e0: 45b7 ea3e 27d2 57bd 7051 003d 87d1 cf3e
000002f0: 5a3e 41be ce19 81bd 15c4 e4bd a175 10bd
00000300: f445 fe3d 6dc2 f3bd 46e5 143c 2ebb da3d
00000310: 271c a1bd 0695 773d 321c c03e c8a2 3fbb
00000320: 5d7c 87be 4219 33bd 633d 973e 0a92 f73d
00000330: 3caa 233e b9e3 5c3e a36f 2abc 1143 543e
00000340: 7aee 923e 4a62 86bd c113 16bd 9907 80bd
00000350: ba29 8a3e 68f0 213e fe8c c7be dc29 853d
00000360: 763b 323d 42ef babd ae1c 793b 4b23 753e
00000370: f013 773d 4222 b6bd cf15 553c 6907 953d
00000380: aba6 443e 7ad9 6b3e f69c 7a3c 50e0 e3bb
00000390: d3b9 59bd 7f30 7b3d 0dbe 103e 83f1 fa3d
000003a0: 83c9 afbd b0a9 d53d 61b8 0f3e 3135 8b3d
000003b0: bc9f 13be 4145 433e bf8e 963d 5191 443d
000003c0: 6e70 5cbe 3fa2 963d 9a53 743d 8c62 343e
000003d0: ee51 0e3e b31b 92bc b423 d43d 2dce 093d
000003e0: 4c05 db3d 03de 12bd 5312 f63d 4d73 4a3c
000003f0: 3b9c 253e 604b dc3c 7b26 773e d2d3 36bd
-0.11822238 0.031151755 0.009887709 -0.16729039 0.06726207 0.06513965 -0.3124525 0.25624126
0.29853082 0.06736126 -0.16828738 0.15714628 -0.17059726 -0.2009544 -0.2050579 -0.15154158
-0.18608497 0.057466775 0.0629674 0.097044796 -0.15066679 -0.04671936 0.6172451 -0.08106827
-0.06903609 -0.04145109 0.05746063 0.114605464 0.29242384 0.5185844 0.018781245 -0.123963796
0.31889817 -0.13531218 -0.034258746 0.017781679 0.45791665 0.08574992 -0.10465785 -0.24994712
0.01816209 -0.023910027 -0.012983722 0.46899474 0.5849535 0.20194884 0.05570004 0.065959334
0.54141295 0.3131904 0.4474167 -0.16871616 -0.16097991 0.42701346 -0.1753153 0.009433435
0.48232648 0.017563336 0.10955803 0.33941406 -0.30107048 0.11122069 -0.13512349 0.0709934
0.21190895 0.0001779678 0.064355075 0.31608152 0.0768404 0.07672085 0.4701419 0.0031025906
-0.15285823 0.108970605 0.13617514 0.05447034 0.20456903 0.21563146 0.23047262 0.14224985
0.054875985 -0.07307179 -0.020564284 -0.022628188 -0.019391334 0.25436088 -0.15757269 0.19506863
-0.12781225 0.1065191 0.017644415 -0.06879787 -0.14394765 -0.08545915 0.06220418 -0.01726029
-0.12202109 0.06490006 0.054428983 -0.06572725 -0.06383846 0.10621827 0.023512326 0.18728279
0.10221581 0.09112889 -0.024036102 -0.09781766 -0.11911718 0.3544433 0.09346226 0.048934992
0.12300237 -0.23066303 -0.1253934 0.20476815 0.033939812 -0.06482803 0.20321524 0.0024006357
-0.18663688 0.13554208 0.007953882 -0.26775053 0.25829825 -0.0063057584 0.10044762 0.093239866
-0.1858722 -0.08079589 0.0039157877 0.013168858 0.120904736 0.014023109 -0.12194982 0.32374635
0.50173783 0.015283345 -0.25334617 0.1422804 -0.19504382 -0.10663085 -0.10602635 -0.09727033
-0.21778953 0.025779957 -0.05309862 0.08190149 -0.20518394 -0.0046341345 0.5784095 -0.06563019
0.14050896 -0.03357783 0.07557615 0.1442822 0.36897802 0.41199473 -0.10113904 -0.06604456
0.33093414 -0.17072065 0.05347421 -0.03635078 0.4340887 -0.0052790134 -0.20618328 -0.16030335
0.016198654 -0.026309038 -0.046081554 0.30863556 0.52574974 0.17541628 -0.044519678 -0.029609568
0.497702 0.40444645 0.3012721 -0.046164647 -0.19525918 0.37448233 -0.2037301 -0.049589306
0.4584295 -0.05269065 0.031327665 0.40589544 -0.18871441 -0.0630375 -0.11170212 -0.03526843
0.12415686 -0.11902318 0.009087866 0.10680233 -0.07866698 0.060444854 0.3752151 -0.0029241312
-0.2646207 -0.04372526 0.29539022 0.120884016 0.15982908 0.21571244 -0.010402593 0.20728709
0.28697568 -0.06561716 -0.036639933 -0.06251449 0.2698496 0.15814364 -0.38974756 0.06502125
0.043513738 -0.09127666 0.003801148 0.23939244 0.06032175 -0.08893253 0.013005688 0.07276804
0.19204204 0.2303218 0.0152962115 -0.0069542304 -0.05315573 0.061325546 0.14134999 0.12253096
-0.08583357 0.10432756 0.14035179 0.06797255 -0.14416403 0.19069387 0.073514454 0.047990147
-0.21527264 0.07355165 0.05965004 0.17615718 0.13898441 -0.017835474 0.10358372 0.03364389
0.1069437 -0.035856258 0.12015214 0.012356591 0.16172878 0.02689141 0.24135773 -0.0446356

conv4.weight f4 [1, 32, 1, 1]
00000000: c35c 633f 8e19 9bbe c92a 553f a4a5 6bbe
00000010: c828 adbe a676 ecbd 29be 343f e38d 78be
00000020: 93c2 7a3f d55e c43d 3eb0 82be 39c7 e2bd
00000030: 8a2e 473f d379 263e 9440 453f f04d 733f
00000040: 91d1 5a3f c8fb 57bd c67b 413f e088 6dbe
00000050: 7d2f 723f 462a bdbe 5ec7 90be 0873 dfbb
00000060: b8d3 43bb b61c 8d3f febf 8cbe 26d0 803d
00000070: 0794 1f3d 9780 b7ba 8352 bcbd 28c2 583d
0.8881342 -0.30292934 0.8326841 -0.23012406 -0.33820176 -0.11546068 0.7060266 -0.24272875
0.97953147 0.095884 -0.25525087 -0.11073155 0.7780539 0.1625741 0.77051663 0.950408
0.8547602 -0.05273035 0.7557949 -0.23196745 0.9460371 -0.36946315 -0.28277105 -0.0068191327
-0.0029880833 1.1024387 -0.27490228 0.06289701 0.03895953 -0.0014000115 -0.09195425 0.052919537

exp_avg f4 [128, 6, 1, 3]
00000000: d74b f134 0108 1137 26e0 21b7 9868 9bb5
00000010: bf20 0f36 631b 06b8 d224 9437 9ce3 7137
00000020: f09d 11b7 740e 7137 a958 cb35 b9f2 c6b7
00000030: 9c87 9038 997a 7138 baed 0e38 4239 bbb9
00000040: d624 33b9 73c9 8eba 03ef 69b7 7d01 b8b7
00000050: 4dd5 13b8 52e7 92b7 cccd acb7 3612 0db8
00000060: 6e84 bab7 acef 90b7 5c2e 2ab8 df78 83b7
00000070: 48e6 92b7 5edc 4bb8 7b85 e438 ae52 e338
00000080: cbdd aa38 3de5 8239 861d 0239 984e 8db8
00000090: dee5 9036 2012 8f37 0ca7 9836 c30f fa36
000000a0: 3cca 8737 2a5b 7237 39b1 78b4 6513 1b36
000000b0: 1a22 6b36 d87a 5637 2f3a 2a37 a246 4337
000000c0: f118 a6b7 5954 bab7 8a75 afb7 0c44 4838
000000d0: dde5 24b9 6ae3 ffb8 10a7 c935 ce3a 5a36
000000e0: 42bf 83b7 acb6 1bb6 71f4 d6b3 382e 49b7
000000f0: aa76 2e36 a0a9 8637 2a37 ddb6 2359 4437
00000100: efca 5237 e00e 80b7 ba9d 8a39 9eeb 8b39
00000110: 970e 8039 3acc 033a 7b27 c139 a230 67b9
00000120: 0ce7 45b7 0b20 a1b7 2e57 e6b7 a4b8 92b7
00000130: cc53 95b7 3b04 e7b7 30a1 99b7 f8e6 50b7
00000140: af0a 05b8 eb2e 75b7 d7c8 47b7 fc07 2cb8
00000150: 2626 da38 7274 e138 b88e ac38 8d33 3739
00000160: 3573 d437 504b 8eb8 8f2e 35b5 cfc6 70b7
00000170: c4e5 52b7 6381 e536 b7fc 8eb6 f5fa 4db7
00000180: f867 7db6 1d1b fab6 cd5b a8b7 ee91 1fb6
00000190: 1fcb 9eb7 93d9 cfb7 4028 1437 4c25 ffb6
000001a0: 790d 68b7 fe6a 00b9 4100 8cb8 f5b5 cc39
000001b0: 2f79 2b37 92d1 3437 4311 6a34 3119 6737
000001c0: ba36 cf36 bc6f 4436 0e9e 4036 cc8b 1ab6
000001d0: 5ba2 c6b6 262b 7236 0f74 17b5 791a af36
000001e0: 9a3c 92b8 ca7c 9eb8 9718 91b8 cc53 8ab7
000001f0: cb24 91b9 1ea4 eb39 abd8 5a36 83db 37b6
00000200: 8bae 07b7 e216 dc35 331f 45b7 03a6 c5b6
00000210: 52e9 8834 42f3 c9b6 0db2 92b4 4065 a0b6
00000220: 75a6 eeb6 1892 9bb5 5d4f 8237 19c9 5537
00000230: 7d43 a337 afc5 d138 642e b4b9 1fa4 fdb8
00000240: 87d7 ab36 5758 2337 3498 fc36 6a7e f236
00000250: d233 2737 6245 9c36 28ed e636 8904 0d34
00000260: 3d7d a536 01fb d836 053c 3136 ebe4 2337
00000270: 94eb 28b8 aa92 3fb8 2da5 24b8 d4e7 31b9
00000280: ef63 a838 27f4 ad38 adc4 0137 6665 17b6
00000290: f0f4 6d37 3e46 2437 2e08 f4b6 5c57 b837
000002a0: 39ca 5a37 d562 1fb7 1ce8 eb37 1397 eeb5
000002b0: 62e0 4535 7fd2 0538 2c49 f737 8bee f737
000002c0: ca1e 7538 4b95 d4b9 ca83 4ab9 0d83 a038
000002d0: 875a fc35 e048 6437 69a7 1e37 26b1 5036
000002e0: 1a4e 7f37 59b4 de35 a385 1036 0aa1 48b6
000002f0: 62e9 6e36 d6c1 3336 ce04 fe35 db27 0837
00000300: f79c 81b8 165a 89b8 9aa7 7db8 5955 87b9
00000310: de4e 0c3a f93b 0b3a 24cc 8eb5 66df 8f36
00000320: a8bb 86b6 03a5 b4b6 75b5 25b5 a0fd 96b6
00000330: 7751 eb36 0de6 a537 dfde 4537 41f2 1337
00000340: 70d7 9037 7710 2eb3 fb82 7a39 3400 8239
00000350: a4c5 7539 f847 e939 884a f139 c7cf d0b8
00000360: fcdf 1837 e773 1036 51f2 42b5 157a 4037
00000370: 882a 9736 70d4 a8b5 fa01 e234 1b6d f9b6
00000380: af2e 5fb7 887a 9736 b550 fab6 2ae7 03b7
00000390: 737e 8c37 cd1d 9c36 dd8a 8b36 0451 aab7
000003a0: 6805 f238 57c8 98b7 92bb ca35 da7b b1b5
000003b0: 2c6d d5b6 f770 78b6 e6b2 3fb5 6a2d 86b6
000003c0: b652 37b6 f37e 1637 8e07 13b6 6f8e 9b36
000003d0: 6619 4937 ff88 29b7 b524 6a39 7362 7239
000003e0: cd51 5f39 f402 9739 7978 a239 4d50 23b9
000003f0: 6ce8 4037 087a 7337 3992 a936 d500 7337
4.494493e-07 8.644537e-06 -9.648536e-06 -1.1578841e-06 2.1327721e-06 -3.1973595e-05 1.766012e-05 1.4417714e-05
-8.679446e-06 1.43680845e-05 1.5150482e-06 -2.3716466e-05 6.891714e-05 5.7573056e-05 3.407684e-05 -0.0003571008
-0.00017084493 -0.0010893777 -1.39435315e-05 -2.1935202e-05 -3.5246183e-05 -1.7512273e-05 -2.059983e-05 -3.363398e-05
-2.2234595e-05 -1.7277744e-05 -4.0574334e-05 -1.5672702e-05 -1.751179e-05 -4.8604204e-05 0.0001089675 0.00010839604
8.147544e-05 0.00024966328 0.00012408764 -6.738043e-05 4.3182945e-06 1.7055369e-05 4.5494e-06 7.4524155e-06
1.6187427e-05 1.444555e-05 -2.3161273e-07 2.310809e-06 3.5037579e-06 1.2783996e-05 1.01463365e-05 1.1639351e-05
-1.9800356e-05 -2.2212205e-05 -2.0916359e-05 4.774709e-05 -0.0001572589 -0.00012201707 1.5024289e-06 3.251876e-06
-1.5705478e-05 -2.320313e-06 -1.0009615e-07 -1.1991295e-05 2.5997092e-06 1.6053033e-05 -6.592735e-06 1.1703264e-05
1.2564225e-05 -1.5265716e-05 0.00026438927 0.00026687694 0.00024424933 0.00050276855 0.00036841244 -0.00022047994
-1.179591e-05 -1.9207617e-05 -2.7458733e-05 -1.7490536e-05 -1.7801205e-05 -2.7539316e-05 -1.831408e-05 -1.2451543e-05
-3.171962e-05 -1.4614062e-05 -1.1908086e-05 -4.101543e-05 0.00010402156 0.00010750526 8.2281826e-05 0.00017471444
2.5326017e-05 -6.785116e-05 -6.7495506e-07 -1.43514035e-05 -1.2570472e-05 6.8397944e-06 -4.2613497e-06 -1.2277383e-05
-3.7760456e-06 -7.453737e-06 -2.0069909e-05 -2.3777789e-06 -1.8929653e-05 -2.4777639e-05 8.830859e-06 -7.603934e-06
-1.3831414e-05 -0.00012246889 -6.6757675e-05 0.0003904548 1.02206095e-05 1.077763e-05 2.1799228e-07 1.3774538e-05
6.1754517e-06 2.9271314e-06 2.870223e-06 -2.302916e-06 -5.9197605e-06 3.6085926e-06 -5.642077e-07 5.2184882e-06
-6.9731104e-05 -7.557271e-05 -6.918719e-05 -1.6489903e-05 -0.00027683968 0.0004494497 3.2610649e-06 -2.7396898e-06
-8.087266e-06 1.6397937e-06 -1.1749379e-05 -5.890384e-06 2.5501737e-07 -6.0185857e-06 -2.7324168e-07 -4.7801586e-06
-7.112331e-06 -1.1590919e-06 1.5534164e-05 1.2742611e-05 1.946254e-05 0.00010002718 -0.0003436684 -0.0001209455
5.121288e-06 9.736125e-06 7.527904e-06 7.2268786e-06 9.966041e-06 4.6572395e-06 6.8821428e-06 1.3133298e-07
4.931963e-06 6.4665223e-06 2.6409991e-06 9.768856e-06 -4.027372e-05 -4.567454e-05 -3.925448e-05 -0.00016966398
8.029478e-05 8.29476e-05 7.734791e-06 -2.2559775e-06 1.418333e-05 9.791516e-06 -7.272719e-06 2.197519e-05
1.3040896e-05 -9.50015e-06 2.8122267e-05 -1.777635e-06 7.371474e-07 3.190571e-05 2.9478768e-05 2.9555775e-05
5.8441226e-05 -0.00040547023 -0.00019313316 7.653805e-05 1.880181e-06 1.36068265e-05 9.456512e-06 3.109753e-06
1.5217369e-05 1.6592777e-06 2.153546e-06 -2.989606e-06 3.560061e-06 2.6785906e-06 1.8925873e-06 8.115511e-06
-6.180436e-05 -6.549449e-05 -6.047599e-05 -0.00025812796 0.00053523283 0.0005311366 -1.0639237e-06 4.287739e-06
-4.0153573e-06 -5.383628e-06 -6.1731345e-07 -4.499874e-06 7.0130295e-06 1.9776659e-05 1.1794006e-05 8.818287e-06
1.7266459e-05 -4.0527507e-08 0.00023890652 0.00024795684 0.00023438648 0.00044494844 0.00046022632 -9.9569144e-05
9.112056e-06 2.1525136e-06 -7.262325e-07 1.1472516e-05 4.505102e-06 -1.2578803e-06 4.2097219e-07 -7.43348e-06
-1.3302705e-05 4.514415e-06 -7.459976e-06 -7.8620305e-06 1.6748183e-05 4.6526316e-06 4.1586886e-06 -2.0303305e-05
0.00011540466 -1.8213103e-05 1.5104763e-06 -1.3223573e-06 -6.360604e-06 -3.7020634e-06 -7.1413376e-07 -3.998798e-06
-2.731727e-06 8.970254e-06 -2.1909104e-06 4.6359414e-06 1.1986447e-05 -1.0105082e-05 0.00022329653 0.00023115594
0.0002129741 0.00028803165 0.00030988807 -0.00015574806 1.1498207e-05 1.4512341e-05 5.053615e-06 1.4484122e-05

exp_avg_sq f4 [128, 6, 1, 3]
00000000: d232 4631 aa14 d131 45a1 4b32 18ac b931
00000010: c869 fc31 f28f b332 c866 1232 cbfe 3432
00000020: 887f 7732 b9f0 c731 f77a 0232 4292 a132
00000030: ebe1 0033 e167 0133 618a 3633 5c2a a536
00000040: cd24 b635 d5d7 2137 3edc d832 ea36 8933
00000050: a53d ab33 01e3 5933 2edd c133 3d26 c733
00000060: b19b 4633 c86a a233 ec11 cb33 fd74 1d33
00000070: ee40 9733 c3b5 b333 84de 6334 130e 8834
00000080: 9b8a 8d34 3e9c a337 77d0 7d37 3b23 f336
00000090: ab0d da31 92b0 a732 6eeb 0033 5e1f 6e32
000000a0: f458 d232 da38 1a33 67d9 a232 78d1 ef32
000000b0: bebc 1233 f3e6 8e32 367a c932 8393 1d33
000000c0: 4cec a432 3560 e132 bf56 2833 49a8 de36
000000d0: 965f 4136 98f5 5836 25b5 3832 e316 d732
000000e0: 5dbb 5233 401f d532 038c 3533 1ca8 9033
000000f0: 5713 0d33 1cc4 4633 febd 9533 e31d 9232
00000100: 96b0 2733 43b3 9433 e954 4e34 8929 6434
00000110: c849 7634 9dfa ad36 de4b 0c37 4540 d836
00000120: 7997 0033 4f3d 8f33 dea3 b433 9f4c 6333
00000130: 8ffa cc33 b318 de33 efc6 4533 068f a133
00000140: 12f4 c633 ef7a 2333 713f 9c33 be2d bd33
00000150: ca38 3f34 507d 6b34 a242 7934 8d6a a537
00000160: f55a 6937 e108 f136 9f8a bd32 3736 c132
00000170: dbc9 ab33 c6db 1e33 7217 3933 c6b4 d133
00000180: 9046 2333 f776 8d33 936f f733 3bba 5532
00000190: 4057 5e33 726a ea33 4ef5 5633 0e79 c233
000001a0: 4839 2834 c2ca 2136 f25b 3f37 6352 2638
000001b0: f5de 8d31 9029 a431 587d f031 185e 9531
000001c0: 5322 1032 3363 3432 52fe 7531 22ee c831
000001d0: 6555 1a32 ea2a 5b31 a09b f931 1893 3232
000001e0: f07e 8a32 2ac5 9c32 ef72 c232 a6a0 ed35
000001f0: 9d5e 8536 e4ca a436 f4da d230 b110 a930
00000200: d1a9 6231 7942 be30 7e32 0c31 83f1 8231
00000210: f877 a530 15f6 f530 fc87 8831 30d1 9c30
00000220: 709f 0c31 055e 9131 b9fc ba31 44dc e431
00000230: 822f 2632 3d09 0335 28c2 ba35 e9b4 3c36
00000240: 11f8 0931 7412 e830 6258 0d31 f9a1 f830
00000250: e7fd b430 a027 4831 0729 5531 23bd 2231
00000260: fa70 8531 ce04 d130 e1af cc30 713f 8831
00000270: cc1d 9732 4060 8832 3db3 af32 557b 6935
00000280: e1d8 4135 c6f1 e035 3e99 8232 e7fe e532
00000290: 94da 5133 98a4 b832 0d7f 2d33 21e8 8333
000002a0: f17d b132 273f 2a33 a22e 8533 dcf0 8b32
000002b0: 5b2e 3a33 5cab 8733 98d3 9433 6601 de33
000002c0: 920c 0334 11e5 b336 03a4 aa37 2f04 cd36
000002d0: 0074 f731 cafe b831 da75 ce31 4dff 0732
000002e0: 6fe7 c231 5c7a 3832 77af c531 2327 1d32
000002f0: b127 4232 3fd4 9331 646d c631 2e38 3232
00000300: dbfc 9332 712e 9e32 f9ea dd32 da43 2b36
00000310: e9f7 5636 25c3 1e37 6253 ac31 46c9 b831
00000320: 94c3 8032 9e28 2d32 4c2b 4d32 b9f4 a632
00000330: 2a86 5032 9ead 8132 2957 c832 2c33 8931
00000340: e774 5632 4e75 b332 fde7 ef33 4f69 0034
00000350: 471a 0034 6542 c735 73b7 8436 5920 3236
00000360: b405 8131 2a00 5d31 8309 7f31 671e 4831
00000370: 6244 2d31 3281 5f31 26c1 7c31 44c4 a731
00000380: 1fe2 fb31 d7de 0a31 21ce 6331 08bf db31
00000390: 72c1 9631 1f53 e331 d5f6 2932 94a2 8534
000003a0: e868 8135 9c27 8f35 3487 5732 5d46 9232
000003b0: 20d7 0733 9877 f332 0e58 1333 df3c 5133
000003c0: f088 e132 b6e4 0b33 db82 5733 39f7 3932
000003d0: b55d e632 4d74 4e33 5979 1534 4ede 2634
000003e0: 3c02 3434 bea8 b736 7140 e936 8ba0 d536
000003f0: 132f 8231 5e54 9a31 520b d031 5983 8c31
2.884168e-09 6.08505e-09 1.1852824e-08 5.4037734e-09 7.346191e-09 2.0903801e-08 8.521688e-09 1.0535312e-08
1.44062895e-08 5.8190293e-09 7.594955e-09 1.8809377e-08 3.0007794e-08 3.012963e-08 4.2501032e-08 4.9223145e-06
1.3570767e-06 9.6466e-06 2.5245864e-08 6.3895484e-08 7.974021e-08 5.073071e-08 9.027495e-08 9.273615e-08
4.6242068e-08 7.563136e-08 9.456184e-08 3.666081e-08 7.043296e-08 8.368399e-08 2.1221973e-07 2.5342214e-07
2.6364145e-07 1.950387e-05 1.5128512e-05 7.2460657e-06 6.346189e-09 1.9521654e-08 3.0016444e-08 1.3860555e-08
2.4487669e-08 3.5907625e-08 1.8958145e-08 2.7918517e-08 3.4164934e-08 1.6636e-08 2.3455055e-08 3.6688572e-08
1.9199568e-08 2.6237197e-08 3.9194443e-08 6.6357065e-06 2.881488e-06 3.2329463e-06 1.0751397e-08 2.5039702e-08
4.906484e-08 2.4810674e-08 4.2269686e-08 6.7361015e-08 3.284671e-08 4.6278828e-08 6.9729126e-08 1.7010228e-08
3.904332e-08 6.9243946e-08 1.9216135e-07 2.1249265e-07 2.2937377e-07 5.184977e-06 8.3623145e-06 6.4447836e-06
2.9940086e-08 6.6701084e-08 8.4117104e-08 5.2922243e-08 9.5450666e-08 1.0342173e-07 4.6048566e-08 7.5231625e-08
9.2644896e-08 3.8063202e-08 7.275856e-08 8.809319e-08 1.7808921e-07 2.1931669e-07 2.3214173e-07 1.971915e-05
1.390906e-05 7.1833933e-06 2.2065533e-08 2.2492811e-08 7.999525e-08 3.6987124e-08 4.3094992e-08 9.7652034e-08
3.801557e-08 6.587464e-08 1.1522129e-07 1.2440576e-08 5.1767756e-08 1.09158364e-07 5.004886e-08 9.055849e-08
1.5667058e-07 2.410889e-06 1.1405895e-05 3.9654213e-05 4.1289874e-09 4.7777533e-09 6.9991692e-09 4.347168e-09
8.389708e-09 1.0499934e-08 3.5796757e-09 5.8478387e-09 8.983396e-09 3.1893088e-09 7.2645463e-09 1.0394409e-08
1.6123039e-08 1.825045e-08 2.2636838e-08 1.7704631e-06 3.9747233e-06 4.9112004e-06 1.5341741e-09 1.2301112e-09
3.2983858e-09 1.3843212e-09 2.0401383e-09 3.8109547e-09 1.2039427e-09 1.7896037e-09 3.9735806e-09 1.1409949e-09
2.046331e-09 4.230744e-09 5.4420437e-09 6.6607146e-09 9.673274e-09 4.8814746e-07 1.3914587e-06 2.8119487e-06
2.0077133e-09 1.6885466e-09 2.056844e-09 1.809041e-09 1.3168887e-09 2.9126355e-09 3.10189e-09 2.3681614e-09
3.8836534e-09 1.5208117e-09 1.4892941e-09 3.9653334e-09 1.7592264e-08 1.5876253e-08 2.045419e-08 8.6978736e-07
7.2213703e-07 1.6759666e-06 1.5203678e-08 2.6775025e-08 4.88604e-08 2.1495268e-08 4.0395253e-08 6.142387e-08
2.0662783e-08 3.9638646e-08 6.2017776e-08 1.629126e-08 4.334866e-08 6.3175975e-08 6.930276e-08 1.0337935e-07
1.2204899e-07 5.3612825e-06 2.0341953e-05 6.109963e-06 7.201834e-09 5.384071e-09 6.0087872e-09 7.916083e-09
5.672454e-09 1.0738031e-08 5.7534026e-09 9.147501e-09 1.1301311e-08 4.3023927e-09 5.7749947e-09 1.0373737e-08
1.7228038e-08 1.841474e-08 2.583464e-08 2.552048e-06 3.2032788e-06 9.4629695e-06 5.0153384e-09 5.377987e-09
1.49901e-08 1.0079161e-08 1.1942415e-08 1.943623e-08 1.2137699e-08 1.5096528e-08 2.33227e-08 3.9930423e-09
1.248302e-08 2.0891687e-08 1.1171503e-07 1.195924e-07 1.1930489e-07 1.4845979e-06 3.955263e-06 2.6542896e-06
3.7550425e-09 3.2159826e-09 3.711279e-09 2.9121112e-09 2.5213684e-09 3.252421e-09 3.6780619e-09 4.8826525e-09
7.3307684e-09 2.0208313e-09 3.3150018e-09 6.3954566e-09 4.3875668e-09 6.6160193e-09 9.893218e-09 2.4891472e-07
9.641781e-07 1.0665858e-06 1.2545389e-08 1.7028635e-08 3.1627792e-08 2.8343308e-08 3.430619e-08 4.8716966e-08
2.625572e-08 3.257147e-08 5.01776e-08 1.0824629e-08 2.6818137e-08 4.8068888e-08 1.3920852e-07 1.5540829e-07
1.6764619e-07 5.473469e-06 6.951443e-06 6.3665843e-06 3.7888497e-09 4.4915813e-09 6.0548837e-09 4.0894688e-09

exp_avg f4 [64, 128, 1, 3]
00000000: 48b1 1b35 790a 3237 70d8 f4b5 ef1b 43b6
00000010: cb2e 8736 cfd0 fb35 d977 2935 cd22 ac36
00000020: 7de3 9036 8456 acb6 50d1 2bb6 dfb1 7036
00000030: d636 e7b5 088e 8235 ab30 df35 0fc4 32b5
00000040: 8399 1135 12cc 2d36 d0b5 0f37 049c 8037
00000050: b860 fd36 6eff 0a36 fdc1 c433 b783 a436
00000060: 8dcf aab4 1336 0d37 3214 09b7 5c3b 5736
00000070: 8074 38b7 973f eb36 913b ecb5 bd73 2037
00000080: 30a1 13b7 6f15 98b6 7fce a4b5 7a78 6a36
00000090: 2cbb b634 bc0f 60b3 cdb2 ccb4 c8e4 88b6
000000a0: 422e bb35 c710 0b36 18fd 0237 d7f8 9c37
000000b0: aab2 fe36 3365 1a36 72e4 9e37 3605 89b7
000000c0: f956 dbb6 fdd6 2b36 adbf 3136 7221 90b6
000000d0: 6f22 8735 76d6 1536 32d6 90b6 ac85 e035
000000e0: c499 ef35 d90a 2635 d25f e9b6 e3d1 9c36
000000f0: fe9d bab1 f54e 74b7 ec29 e136 dedc 0236
00000100: fc53 0236 4477 8135 1ddf bcb6 3155 5736
00000110: 1cef 2037 cae1 0e36 836a 0636 a58c 8336
00000120: e2ed 7c36 d8e3 c836 0d00 3e36 8b3c fe36
00000130: 7398 3137 6494 6436 491f e0b6 b7fd 2235
00000140: 2c78 4836 534b 90b5 50bd 26b7 d3d2 5f37
00000150: 1d4f c735 7f4c 3db5 ceb9 8e35 9da5 8336
00000160: 73d0 4d37 0d29 6b36 6d1a 9836 2f1f c635
00000170: 3ddf 2037 6dbb b335 f85b b936 8c0b bc35
00000180: c5f9 6eb6 738a f236 dd19 3337 1bd0 c0b4
00000190: ff60 abb6 b4b9 b836 6d1a a1b6 0470 4c37
000001a0: c061 09b7 f49e 2a34 511e aa36 e271 0b35
000001b0: c965 a4b6 697e beb5 1c77 4a36 af2a b136
000001c0: 036b beb6 9f61 1337 9dc1 bcb6 c81e a9b6
000001d0: 64a7 0cb7 1896 a7b6 6fa6 8b34 0b0f 6336
000001e0: 52a4 be36 d254 9d36 9a99 3236 c99c a5b6
000001f0: c2e5 4a37 3d47 27b7 8c8c 9a36 96b5 a535
00000200: 841a 1f37 9700 2236 a6f2 ab36 17ee b235
00000210: de5b 49b5 d546 7b37 4ac3 afb6 41c9 4f34
00000220: 06c4 2437 2bd6 ceb6 4b64 7636 c5c8 dfb3
00000230: f2ec 1937 673f 9a35 9b12 2136 099b 88b5
00000240: cf3a 3f36 6098 4336 1f0b d236 7e41 9931
00000250: 32a5 c936 c3ab 9c35 dfab a136 4c15 2336
00000260: 919c 8837 60ee 9236 2782 8237 73ce 3c36
00000270: 8e95 1c36 3d75 dc36 d392 fd36 131b 10b4
00000280: 0241 53b7 fdd8 db36 6658 8635 31a0 3b37
00000290: 0b19 bcb6 7044 a4b6 46e7 8135 23d0 0636
000002a0: 2f56 96b6 5b1f c0b6 f71c 03b7 4d46 0f35
000002b0: 942d 4235 7323 de35 7acf fe36 1665 4437
000002c0: 6252 e636 8505 b036 7e6d d236 9ca9 1136
000002d0: ed0d 93b6 6d09 a1b5 a1ad 6436 1108 c7b4
000002e0: 23ed a636 340d 4735 4e31 b335 b308 8d36
000002f0: b041 c636 545e ddb4 1707 c136 77af ff36
00000300: e807 18b4 a331 1b36 87bf 9236 5d8a 9035
00000310: 56b0 01b7 301c 7036 46cd 1ab5 143d 0f37
00000320: ddd3 e5b6 4267 0cb6 6666 efb6 cdae 9b35
00000330: 500c 6cb6 beb9 4436 37d8 8136 4a21 c5b5
00000340: 516d 1f37 fc5b 7ab7 18ad 19b6 e4f2 9536
00000350: 5623 1536 7d36 7736 1fca 4935 266a b535
00000360: 4c0b 5435 d69a 5b37 919a bbb4 8086 eab3
00000370: 4ca4 8234 2e41 5536 9e57 b336 539b f036
00000380: 5272 0837 f205 a836 44a4 8136 fe1d 1437
00000390: 8005 8eb6 4347 3fb6 e31d 8e36 01a5 ffb5
000003a0: b6b5 e335 a44a 8636 f1e3 fcb5 d0a9 b036
000003b0: fdd2 a536 12c8 b432 0b38 7235 a294 bc35
000003c0: 4fa0 0a36 69da 0237 03ee 06b7 7b02 1335
000003d0: b079 d836 4dab f135 7b19 0636 7428 b136
000003e0: ff37 0a36 ba6b f435 e432 88b4 cfb4 8f36
000003f0: f300 88b5 8cec 50b5 a9a4 fa35 4a46 dfb6
5.799998e-07 1.0612065e-05 -1.8242408e-06 -2.9073524e-06 4.028761e-06 1.8761729e-06 6.313181e-07 5.130051e-06
4.3180175e-06 -5.136071e-06 -2.5602822e-06 3.5866321e-06 -1.72268e-06 9.727091e-07 1.6628959e-06 -6.659547e-07
5.42401e-07 2.5897793e-06 8.565796e-06 1.533144e-05 7.551247e-06 2.0712282e-06 9.1622475e-08 4.9029145e-06
-3.181598e-07 8.416845e-06 -8.170538e-06 3.2072048e-06 -1.0994379e-05 7.0109486e-06 -1.7600706e-06 9.563691e-06
-8.799412e-06 -4.532448e-06 -1.227905e-06 3.4938844e-06 3.4036327e-07 -5.2168375e-08 -3.8128056e-07 -4.0797495e-06
1.3946049e-06 2.072238e-06 7.807532e-06 1.8712524e-05 7.590589e-06 2.3006694e-06 1.8941446e-05 -1.63341e-05
-6.5368336e-06 2.5606125e-06 2.6486625e-06 -4.295428e-06 1.0068305e-06 2.2327563e-06 -4.31647e-06 1.6728204e-06
1.7851639e-06 6.1855604e-07 -6.955096e-06 4.6735963e-06 -5.431274e-09 -1.4561917e-05 6.710403e-06 1.9500071e-06
1.9420395e-06 9.64596e-07 -5.6288104e-06 3.2087084e-06 9.592415e-06 2.1291075e-06 2.0029554e-06 3.9204774e-06
3.7689392e-06 5.986989e-06 2.8312236e-06 7.576838e-06 1.0585517e-05 3.4061022e-06 -6.6793623e-06 6.0718907e-07
2.9872272e-06 -1.0750758e-06 -9.938449e-06 1.3340922e-05 1.484968e-06 -7.0519303e-07 1.0633901e-06 3.923384e-06
1.22674855e-05 3.5041624e-06 4.5330294e-06 1.4761225e-06 9.58872e-06 1.3391087e-06 5.524136e-06 1.4010452e-06
-3.5610149e-06 7.2282796e-06 1.0675253e-05 -3.5914204e-07 -5.107489e-06 5.505246e-06 -4.8012503e-06 1.2185428e-05
-8.1885955e-06 1.589031e-07 5.069924e-06 5.1947256e-07 -4.89943e-06 -1.4192893e-06 3.0169676e-06 5.27998e-06
-5.674899e-06 8.784612e-06 -5.625376e-06 -5.040176e-06 -8.383624e-06 -4.994461e-06 2.6011864e-07 3.3834392e-06
5.6815707e-06 4.688839e-06 2.6613475e-06 -4.9356354e-06 1.2093633e-05 -9.970562e-06 4.6059195e-06 1.2346306e-06
9.483312e-06 2.4140224e-06 5.124445e-06 1.3331327e-06 -7.501202e-07 1.4977258e-05 -5.238141e-06 1.9351593e-07
9.820802e-06 -6.164211e-06 3.6715235e-06 -1.04207665e-07 9.174679e-06 1.1492347e-06 2.40017e-06 -1.0177911e-06
2.849545e-06 2.9145958e-06 6.2597824e-06 4.4603317e-09 6.009498e-06 1.1672895e-06 4.8181823e-06 2.430129e-06
1.628537e-05 4.3788896e-06 1.5557815e-05 2.8134352e-06 2.3332864e-06 6.5701593e-06 7.55708e-06 -1.3420895e-07
-1.2591716e-05 6.5519694e-06 1.0009505e-06 1.1183366e-05 -5.605752e-06 -4.895548e-06 9.678558e-07 2.0088708e-06
-4.4803814e-06 -5.725696e-06 -7.814952e-06 5.337395e-07 7.2336957e-07 1.6550606e-06 7.5939433e-06 1.1706046e-05
6.8641248e-06 5.2458513e-06 6.2712343e-06 2.170541e-06 -4.3825626e-06 -1.1998178e-06 3.4075713e-06 -3.7072508e-07
4.974792e-06 7.415249e-07 1.3350889e-06 4.20314e-06 5.908507e-06 -4.123309e-07 5.7526736e-06 7.620019e-06
-1.415898e-07 2.3125692e-06 4.373436e-06 1.0769105e-06 -7.730056e-06 3.5779194e-06 -5.766818e-07 8.537685e-06
-6.849396e-06 -2.092173e-06 -7.134676e-06 1.1599274e-06 -3.5173907e-06 2.9314392e-06 3.8696703e-06 -1.4687332e-06
9.502591e-06 -1.4922578e-05 -2.289953e-06 4.468822e-06 2.2223298e-06 3.6837585e-06 7.517246e-07 1.3516444e-06
7.8992593e-07 1.3089468e-05 -3.4943926e-07 -1.09209395e-07 2.433393e-07 3.1777413e-06 5.3448157e-06 7.1706395e-06
8.132849e-06 5.0074823e-06 3.8636226e-06 8.8284705e-06 -4.23257e-06 -2.8502698e-06 4.235409e-06 -1.9047003e-06
1.6965703e-06 4.0022005e-06 -1.8841803e-06 5.2649775e-06 4.9419455e-06 2.104574e-08 9.023358e-07 1.4050349e-06
2.0656914e-06 7.799456e-06 -8.042439e-06 5.4765377e-07 6.451468e-06 1.8005754e-06 1.9982388e-06 5.2797204e-06
2.0596196e-06 1.8210769e-06 -2.5369002e-07 4.282781e-06 -1.0133066e-06 -7.783026e-07 1.8674374e-06 -6.6541006e-06

exp_avg_sq f4 [64, 128, 1, 3]
00000000: 9221 d130 c72d 6c31 f784 d631 10fb 0931
00000010: c75e 1f30 ca29 df30 1f8f 3631 5745 c530
00000020: cf42 db30 736a 1c31 d0f9 a330 b933 a130
00000030: 3dc0 8930 efe5 8e2f 4021 8b30 a0c3 e730
00000040: ca0f f931 649b 1932 d4ef 8331 c1fe a331
00000050: 1865 0c32 d42f 0930 e3f1 c32f ce49 3b30
00000060: f73f 6830 ca61 c630 7b4c 3131 3641 2b30
00000070: 009a 9331 0a90 8431 ebf9 ab30 ad00 2831
00000080: 02bb 8331 3b81 e330 f7ea 6930 3aac 7130
00000090: cc26 7b2f a79c 4e30 406e 8130 eae8 e930
000000a0: 3744 0b30 6682 a230 6b1b 3631 96dd b231
000000b0: f980 1732 e801 6831 2c91 c031 ea43 2f32
000000c0: 8b40 7231 4583 8030 f2f3 6131 148c dc30
000000d0: b737 f52f 40a1 8b30 0bbc ec30 7e1b 0d30
000000e0: 41de be30 2016 1b30 b3e6 1331 26c4 0431
000000f0: a727 5630 520e bd31 33c7 a031 9987 2330
00000100: 7851 8430 1b4d 8e30 e1db 3d30 31da 3c30
00000110: 2f15 9230 dde6 942f 030f 6a30 311d 7830
00000120: aa64 5030 357b 8b30 30fb f730 0eb1 4731
00000130: 40f1 9531 7615 f731 e806 3a31 82e2 7230
00000140: a016 cf30 d0b3 8630 7848 ad31 32f6 2331
00000150: 5017 d12f 6dcf d330 7777 ef30 f314 1130
00000160: b5db 5631 bbe6 9031 887a c530 9744 7d31
00000170: 0b67 2f31 2419 502f eda1 7d30 49fd a330
00000180: 642b 0d30 1a3e c530 4972 1631 d04f aa30
00000190: c968 3331 24f4 d430 d02d 0a31 e6e0 4531
000001a0: b1d1 c931 e3ac 0130 8485 8d30 e45f e830
000001b0: 1513 6e30 f60b 1d30 b30e 2a30 3c65 fe30
000001c0: 2fd7 8831 50e9 3231 148c 3f30 8fef 0530
000001d0: b0f2 3831 57f8 df30 5ad3 4f30 eb85 3931
000001e0: 2368 8530 47a7 e830 4567 8f31 d8de 2c31
000001f0: 885d 6131 5515 ec31 d038 a330 c2f1 8531
00000200: a7f5 5331 095d 2631 d56a e330 7288 6231
00000210: c95c a830 f85b 9a31 0965 a931 af06 a230
00000220: ea26 4031 fd5d 7a31 28e6 9730 6615 6f30
00000230: 62f1 bf30 b0a9 3c2f 757b 542f d914 3630
00000240: afc9 ac2f f551 2731 3c26 dd31 50aa 3531
00000250: 8f29 2831 0ca9 c131 4af4 3331 fe9c 0332
00000260: afd5 5631 fbbf 9a30 7868 8d31 fdee c431
00000270: 2add 9531 944c 5c31 dbf2 bc31 4cb6 4330
00000280: 9a81 7831 ab2a 3e31 a2fb 6d30 5efa e330
00000290: 82d5 4431 74e1 3731 926f 5a30 a4db 0531
000002a0: 9405 2a30 2d33 3330 eb9a 2230 c344 6530
000002b0: 3673 bb2f 1f22 8230 4518 2231 47c1 4b31
000002c0: 5804 af31 38f9 6230 fce2 3e30 508e 9030
000002d0: c70b e930 916f 7c30 45e6 7930 69cd 0330
000002e0: 4560 8530 a3f3 ba30 9a5b 0a31 6193 ca30
000002f0: 8c93 d730 8ffd 1331 78e6 f730 7d9c 0431
00000300: a719 2e31 e3d7 0932 c3a4 1e32 6821 3930
00000310: 7376 8131 c167 9731 64ae 9030 a652 0931
00000320: 99ac 7431 8bac c92f 6d36 6430 4a98 8130
00000330: 9366 fb30 dfaa 1f30 419e 8831 d2c6 1531
00000340: 4c4c 2331 2c4f d431 2ef1 5231 5ebf 5b30
00000350: 34a9 3231 cfd8 1030 66df 5f30 6e42 6530
00000360: 5967 5530 297b 9131 4962 a431 d203 5330
00000370: 8967 9131 6b99 9b31 e6ef 9f30 0dd6 a630
00000380: 8dbe 2831 5150 4630 a46b 8f31 9c2a 6232
00000390: 2702 fa30 0557 9f30 de75 9430 699d bd30
000003a0: a47c 3430 accc 7d31 27a3 a92f 4606 4230
000003b0: cd3a 9730 8204 0a2f 1aa9 9e2f 7080 0330
000003c0: cbad 5631 9b6e 3e30 dc70 ba31 b4b9 ec30
000003d0: 397b bd30 a2da d930 7bb9 e930 db67 5530
000003e0: 3301 0631 97c7 d62f 0d4e 5b30 bc40 8f30
000003f0: 594c f72f 7b4b 4630 383f 8830 6889 f030
1.5216293e-09 3.4368541e-09 6.243336e-09 2.0078836e-09 5.797855e-10 1.6237263e-09 2.656584e-09 1.4353344e-09
1.5953335e-09 2.2761497e-09 1.1930812e-09 1.1728992e-09 1.0022699e-09 2.5993027e-10 1.0123031e-09 1.6863062e-09
7.248649e-09 8.941104e-09 3.839867e-09 4.7728865e-09 8.172059e-09 4.990828e-10 3.5642164e-10 6.8135086e-10
8.449201e-10 1.4434189e-09 2.5800364e-09 6.230211e-10 4.295771e-09 3.858081e-09 1.2512918e-09 2.4447602e-09
3.833862e-09 1.6553153e-09 8.509881e-10 8.792004e-10 2.28421e-10 7.516498e-10 9.41732e-10 1.7019179e-09
5.0664845e-10 1.1824113e-09 2.650007e-09 5.2056732e-09 8.818682e-09 3.3761527e-09 5.6044396e-09 1.02017825e-08
3.5252323e-09 9.350535e-10 3.2880476e-09 1.6046919e-09 4.4604828e-10 1.0159411e-09 1.7224705e-09 5.133457e-10
1.3887488e-09 5.6420113e-10 2.1522453e-09 1.9320026e-09 7.7909096e-10 5.502252e-09 4.679259e-09 5.949175e-10
9.627419e-10 1.0353775e-09 6.9070266e-10 6.870407e-10 1.0628919e-09 2.7085081e-10 8.5150037e-10 9.026336e-10
7.581301e-10 1.0148599e-09 1.8043007e-09 2.9058955e-09 4.3638977e-09 7.191086e-09 2.7070488e-09 8.8360974e-10
1.5067663e-09 9.800889e-10 5.0432014e-09 2.3859568e-09 3.8033443e-10 1.5411225e-09 1.7423493e-09 5.2780463e-10
3.1265988e-09 4.2171826e-09 1.4368462e-09 3.6855334e-09 2.5524425e-09 1.8926422e-10 9.2270974e-10 1.1931799e-09
5.1357163e-10 1.4351287e-09 2.1892836e-09 1.2391812e-09 2.6107492e-09 1.5494419e-09 2.0107684e-09 2.8795113e-09
5.873709e-09 4.7175613e-10 1.0297048e-09 1.6907475e-09 8.6611013e-10 5.7133265e-10 6.186653e-10 1.8509705e-09
3.9825845e-09 2.6035032e-09 6.968446e-10 4.872555e-10 2.6913476e-09 1.6295968e-09 7.560651e-10 2.6997167e-09
9.706621e-10 1.6927765e-09 4.173588e-09 2.5155966e-09 3.2794976e-09 6.870929e-09 1.1875958e-09 3.898294e-09
3.0844178e-09 2.4209064e-09 1.6546787e-09 3.2964889e-09 1.224998e-09 4.4924455e-09 4.9300337e-09 1.1788951e-09
2.7961797e-09 3.6433214e-09 1.105211e-09 8.69781e-10 1.3965684e-09 1.7158786e-10 1.9325148e-10 6.624084e-10
3.1429923e-10 2.4348286e-09 6.4362933e-09 2.6435778e-09 2.447084e-09 5.6362577e-09 2.618679e-09 7.6608995e-09
3.1262564e-09 1.1259539e-09 4.115517e-09 5.7315206e-09 4.361614e-09 3.2057743e-09 5.4991296e-09 7.1199646e-10
3.616242e-09 2.7672893e-09 8.657769e-10 1.6587582e-09 2.864312e-09 2.675816e-09 7.946649e-10 1.9478898e-09
6.1853567e-10 6.5192546e-10 5.915541e-10 8.340743e-10 3.4096964e-10 9.468443e-10 2.3587898e-09 2.9650253e-09
5.093664e-09 8.257248e-10 6.944416e-10 1.0517827e-09 1.6956329e-09 9.183561e-10 9.0912905e-10 4.794943e-10
9.704385e-10 1.3602527e-09 2.0133712e-09 1.4739322e-09 1.5685244e-09 2.1535447e-09 1.8037118e-09 1.9297481e-09
2.5334914e-09 8.0235365e-09 9.234273e-09 6.735008e-10 3.7678602e-09 4.406474e-09 1.0526944e-09 1.9983104e-09
3.5604784e-09 3.6684286e-10 8.302326e-10 9.429268e-10 1.8291807e-09 5.8086685e-10 3.9761123e-09 2.179537e-09
2.3762992e-09 6.179013e-09 3.0696117e-09 7.9943685e-10 2.599859e-09 5.2695e-10 8.1444396e-10 8.3404117e-10
7.7635814e-10 4.234057e-09 4.784202e-09 7.676678e-10 4.231826e-09 4.5285353e-09 1.1636956e-09 1.2138927e-09
2.4555533e-09 7.2146117e-10 4.174085e-09 1.316462e-08 1.8190506e-09 1.1593505e-09 1.0801917e-09 1.3796299e-09
6.5660744e-10 3.6932688e-09 3.0856848e-10 7.0585704e-10 1.1003408e-09 1.2552628e-10 2.8860186e-10 4.7840043e-10
3.1239888e-09 6.9278777e-10 5.426143e-09 1.722404e-09 1.3786582e-09 1.5850967e-09 1.7005698e-09 7.7636536e-10
1.9500248e-09 3.906819e-10 7.978265e-10 1.0423018e-09 4.4983287e-10 7.2139245e-10 9.91327e-10 1.7501351e-09
