exp/loss/multiclass/state.pt (torch_old, 340523 bytes, 12 tensors)

conv1.weight f4 [128, 4, 1, 3]
0	0x3ed744d0	0.42044687
1	0x3e57448b	0.21022241
2	0xbbc2e6ba	-0.005947915
3	0xbe9ca428	-0.3059399
4	0xbcfa4ea0	-0.03055507
5	0x3ca88d7a	0.020575274
6	0xbcb4a579	-0.02205156
7	0x3ebef460	0.37295818
8	0x3d17ffde	0.03710925
9	0xbe01c17a	-0.12671462
10	0xbd695045	-0.056961317
11	0xbe2bb1ff	-0.16767119
12	0x3e801226	0.25013846
13	0xbe757b15	-0.23972733
14	0xbe096819	-0.13418616
15	0xbe53417e	-0.20630452
16	0x3da33062	0.07968213
17	0xbe1f06fb	-0.15530007
18	0xbe5c22ae	-0.21497604
19	0x3efac7cc	0.48980558
20	0x3de0ca1e	0.10976051
21	0xbe1dfdb0	-0.15428805
22	0xbc7e9553	-0.015538531
23	0xbe85562a	-0.260423
24	0x3e306092	0.17224339
25	0x3dc7d22d	0.09756885
26	0x3e796617	0.2435535
27	0x3e9d2ef2	0.3069988
28	0x3e1089bb	0.1411504
29	0x3ea6804e	0.32519764
30	0xbf0c395e	-0.54775035
31	0xbe811dbf	-0.25218007
32	0xbcff4e4d	-0.031165266
33	0x3cae64ea	0.021288354
34	0xbea13cdb	-0.31491742
35	0xbe2798a3	-0.1636682
36	0xbe33e1d5	-0.17566617
37	0x3eca57a5	0.39519992
38	0xbd9748b7	-0.07386916
39	0xbee263d7	-0.44216797
40	0x3e72d648	0.23714554
41	0xbcf02c0f	-0.029317884
42	0xbc340929	-0.010988512
43	0x3e4ff020	0.20306444
44	0x3deb8a62	0.11501004
45	0x3efdd249	0.49574497
46	0xbdd23a47	-0.10265022
47	0xbe614ad2	-0.22001198
48	0x3eafb272	0.3431583
49	0xbe93e709	-0.28887203
50	0xbe3738f6	-0.17892823
51	0xbeb48c4c	-0.35263288
52	0x3df8eb56	0.12154262
53	0x3e80471a	0.25054246
54	0xbe975ec0	-0.29564476
55	0xbe28e31e	-0.16492888
56	0x3db5c451	0.08875335
57	0xbd92176b	-0.07133373
58	0xbe37cb2f	-0.17948602
59	0x3e57469c	0.21023029
60	0xbf13a77d	-0.5767744
61	0x3d31ef87	0.04344132
62	0xbe9b8e73	-0.30382118
63	0xbe63b3b1	-0.22236516
64	0xbea6db5d	-0.32589236
65	0xbe647ece	-0.22313997
66	0xbe4483e7	-0.19190942
67	0x3ddfb3b7	0.1092295
68	0x3edaab64	0.42708886
69	0xbd65cde3	-0.056104552
70	0x3cade085	0.021225223
71	0xbe12e3f8	-0.14344776
72	0xbf0091b2	-0.50222313
73	0x3d821694	0.06351963
74	0xbe452a31	-0.19254376
75	0x3db6ca48	0.08925301
76	0xbc9dbd6f	-0.019255368
77	0x3d07745e	0.03306996
78	0xbe320b68	-0.17387164
79	0xbea1acea	-0.31577235
80	0x3e9590ec	0.2921213
81	0x3e559122	0.20856145
82	0xbebae56b	-0.36503157
83	0x3ea5b3fe	0.32363886
84	0x3cced679	0.025248753
85	0xbe403ff8	-0.18774402
86	0x3c56378f	0.01307477
87	0xbf3f2629	-0.746676
88	0x3cd5a0fd	0.026077742
89	0xbe545488	-0.20735371
90	0xbda6b763	-0.08140447
91	0x3ed3e557	0.4138591
92	0x3e809a1b	0.25117573
93	0xbf0a4a34	-0.54019475
94	0x3ccc6c76	0.024954062
95	0x3e5213c1	0.20515348
96	0x3f1230b6	0.57105577
97	0xbd866afa	-0.06563373
98	0x3e286b1f	0.16447113
99	0xbea23d73	-0.31687507
100	0xbf1333f1	-0.5750113
101	0xbefffef9	-0.49999216
102	0x3d29a93e	0.041421168
103	0x3cc55206	0.024086963
104	0xbc1dd33c	-0.009632882
105	0x3eb30d9d	0.34971324
106	0xbe315022	-0.17315724
107	0x3d81f294	0.06345096
108	0xbe1989f9	-0.14994039
109	0x3ee7ea5c	0.4529599
110	0xbd8128c6	-0.06306605
111	0xbf0638b7	-0.5243029
112	0xbdaf84b3	-0.08570232
113	0xbe82d4b6	-0.2555291
114	0xbf1dc99a	-0.61635745
115	0xbc7c18ec	-0.015386801
116	0x3e6352bb	0.22199528
117	0x3f056bb5	0.5211747
118	0x3d85358a	0.065043524
119	0xbf02dd9e	-0.5111941
120	0x3eb98f6c	0.36242235
121	0xbebe560f	-0.37175032
122	0x3e8be905	0.27326217
123	0x3dd651d1	0.10464824
124	0x3e221973	0.1583002
125	0xbe7f563a	-0.24935237
126	0xbec84ef5	-0.3912274
127	0xbe0556d3	-0.13021402
128	0x3e8659d4	0.26240408
129	0xbe32d0f8	-0.17462528
130	0xbe3f3f73	-0.18676548
131	0x3ee33106	0.4437334
132	0xbdf24ea3	-0.11831405
133	0xbe2e5d64	-0.17027813
134	0xbd9386d8	-0.07203454
135	0x3dfea417	0.124336414
136	0x3dee665c	0.11640617
137	0xbdef3b51	-0.116812356
138	0xbe960b09	-0.29305294
139	0xbe0b0378	-0.13575542
140	0xbecc51ab	-0.39906058
141	0x3d825c1f	0.06365227
142	0xbde3c1c8	-0.11120945
143	0x3e8fefc9	0.2811263
144	0xbe212310	-0.15736032
145	0xbddc261e	-0.10749458
146	0x3ec080d1	0.3759828
147	0x3eaead4a	0.34116584
148	0xbc00a1cc	-0.007851075
149	0x3c88654d	0.016649866
150	0xbc29f23f	-0.010372697
151	0xbea2ea67	-0.3181946
152	0xbebe0839	-0.37115648
153	0x3e090a3f	0.13382815
154	0x3e97eb43	0.29671678
155	0xbdf91d9c	-0.12163851
156	0x3eef68e7	0.46759722
157	0xbeb8ba26	-0.3607952
158	0x3ec22fc8	0.3792708
159	0x3eac7e13	0.33689937
160	0x3ec6cef4	0.38829768
161	0x3e1e7fc1	0.15478422
162	0xbe661c20	-0.22471666
163	0xbdb83f22	-0.08996417
164	0x3e844c4f	0.2583947
165	0x3e930ddc	0.2872151
166	0xbee4809d	-0.44629374
167	0xbede4d4f	-0.43418357
168	0x3e00ccc6	0.12578115
169	0xbe8780ff	-0.26465604
170	0xbddbadc3	-0.10726502
171	0xbf32442d	-0.6963528
172	0xbda9a327	-0.08283072
173	0xbd7e15c9	-0.062032495
174	0xbd1ea4eb	-0.038731497
175	0x3eaccbb1	0.33749154
176	0x3ea74b92	0.32674843
177	0x3e0ce0b2	0.1375759
178	0xbe226126	-0.15857372
179	0xbea43459	-0.32071188
180	0x3e94d3df	0.29067895
181	0xbe11a75f	-0.14224003
182	0xbe8df9cc	-0.27729642
183	0x3e44232a	0.19154039
184	0xbf013748	-0.5047498
185	0xbed182e4	-0.40920174
186	0x3d313e17	0.043272104
187	0x3ecf2751	0.40459684
188	0x3e867b0b	0.2626575
189	0x3d688c90	0.056774676
190	0xbec5be6b	-0.3862184
191	0x3e85bf14	0.26122344
192	0xbe3efe82	-0.18651775
193	0x3f1888f3	0.5958397
194	0xbeedbf7b	-0.4643515
195	0x3e274216	0.16333804
196	0x3d64a811	0.055824343
197	0x3e330136	0.1748093
198	0xbe4fefb5	-0.20306285
199	0x3ef1cd26	0.47226828
200	0xbcf427ca	-0.02980413
201	0xbe9e5a7c	-0.3092841
202	0x3d799489	0.06093267
203	0xbd84c6ea	-0.06483252
204	0x3da399a4	0.07988289
205	0xbe850485	-0.2598001
206	0x3e7ec4cc	0.2487976
207	0xbdcfd2d3	-0.101476334
208	0x3d417888	0.04723409
209	0x3ecf0f3b	0.40441307
210	0xbea61dd5	-0.32444635
211	0xbeb7e85b	-0.3591946
212	0x3dcac21d	0.099003054
213	0xbf08d36f	-0.5344762
214	0xbe6ebd79	-0.23314466
215	0xbe2dcee2	-0.16973451
216	0x3effa001	0.4992676
217	0xbe2711b1	-0.16315342
218	0xbd2289a5	-0.03968205
219	0x3e2d4f5b	0.16924803
220	0x3d48ca64	0.04902114
221	0xbd9f6554	-0.07782999
222	0x3ed3fd1b	0.41404042
223	0xbd9ad941	-0.07560969
224	0xbe5c7656	-0.21529517
225	0x3e04cf15	0.1296962
226	0xbe2248fa	-0.15848151
227	0xbc2926e4	-0.010324214
228	0xbe235f7c	-0.15954393
229	0x3bd84a06	0.006600621
230	0x3dd3f368	0.103491604
231	0xbe7ac0e1	-0.2448764
232	0xbd43dbb8	-0.047816962
233	0x3e31c212	0.17359188
234	0xbb8ef862	-0.0043631056
235	0x3e250916	0.16116747
236	0xbda001f2	-0.07812871
237	0x3ddaccc2	0.10683586
238	0xbdd04dbd	-0.101710774
239	0xbe9efeb2	-0.31053692
240	0x3e877038	0.26452804
241	0x3caf9567	0.021433545
242	0xbdfc9baf	-0.12334382
243	0xbe18f5d6	-0.14937529
244	0xbe2d53d2	-0.16926506
245	0x3d42b60b	0.04753689
246	0xbe7247fa	-0.2366027
247	0xbe0efbe5	-0.13963278
248	0xbda7de8a	-0.08196743
249	0x3e9aeeed	0.3026041
250	0x3dfe225c	0.12408897
251	0x3d8879e8	0.06663877
252	0x3e950fdf	0.2911367
253	0xbdc4569d	-0.09586833
254	0xbd69a84d	-0.05704527
255	0xbf10b736	-0.5652956

conv2.weight f4 [64, 128, 1, 3]
0	0xbf1f49c9	-0.6222196
1	0x3e57701b	0.21038859
2	0xbd0e3a79	-0.034723733
3	0xbcfc771b	-0.030818513
4	0xbe8f6e38	-0.28013778
5	0xbd296457	-0.041355457
6	0xbd90df5b	-0.07073852
7	0xbda008c9	-0.07814176
8	0x3e4f8004	0.20263678
9	0x3e85d411	0.26138356
10	0xbe2846ae	-0.16433212
11	0xbb5df93f	-0.0033870486
12	0x3e6dd9d7	0.2322763
13	0xbf0f3e9c	-0.5595491
14	0x3e66017e	0.22461507
15	0xbe8fe03a	-0.2810076
16	0xbdc63f6c	-0.096800655
17	0xbd26652e	-0.040623836
18	0x3e78f284	0.24311262
19	0xbe341269	-0.17585148
20	0x3e9ede1b	0.31028828
21	0x3e15e960	0.14639807
22	0xbea7ba13	-0.3275915
23	0xbe31f340	-0.17377949
24	0xbeb02bba	-0.3440836
25	0xbdc8c815	-0.098037876
26	0xbe10e878	-0.1415118
27	0xbc8c134f	-0.01709905
28	0xbe819c8d	-0.2531475
29	0x3d60f989	0.054925475
30	0x3e3a15d5	0.18172391
31	0xbe104f8c	-0.14092845
32	0x3e9bf75a	0.30462152
33	0xbdacb208	-0.08432394
34	0xbe058717	-0.13039814
35	0xbedc8d1e	-0.43076414
36	0xbf01f95f	-0.50771135
37	0x3c00b716	0.007856151
38	0xbeeb1ea9	-0.4592183
39	0xbf09e895	-0.53870517
40	0xbf1d343f	-0.61407846
41	0x3e464727	0.1936308
42	0xbd32ceb4	-0.04365416
43	0xbe4a32d7	-0.19745956
44	0x3cd7fda6	0.026366066
45	0xbd7e5e23	-0.062101495
46	0xbd9e398d	-0.07725821
47	0xbe17e422	-0.1483312
48	0xbf5f4dae	-0.87227905
49	0x3e31879f	0.17336892
50	0xbc606d47	-0.013697929
51	0x3ddc635e	0.1076114
52	0xbf32ea4a	-0.69888747
53	0xbc47b2bc	-0.01218861
54	0xbf62916c	-0.88503146
55	0x3e1962e2	0.14979127
56	0xbe8615a1	-0.26188377
57	0x3ce97955	0.028500238
58	0x3c3db598	0.01157894
59	0xbd328efb	-0.043593388
60	0x3edbb9a7	0.4291508
61	0xbdd6692c	-0.10469279
62	0x3e16783f	0.14694308
63	0xbb14aa8c	-0.0022684662
64	0xbdeccbdb	-0.1156232
65	0x3bf204ff	0.0073858495
66	0xbdc30ed4	-0.095243126
67	0xbc9b07d8	-0.018924639
68	0x3e78b469	0.24287571
69	0x3e4486e0	0.19192076
70	0xbf001ccd	-0.50043947
71	0x3e80d3ed	0.25161687
72	0x3eb32340	0.3498783
73	0xbe11b393	-0.14228658
74	0x3c1e9fb5	0.009681632
75	0x3e8e23cf	0.27761695
76	0xbeebadb6	-0.46030968
77	0x3e337665	0.17525633
78	0x3e607cf4	0.21922666
79	0xbe52557f	-0.20540427
80	0xbecd01ec	-0.4004053
81	0xbccdc34d	-0.02511754
82	0xbdbc753e	-0.0920205
83	0xbe4cb380	-0.19990349
84	0xbe95d2ce	-0.29262394
85	0x3e8a2af5	0.269859
86	0xbda5e860	-0.08100963
87	0x3dd1a59d	0.10236666
88	0xbe7edb00	-0.2488823
89	0xbe572a3c	-0.21012205
90	0xbf8159c0	-1.0105515
91	0xbe9df9c5	-0.30854622
92	0xbdc19f5b	-0.09454223
93	0xbd812100	-0.063051224
94	0xbe5c78b4	-0.2153042
95	0x3e5bb40a	0.21455398
96	0x3e65de10	0.22447991
97	0xbd94938e	-0.07254706
98	0xbec12e39	-0.37730578
99	0x3bea725f	0.0071547474
100	0xbdce43af	-0.10071503
101	0xbdefc2f3	-0.117071055
102	0xbf1e51e5	-0.6184371
103	0xbe6ec341	-0.23316671
104	0xbe03b6cf	-0.12862705
105	0xbec83e4f	-0.39110038
106	0xbe97b702	-0.2963181
107	0x3ea3b496	0.31973714
108	0xbc93b869	-0.01803227
109	0xbdf226c8	-0.11823803
110	0x3e6d9aa7	0.23203526
111	0x3c643b4e	0.013930155
112	0xbe26dd15	-0.16295274
113	0x3e464111	0.19360758
114	0x3ec3b8de	0.3822698
115	0xbef7aa85	-0.48372284
116	0xbee9ed7f	-0.45689008
117	0xbeb07a71	-0.34468415
118	0x3debdf41	0.11517192
119	0xbd9d952f	-0.0769447
120	0xbf71ec58	-0.94501257
121	0xbe19f841	-0.15036108
122	0xbe3ee8c1	-0.18643476
123	0xbd8d028b	-0.06885251
124	0xbdfbeb49	-0.123007365
125	0x3e32275c	0.17397827
126	0xbe1a3f84	-0.15063292
127	0x3e806290	0.25075197
128	0x3e0d7961	0.13815834
129	0x3e8fbeb4	0.28075182
130	0xbcaa9919	-0.020824956
131	0x3ea789ae	0.3272223
132	0xbf61f93a	-0.88270915
133	0xbf0497e4	-0.51794267
134	0xbdfd3f71	-0.12365616
135	0x3ee8dac3	0.45479402
136	0x3e3bfe5f	0.18358754
137	0x3e8bb6ad	0.27287808
138	0xbda381d0	-0.07983744
139	0xbce93cbb	-0.028471341
140	0x3ea74e48	0.3267691
141	0xbd5ac614	-0.05341156
142	0x3e7771bc	0.2416448
143	0xbe0b4fa0	-0.13604593
144	0xbc68c3cb	-0.014206837
145	0xbdf7d063	-0.121002935
146	0xbd800b10	-0.0625211
147	0xbe211f4e	-0.15734598
148	0x3e76aa53	0.24088411
149	0x3cb8bccf	0.022550968
150	0xbe2465e9	-0.160545
151	0xbe0ae4cd	-0.13563843
152	0xbdb2242f	-0.08698308
153	0xbf129993	-0.57265586
154	0xbe0250d6	-0.12726149
155	0xbb81e0d6	-0.00396357
156	0xbe3c4944	-0.18387324
157	0x3df61559	0.120157905
158	0xbf017317	-0.5056624
159	0x3e93f558	0.2889812
160	0x3e9a8633	0.3018051
161	0xbeed91cc	-0.46400297
162	0xbf47c695	-0.7803739
163	0xbe2cb81d	-0.16867109
164	0xbc95abf6	-0.018270474
165	0x3d2ccf21	0.04218972
166	0xbd8b87af	-0.06812989
167	0x3e4cbf64	0.19994885
168	0x3e038d5b	0.12846892
169	0xbd952028	-0.07281524
170	0xbe893afb	-0.2680281
171	0x3e35b83a	0.17746058
172	0x3ca7fb8d	0.020505691
173	0x3e03eb80	0.12882805
174	0xbf32a218	-0.69778585
175	0x3eadb9dc	0.33930862
176	0xbbfa60c8	-0.0076409318
177	0x3d17727a	0.036974408
178	0x3c3ed4cc	0.011647414
179	0xbed82b14	-0.42220366
180	0xbe3d9197	-0.1851257
181	0x3d7d3ae7	0.06182375
182	0x3cbd53eb	0.023111304
183	0xbf535fdf	-0.8256816
184	0x3d9773d9	0.07395143
185	0xbdd89ab1	-0.1057638
186	0xbdafbb04	-0.08580592
187	0x3e83be07	0.25730917
188	0xbdd2210d	-0.1026021
189	0xbe7917c1	-0.24325468
190	0xbe160b97	-0.14652859
191	0xbe299aaf	-0.16562913
192	0xbeb31688	-0.34978127
193	0x3e866228	0.26246762
194	0xbda531db	-0.0806615
195	0xbda4a97e	-0.080401406
196	0xbe0caecf	-0.13738559
197	0x3e3c9803	0.18417363
198	0xbf0d059d	-0.5508669
199	0x3d59e43c	0.053196177
200	0xbe263843	-0.162324
201	0x3e32e129	0.17468704
202	0xbd4d0162	-0.050050147
203	0x3d20dd15	0.03927334
204	0x3e4b4c7c	0.19853395
205	0xbe36d5d7	-0.17855011
206	0x3e2e3285	0.17011459
207	0x3dbafeb0	0.09130609
208	0xbe0bb9c6	-0.13645086
209	0x3e734da1	0.23760082
210	0x3eb848ea	0.3599313
211	0xbebf2726	-0.37334555
212	0x3dcd38f8	0.100206316
213	0xbf26f3b3	-0.65215605
214	0x3d9c0096	0.07617299
215	0xbe407101	-0.18793108
216	0xbf27770c	-0.65416026
217	0xbeafbd3a	-0.34324056
218	0x3d9af77a	0.07566734
219	0xbf5b37fe	-0.8563231
220	0xbda4acc4	-0.08040765
221	0x3db62932	0.08894576
222	0x3ee97302	0.45595556
223	0x3d160a75	0.036631066
224	0xbe8546c9	-0.26030567
225	0x3f205983	0.62636584
226	0x3d4f4241	0.050600294
227	0x3e533162	0.20624307
228	0x3e7f8e79	0.24956693
229	0x3d694e36	0.056959353
230	0xbed9fe71	-0.42576936
231	0xbdda686d	-0.10664449
232	0xbef84bb4	-0.48495257
233	0x3df407db	0.11915561
234	0xbd87e158	-0.06634778
235	0x3e0f78e5	0.14010961
236	0xbeb9f062	-0.3631621
237	0xbe3349ed	-0.17508669
238	0xbd8ee150	-0.06976569
239	0xbe274092	-0.16333225
240	0xbe711d49	-0.23546328
241	0x3e8b2c36	0.27182168
242	0xbe41daed	-0.1893117
243	0xbef7aff3	-0.48376426
244	0xbd2f4ba1	-0.042796735
245	0xbdc9019e	-0.098147616
246	0x3eb16a2a	0.3465131
247	0x3e81f91b	0.25385365
248	0x3b282737	0.002565814
249	0x3e9c24d7	0.30496857
250	0xbeb7b3f9	-0.35879496
251	0x3d2f60e6	0.04281702
252	0xbefad4bf	-0.48990437
253	0x3db2e94f	0.08735906
254	0xbe8b83a8	-0.27248883
255	0xbeb8a621	-0.36064246

conv3.weight f4 [32, 64, 1, 1]
0	0x3f49e590	0.7886591
1	0x3f46d8f8	0.7767482
2	0xbf1202ad	-0.5703533
3	0x3d86c4b0	0.06580484
4	0xbd76a65a	-0.06021724
5	0x3f248e96	0.6428007
6	0x3d4733be	0.04863333
7	0x3f1ed910	0.6204996
8	0x3f64fcaa	0.89448035
9	0x3f2d07f3	0.67590255
10	0x3dbb72e2	0.091527715
11	0xbd676577	-0.05649325
12	0xbd94ef18	-0.07272166
13	0xbd4deb5f	-0.050273295
14	0x3da8baf4	0.082387835
15	0xbdeb3ff5	-0.11486808
16	0x3f51184d	0.81677705
17	0xbf380feb	-0.7189929
18	0x3d787521	0.060658578
19	0x3f1c5eda	0.6108223
20	0x3f131f8c	0.5747001
21	0x3c8cc872	0.017185424
22	0x3f0a2d81	0.53975683
23	0x3f443af1	0.7665244
24	0x3f0a2363	0.53960246
25	0x3de68b49	0.11257035
26	0x3ea5619f	0.3230104
27	0x3eefc61e	0.4683084
28	0x3f01cae3	0.50700206
29	0x3f56c558	0.8389487
30	0xbd3514b7	-0.04420921
31	0x3f18637e	0.59526813
32	0x3f1b8b95	0.6075986
33	0x3f1db092	0.6159755
34	0x3d2babeb	0.041912
35	0xbe4fb944	-0.20285517
36	0x3dc31661	0.09525753
37	0x3da8951c	0.08231565
38	0xbd21ae4e	-0.03947287
39	0x3f51b2b1	0.81913286
40	0x3d8e87ce	0.069594964
41	0xbd98071e	-0.074232325
42	0xbdce4edc	-0.10073635
43	0x3d16f6c9	0.036856446
44	0xbdec58fb	-0.11540409
45	0x3ebc846f	0.3681979
46	0xbdd3495a	-0.10316725
47	0xbd973ee1	-0.0738504
48	0x3c7ceac5	0.015436833
49	0xbcd49472	-0.02594969
50	0xbf2bdb25	-0.67131263
51	0x3f1d961a	0.6155716
52	0xbdb0da90	-0.086354375
53	0xbdaf1c5f	-0.08550333
54	0x3d66ce47	0.056349065
55	0x3ed73782	0.42034537
56	0x3f41a892	0.7564784
57	0x3f2400ac	0.64063525
58	0x3b9d8de5	0.004808175
59	0xbeefce2e	-0.4683699
60	0x3f204442	0.62604153
61	0x3f4c08a1	0.79700667
62	0x3eda4e4f	0.4263787
63	0xbd795fba	-0.060882308
64	0x3f4b3d81	0.7939072
65	0x3f2f6655	0.6851552
66	0xbf04c20e	-0.51858604
67	0x3cecbd85	0.028898964
68	0xbcb41a29	-0.02198513
69	0x3f4607e5	0.77355796
70	0xbbb69f7c	-0.0055732112
71	0x3f20da57	0.6283316
72	0x3f6045d9	0.8760658
73	0x3f0d0b68	0.5509553
74	0xbcef4ce7	-0.029211475
75	0x3de0d7ca	0.109786585
76	0x3dfcad32	0.12337722
77	0xbd6c3bc4	-0.057674184
78	0xbc5fe919	-0.013666415
79	0xbd0dedbc	-0.03465055
80	0x3f536e03	0.8258974
81	0xbf2749fc	-0.65347266
82	0xbd099601	-0.03359032
83	0x3f494e93	0.7863552
84	0x3f522f86	0.82103765
85	0x3d3e886b	0.046516817
86	0x3f107588	0.5642934
87	0x3f576606	0.8414005
88	0x3f0154ca	0.5052
89	0x3cebfbf5	0.028806666
90	0x3ef89903	0.4855424
91	0x3f0d7281	0.55252844
92	0x3f0242ce	0.50883186
93	0x3f6d13ef	0.9260854
94	0x3da7679f	0.08174061
95	0x3f132727	0.57481617
96	0x3f0975f5	0.53695613
97	0x3f237393	0.6384823
98	0xbaa0cfa5	-0.0012268914
99	0xbebeae74	-0.37242472
100	0xbd2ea127	-0.042634156
101	0x3de24c00	0.11049652
102	0xbda3e133	-0.08001938
103	0x3f27ab76	0.65496004
104	0x3d0ec9ac	0.034860298
105	0x3d9c6da6	0.07638101
106	0x3d187586	0.037221454
107	0x3dbf42d2	0.09338917
108	0x3ca78bcc	0.020452403
109	0x3eef79ef	0.46772715
110	0x3d0fe4f4	0.035130456
111	0x3d03eeb4	0.032210067
112	0xbd80c166	-0.06286888
113	0x3ce1492a	0.027500708
114	0xbf15876a	-0.5840975
115	0x3f163868	0.5867982
116	0x3db9abbc	0.09065959
117	0x3dce3799	0.10069198
118	0xbcb22b53	-0.021749174
119	0x3f023567	0.50862736
120	0x3f4697d6	0.77575433
121	0x3f319423	0.69366664
122	0xbdb2b99f	-0.08726811
123	0xbed686af	-0.4189963
124	0x3f370633	0.71493834
125	0x3f389896	0.7210783
126	0x3f2bc161	0.6709195
127	0x3b570912	0.0032811803
128	0x3f179d6e	0.59224594
129	0x3f33bfde	0.7021464
130	0xbf1ad063	-0.6047422
131	0xbdf03f74	-0.11730853
132	0xba8fc094	-0.0010967427
133	0x3f365fd7	0.7123999
134	0x3ddda17a	0.10821815
135	0x3f08aaff	0.5338592
136	0x3f65102c	0.894778
137	0x3f0703da	0.5274025
138	0x3dd1fea5	0.10253648
139	0x3c954127	0.018219544
140	0xbd052578	-0.032506436
141	0xbc9754ae	-0.018472996
142	0x3dff0728	0.12452537
143	0x3d891943	0.066942714
144	0x3f25582d	0.6458767
145	0xbf06d259	-0.52664715
146	0x3d879aec	0.06621346
147	0x3f36fd97	0.714807
148	0x3f401e3d	0.7504614
149	0x3d197866	0.037468337
150	0x3f097793	0.5369808
151	0x3f539407	0.82647747
152	0x3ed601c3	0.4179822
153	0x3dbe7df0	0.093013644
154	0x3ecb2ae8	0.39681172
155	0x3f1b7552	0.6072589
156	0x3f196659	0.59921795
157	0x3f3a0f7f	0.72679895
158	0xbd7af80b	-0.06127171
159	0x3f21b9c4	0.6317408
160	0x3f1791ef	0.5920705
161	0x3f2d3e5f	0.67673296
162	0xbd762395	-0.060092527
163	0xbea39aac	-0.31953943
164	0xbce1c947	-0.027561797
165	0xbdc0b054	-0.09408632
166	0xbd95d90c	-0.07316789
167	0x3f2b9878	0.67029524
168	0xbdbe0eb7	-0.092801504
169	0x3c8bc0d9	0.01705973
170	0x3cfed00d	0.031105066
171	0xbda71d15	-0.08159844
172	0xbd20140e	-0.039081626
173	0x3ecfb6ed	0.4056925
174	0xbd2dd84c	-0.042442605
175	0xbd159255	-0.036516506
176	0xbdcbf322	-0.09958483
177	0x3dc73db9	0.097285695
178	0xbf3a938c	-0.7288139
179	0x3f11bf1e	0.56932247
180	0xbda4f12b	-0.08053812
181	0xbda2794c	-0.07933292
182	0x3d8891a0	0.06668401
183	0x3f0ad204	0.5422671
184	0x3f445226	0.7668785
185	0x3f2c7556	0.6736654
186	0xbe0cee36	-0.13762745
187	0xbe9e582d	-0.30926648
188	0x3efe5db2	0.4968086
189	0x3f3a81b7	0.7285418
190	0x3ee9c71f	0.4565973
191	0x3c7b1e1f	0.015327006
192	0xbd90248f	-0.07038223
193	0xbdc3eac2	-0.09566261
194	0x3eb834a6	0.35977668
195	0x3df4efb9	0.11959786
196	0xbc4c7a32	-0.0124803055
197	0xbe17048d	-0.1474783
198	0x3de7dd3d	0.11321495
199	0xbd35f157	-0.044419613
200	0xbddc93d2	-0.10770382
201	0x3c233bca	0.009962985
202	0x3dca62fa	0.098821595
203	0xbd8318ab	-0.064011894
204	0x3caf8d98	0.021429822
205	0xbdd36eba	-0.10323854
206	0xbd01733f	-0.031604048
207	0x3d7e0458	0.06201586
208	0xbd971cbf	-0.0737853
209	0x3e45671c	0.19277614
210	0xbda3ef9a	-0.08004685
211	0x3d0550ca	0.03254775
212	0xbddabd71	-0.10680664
213	0xbd32702a	-0.043564
214	0x3cee3bb3	0.029081201
215	0xbdd9a816	-0.10627763
216	0xbd27a04f	-0.040924367
217	0x3d8f5ef0	0.0700053
218	0xbd037db6	-0.03210231
219	0x3ccf2576	0.025286417
220	0xbd31007a	-0.043213345
221	0xbdbeb6f0	-0.09312236
222	0xbd0b9e5d	-0.034086574
223	0xbe2d8687	-0.1694585
224	0x3dafc359	0.085821815
225	0xbc8138ec	-0.015774213
226	0x3cbb6d2c	0.022879206
227	0x3e33e199	0.17566527
228	0xbde64d6b	-0.11245235
229	0x3d8954c4	0.06705621
230	0x3ce0d5f7	0.027445776
231	0xbe26cce9	-0.16289105
232	0x3ddf8a73	0.10915079
233	0xbd944857	-0.0724036
234	0x3d8b6da3	0.06808021
235	0x3b8047b9	0.0039148
236	0xbd81d341	-0.063391216
237	0xbd828dbd	-0.06374691
238	0xbd0d05eb	-0.034429472
239	0x3d6c0d48	0.057629853
240	0x3df2f8ad	0.118638374
241	0xbb89ed53	-0.0042091995
242	0x3ed40a66	0.41414183
243	0xbd6a9c12	-0.057277746
244	0xbddeee2d	-0.10885272
245	0xbd8bd538	-0.068277776
246	0xbda44f6b	-0.0802296
247	0xbe0c3e5c	-0.13695663
248	0xbd970e8a	-0.0737582
249	0x3d1c91cd	0.038224984
250	0x3dcea668	0.10090333
251	0x3e55f300	0.20893478
252	0xbc46dee7	-0.012138105
253	0xbdf5ff0c	-0.12011537
254	0xbdc1b6c0	-0.09458685
255	0xbd9ddaa9	-0.07707722

conv4.weight f4 [1, 32, 1, 1]
0	0x3fb40f2f	1.4067134
1	0x3fa4870a	1.2853711
2	0x3fb05b39	1.3777839
3	0xbe81146e	-0.252109
4	0xbd6f76bb	-0.05846284
5	0x3fc02090	1.5009937
6	0xbd0902ce	-0.03344994
7	0xbec4e2ff	-0.38454434
8	0xbe9578c9	-0.29193714
9	0xbbd3ed20	-0.0064674765
10	0x3fb479c8	1.4099665
11	0x3fb215f0	1.3912945
12	0xbedb983c	-0.42889583
13	0x3f9f8096	1.2461116
14	0xbcc22567	-0.023699475
15	0xbf0a426d	-0.5400761
16	0x3fc022ab	1.501058
17	0xbc4bb997	-0.012434385
18	0x3fa26da5	1.2689711
19	0x3fb75f79	1.4326011
20	0xbf076eb7	-0.5290331
21	0xbd0879ed	-0.033319402
22	0xbe213c4f	-0.15745662
23	0x3fc107e6	1.5080535
24	0xbf17083d	-0.58996946
25	0xbc90ab3e	-0.01765978
26	0xbf13e803	-0.57775897
27	0x3fb9ad69	1.4506046
28	0x3faa9813	1.3327659
29	0xbed89e9e	-0.42308515
30	0x3fa0b46f	1.2555064
31	0x3fa1c064	1.2636838

exp_avg f4 [128, 4, 1, 3]
0	0x3a525d53	0.00080247707
1	0xbb17ebca	-0.0023181313
2	0xba35e24b	-0.00069383223
3	0xb9c529fd	-0.00037606052
4	0xbb19aab3	-0.0023447692
5	0xba9cf7f8	-0.0011975756
6	0x3a8d06e5	0.0010759501
7	0xba34a4c3	-0.00068910065
8	0xb6262a9b	-2.4760727e-06
9	0xba13ae07	-0.0005633537
10	0xba0c1394	-0.00053434935
11	0xba1fee22	-0.0006100853
12	0x39b73273	0.00034942068
13	0x390ae500	0.00013246015
14	0x3b894f3f	0.004190355
15	0xbb232fa4	-0.0024900222
16	0x397b5186	0.00023967595
17	0x3b624abb	0.0034529406
18	0x3a8780ba	0.0010338046
19	0x3aeb23e4	0.0017939773
20	0x3c130eb4	0.0089756735
21	0xbaffd1c9	-0.0019517477
22	0x3b14cc4a	0.0022704774
23	0x3c0802ae	0.00830142
24	0x3bbc4fb3	0.0057468056
25	0x3b912ed3	0.0044306307
26	0x3be25cf0	0.0069080517
27	0x3ab56fcb	0.0013842521
28	0x3b526085	0.0032100987
29	0x3b3e1c5d	0.0029008605
30	0x3b949da0	0.004535392
31	0x3b6ae401	0.0035841467
32	0x3beb8706	0.007187727
33	0x3ae293b4	0.0017286451
34	0x3b5b29cb	0.0033441659
35	0x3b160f2d	0.002289723
36	0x3ba87230	0.0051405653
37	0xbbda0f1d	-0.0066546337
38	0x3a225869	0.0006192984
39	0xbb813527	-0.003943104
40	0xbc03de80	-0.008048654
41	0xbb8819d9	-0.004153472
42	0x3bbb154c	0.005709326
43	0xbae0ed62	-0.0017160589
44	0x3b98e898	0.004666399
45	0xbb6f9b89	-0.0036561212
46	0xb978590a	-0.00023684293
47	0xba06e7e0	-0.00051462464
48	0x3b08a3aa	0.0020849505
49	0xba3b2058	-0.00071383035
50	0x3b923f35	0.0044631013
51	0x398a3360	0.00026359688
52	0x39387c55	0.00017593925
53	0x3aca508f	0.0015435385
54	0x3aae9da5	0.0013322128
55	0xbad26c31	-0.0016053972
56	0x3aacc30f	0.0013180691
57	0xb9a0d822	-0.0003067861
58	0x3a33f62a	0.00068649894
59	0xbafd5ba9	-0.0019329685
60	0xbb6060bc	-0.0034237346
61	0xbb9b2056	-0.0047340794
62	0xbbcf00ea	-0.0063172476
63	0xbabe4196	-0.0014515396
64	0xbb9135ac	-0.004431447
65	0xbbabb1cc	-0.005239701
66	0xbb91c3dc	-0.004448397
67	0xbbfe1c3f	-0.007754832
68	0xbc543d9d	-0.012954143
69	0xba025d81	-0.00049730396
70	0xbbef0e5c	-0.007295413
71	0xbc240a66	-0.010012245
72	0x3a09f852	0.0005263138
73	0xbb88cd75	-0.004174883
74	0xbb49b865	-0.0030780074
75	0xbb3fdbe3	-0.002927535
76	0xbbb337e7	-0.0054693106
77	0xbb624dd1	-0.0034531245
78	0x3afc5019	0.0019249945
79	0xbc0a4e21	-0.008441479
80	0xbb7315cc	-0.003709185
81	0x38009297	3.06541e-05
82	0xbbda3e95	-0.0066602924
83	0xbbb0f2aa	-0.0054000216
84	0xbb8b9b84	-0.0042604823
85	0xbc0f8391	-0.008759395
86	0xbadfef97	-0.0017084953
87	0xbb6edac8	-0.0036446322
88	0xbb20af54	-0.0024518566
89	0x3b464102	0.003025115
90	0xbc1af915	-0.0094588
91	0xbc13a813	-0.00901224
92	0xbb462873	-0.0030236512
93	0xbc071d73	-0.008246767
94	0xbb824923	-0.0039760037
95	0x3ab3fc9f	0.0013731903
96	0xbb9c5e57	-0.0047719884
97	0xbb4f7fb0	-0.00316618
98	0xbab49dde	-0.0013779958
99	0xbb608aa0	-0.0034262314
100	0xba943185	-0.0011306262
101	0xbb8b62ad	-0.0042537064
102	0xbbebf41b	-0.0072007305
103	0xbb91b603	-0.0044467463
104	0xbbf65ae6	-0.00751816
105	0xbb78e342	-0.0037977253
106	0xbb303f2c	-0.0026893122
107	0xbbe0c2fe	-0.0068591824
108	0xba545f70	-0.00081013795
109	0xbb530736	-0.0032200343
110	0x3c119a57	0.008886895
111	0x3aa9fee1	0.0012969637
112	0x3ac12590	0.0014735926
113	0x3c66f991	0.014097587
114	0xbb0ea926	-0.00217683
115	0xbbfed230	-0.007776521
116	0x3c564199	0.013077163
117	0x3a85a50a	0.001019628
118	0xbb9349ce	-0.004494882
119	0x3c6ff39a	0.0146454815
120	0x3a927bdc	0.0011175829
121	0xbb5ca030	-0.0033664815
122	0x3c275250	0.010212496
123	0xbba6a52e	-0.005085609
124	0xbaba5522	-0.0014216045
125	0x3b269036	0.0025415546
126	0x3b4add39	0.0030954613
127	0xb995cd27	-0.00028572345
128	0x3c00651e	0.007836608
129	0xbaf60da5	-0.0018772377
130	0x3baf0980	0.0053417087
131	0xb886e0a1	-6.431458e-05
132	0x3b4d7e9a	0.0031355978
133	0x3af8cde0	0.0018982254
134	0x3b2e5b6b	0.0026604782
135	0x3a80670d	0.0009796337
136	0x3ac1e40d	0.0014792696
137	0xb9fd7eef	-0.00048350493
138	0x3b1a2e25	0.002352604
139	0x3acff636	0.0015866223
140	0x3afb8ef4	0.0019192384
141	0x3a0a2f46	0.00052713265
142	0x3acd78a7	0.0015676216
143	0xbab3e922	-0.0013726095
144	0xba0abdc1	-0.0005292558
145	0x3aeb0c07	0.0017932662
146	0xbb2803de	-0.002563707
147	0x3a193f2e	0.00058459013
148	0x39e7d172	0.00044215802
149	0xbb13c3aa	-0.0022547045
150	0xb9d2b9a0	-0.00040192623
151	0x3b04ce4c	0.0020264564
152	0xbb0f4d7a	-0.0021866248
153	0x3a35071c	0.00069056614
154	0x37d45440	2.5311601e-05
155	0xbaadbe71	-0.0013255609
156	0x3c164789	0.009172329
157	0xbc5fcd05	-0.01365972
158	0x3c26c824	0.010179553
159	0x3b280664	0.0025638575
160	0xb9840957	-0.0002518396
161	0x3c81b55f	0.015833555
162	0x3b2c818b	0.002632233
163	0xbc421f67	-0.011848307
164	0x3c3c8ee5	0.011508678
165	0xbbc10dbb	-0.0058915294
166	0x3a84233b	0.00100813
167	0x3c21109f	0.009830623
168	0xbb360cdc	-0.002777866
169	0xbbdd31aa	-0.006750305
170	0xbb073bb1	-0.0020634944
171	0xbb425daa	-0.002965788
172	0xbb62a958	-0.00345858
173	0xbab7929e	-0.0014005487
174	0xbbd7bb07	-0.0065835747
175	0xbbd62d1d	-0.0065361396
176	0xbb1a5cc0	-0.0023553818
177	0xbbc9a8b7	-0.0061541456
178	0xbb8c550a	-0.0042825984
179	0xbac05306	-0.001467318
180	0xbb94485b	-0.004525227
181	0x3b77bf50	0.003780324
182	0x3ad8aac7	0.0016530388
183	0xbbcf98a7	-0.0063353362
184	0x394ca581	0.00019516611
185	0xbb7118fc	-0.0036788573
186	0x3b468ac4	0.0030295113
187	0x3b832621	0.004002348
188	0x3b5072f1	0.0031806792
189	0x3b16cefd	0.0023011558
190	0x3b137d77	0.0022505203
191	0xbaac52a3	-0.0013147186
192	0xbc0cb83c	-0.008588847
193	0x3b370cda	0.0027931244
194	0xbb83e5b3	-0.004025185
195	0x3c193d76	0.009353032
196	0x3c23407e	0.009964107
197	0x3c1a87d5	0.009431799
198	0xbc738140	-0.014862359
199	0xbb9af536	-0.0047289385
200	0xbc688cee	-0.0141937565
201	0x3a017155	0.0004937847
202	0xbae67699	-0.0017582952
203	0xba3232bf	-0.0006797723
204	0x3c2cf5da	0.010556662
205	0x3b54b83b	0.0032458443
206	0x3b438b5e	0.0029837708
207	0x3ab2d629	0.0013644147
208	0xbb500655	-0.0031742055
209	0xbba68385	-0.0050815963
210	0x3c2afc87	0.010436184
211	0x3b2d5794	0.0026449906
212	0x3baf8045	0.005355867
213	0x3b082849	0.0020775965
214	0xba9924b5	-0.0011683913
215	0xbb92eb66	-0.004483628
216	0x3af2abde	0.0018514355
217	0xbaccfc3f	-0.001563914
218	0xbb121f55	-0.0022296507
219	0x3b6efb0a	0.003646555
220	0xb9cd37d5	-0.00039142245
221	0xb86e09e9	-5.675285e-05
222	0x39868dae	0.0002566403
223	0xbb2e351f	-0.0026581956
224	0xbb5805fd	-0.0032962554
225	0x39f16a0e	0.0004604612
226	0xba8d1e18	-0.0010766415
227	0xbaef8209	-0.0018273006
228	0x39133307	0.00014038022
229	0x3b008d15	0.0019615341
230	0x3acae266	0.0015478849
231	0x3a2ffd44	0.000671346
232	0x3b4150b4	0.0029497566
233	0x3a9997c8	0.0011718208
234	0xbab955ee	-0.0014139989
235	0x3a924dab	0.0011162063
236	0x3a255e7f	0.00063083315
237	0xb9ae278b	-0.00033217328
238	0x3aa3f60a	0.0012509238
239	0x3a025ae2	0.0004972649
240	0x3a825c94	0.0009945803
241	0xb9ce934e	-0.00039401132
242	0x3a154c25	0.00056952453
243	0xb72b7ce2	-1.0221471e-05
244	0xb9067f66	-0.00012826695
245	0x3a61acbf	0.000860881
246	0x3a4ee781	0.0007892773
247	0xba889517	-0.0010420409
248	0x3ab40964	0.0013735709
249	0xb904d82b	-0.0001266903
250	0xba6a8e9d	-0.00089476426
251	0x3a82f555	0.0009991328
252	0xba874933	-0.0010321498
253	0xba862bc1	-0.0010236428
254	0x38d3ad0a	0.00010093495
255	0xbac7543f	-0.0015207602

exp_avg_sq f4 [128, 4, 1, 3]
0	0x37f61f89	2.934017e-05
1	0x387420e2	5.8204758e-05
2	0x38e31f08	0.000108299835
3	0x3886ce84	6.4280845e-05
4	0x3915984e	0.00014266485
5	0x3937e9ce	0.00017539339
6	0x3742f489	1.1620236e-05
7	0x37d309bd	2.5157695e-05
8	0x38b857e0	8.790172e-05
9	0x37a08a16	1.9137788e-05
10	0x38ab46e9	8.1671235e-05
11	0x3906154a	0.00012787167
12	0x389df1be	7.5313714e-05
13	0x3886fdcd	6.436892e-05
14	0x3939eb7b	0.00017730698
15	0x38895c56	6.549868e-05
16	0x389a4dec	7.357806e-05
17	0x38da942c	0.00010422649
18	0x3905dba6	0.00012765694
19	0x38d32352	0.00010067843
20	0x39d0c602	0.0003982038
21	0x383b03cb	4.4587807e-05
22	0x38a00b01	7.631444e-05
23	0x398ee785	0.00027256846
24	0x39813673	0.00024645365
25	0x39e16ad4	0.00042994937
26	0x3ad2e20d	0.0016089097
27	0x397b4e03	0.00023966287
28	0x3a75605c	0.0009360367
29	0x3b1481d1	0.0022660384
30	0x392e15cf	0.00016602057
31	0x3a343d1a	0.000687556
32	0x3ae3cfc8	0.0017380649
33	0x394ec6b4	0.00019719714
34	0x3a9c6189	0.0011930923
35	0x3b19172b	0.0023359756
36	0x391da564	0.000150343
37	0x3946251f	0.0001889658
38	0x39f364dd	0.0004642372
39	0x39824985	0.0002485031
40	0x39d57b8e	0.0004071858
41	0x3a175b51	0.00057738
42	0x392f4409	0.00016714646
43	0x3962cf1c	0.00021630194
44	0x3a3ae33d	0.0007129198
45	0x393ed019	0.00018197334
46	0x39a76222	0.00031925837
47	0x3a3d8259	0.0007229201
48	0x38e00720	0.000106824795
49	0x37f12727	2.874767e-05
50	0x39636b8d	0.00021688473
51	0x3850ed4e	4.981207e-05
52	0x39015f91	0.00012338
53	0x39b6c196	0.00034857978
54	0x38b24e8f	8.502334e-05
55	0x38925017	6.9767404e-05
56	0x394fefb7	0.00019830359
57	0x35d4e9ce	1.5863277e-06
58	0x3918dc6b	0.00014577962
59	0x39a5b70c	0.00031607633
60	0x3a3127e5	0.0006757959
61	0x3a545df6	0.00081011595
62	0x3b0344b6	0.0020029969
63	0x38d40d6a	0.00010111446
64	0x39f73a15	0.00047154786
65	0x3a9c58b7	0.0011928295
66	0x3ad468a7	0.0016205505
67	0x3b0d3f03	0.002155245
68	0x3b548f84	0.0032434175
69	0x39dfdd8e	0.00042698946
70	0x3aa5f8f9	0.0012662701
71	0x3b063003	0.0020475395
72	0x38d80a16	0.00010301561
73	0x3a1da1d5	0.00060131896
74	0x3a785418	0.000947298
75	0x39973c00	0.00028845668
76	0x3a5f0038	0.00085068075
77	0x3ac43995	0.0014970774
78	0x3984ebf9	0.00025352815
79	0x3a314947	0.00067629333
80	0x3a87e43e	0.0010367704
81	0x39bd3776	0.0003609021
82	0x3a4f6514	0.0007911485
83	0x3ab5920c	0.001385273
84	0x39e6566f	0.00043933417
85	0x3abb2a89	0.0014279644
86	0x3b53ac0b	0.003229859
87	0x39f7c51c	0.0004725837
88	0x3b59bfb6	0.003322584
89	0x3b9b68e3	0.004742728
90	0x3abe3e8b	0.0014514489
91	0x3acd2f32	0.0015654324
92	0x3b380379	0.0028078242
93	0x3a67750e	0.0008829393
94	0x3b43d091	0.0029878954
95	0x3b6f2e2d	0.0036496029
96	0x398a7e65	0.00026415582
97	0x3a2ba56c	0.0006547782
98	0x3ab285fc	0.0013620253
99	0x391f4587	0.00015189323
100	0x39b144b5	0.00033811262
101	0x3a674a8f	0.0008823061
102	0x3a35e67f	0.00069389486
103	0x3af5af67	0.001874429
104	0x3b37f66c	0.0028070463
105	0x39c0540a	0.00036683708
106	0x3a8cb7eb	0.0010735964
107	0x3ae96d5d	0.0017809082
108	0x3a72e6be	0.00092659506
109	0x3abac276	0.0014248628
110	0x3b1d0971	0.0023961926
111	0x3a87581f	0.0010325945
112	0x3abe0ee0	0.0014500283
113	0x3aed267e	0.0018093137
114	0x3ada8182	0.0016670676
115	0x3b0b9dfe	0.0021303887
116	0x3b6b1c5e	0.0035875062
117	0x3a9af180	0.001182124
118	0x3ad6423b	0.0016346643
119	0x3b36842c	0.0027849777
120	0x39de50fe	0.00042403484
121	0x391702ef	0.00014401575
122	0x39d950b9	0.00041449608
123	0x396ce74c	0.00022592879
124	0x3992d13a	0.00028003176
125	0x3a1930a3	0.0005843734
126	0x39ddafbb	0.00042283334
127	0x39a193a5	0.00030818317
128	0x39b89b0f	0.00035210742
129	0x3861f49e	5.3871998e-05
130	0x39ba2838	0.0003550665
131	0x3a03adce	0.00050231523
132	0x38a20db3	7.727314e-05
133	0x38c76cef	9.50935e-05
134	0x39960874	0.00028616528
135	0x388e69f6	6.7908244e-05
136	0x39210f69	0.00015359897
137	0x39a9b379	0.0003236791
138	0x3897c917	7.237697e-05
139	0x393a6797	0.00017776933
140	0x39bd368b	0.00036089527
141	0x384ad2aa	4.835675e-05
142	0x396142ab	0.00021482508
143	0x39ce3bda	0.00039335975
144	0x37ae6c2c	2.0792788e-05
145	0x380f1a83	3.4118548e-05
146	0x3807f22e	3.2412056e-05
147	0x37a997af	2.0217003e-05
148	0x380ac9b8	3.308963e-05
149	0x382ac154	4.071121e-05
150	0x38282241	4.0086223e-05
151	0x3803dd46	3.143891e-05
152	0x380d412e	3.3677723e-05
153	0x380fd84b	3.4295295e-05
154	0x37ebb8bd	2.8100209e-05
155	0x382dcba2	4.1436062e-05
156	0x3a573c97	0.0008210628
157	0x3a58494e	0.00082506693
158	0x3ae57327	0.0017505632
159	0x3a202a77	0.00061098434
160	0x3a96086c	0.0011446602
161	0x3b091cf4	0.0020921798
162	0x3a607256	0.0008561959
163	0x3aa28d05	0.0012401646
164	0x3b0573b4	0.0020363154
165	0x3a1e0a4e	0.0006028757
166	0x3ac3b942	0.001493253
167	0x3b079514	0.0020688223
168	0x398f27cb	0.00027304734
169	0x39b37c2c	0.00034234056
170	0x39d85de8	0.00041268696
171	0x3917c5b6	0.00014474135
172	0x392a8635	0.0001626246
173	0x398b3527	0.00026551748
174	0x3a088aae	0.0005208653
175	0x3a08921e	0.00052097614
176	0x3a504776	0.0007945219
177	0x39a20bf4	0.00030907954
178	0x39ada694	0.00033121242
179	0x3a131a76	0.0005611548
180	0x39458d55	0.00018840034
181	0x39e3552a	0.00043360266
182	0x3a4b95db	0.00077661657
183	0x396d9bb9	0.00022660093
184	0x399e63b6	0.000302104
185	0x3a138d65	0.00056286744
186	0x39913af5	0.00027700482
187	0x3a5d6fab	0.0008447121
188	0x3a919aa4	0.0011108709
189	0x393dd9fa	0.00018105647
190	0x3a28f11a	0.00064446183
191	0x3a513201	0.00079801684
192	0x3a15737b	0.0005701107
193	0x38ca9c33	9.661205e-05
194	0x3a8f0779	0.0010912261
195	0x398e58dd	0.0002715056
196	0x3a02d51a	0.0004990861
197	0x3abe7ce5	0.0014533071
198	0x3a2c611a	0.00065757486
199	0x39ebc489	0.00044969123
200	0x3ac8441f	0.0015279091
201	0x38641176	5.4375698e-05
202	0x3a202415	0.0006108892
203	0x3ae231e5	0.0017257301
204	0x3a774513	0.0009432595
205	0x3aab7c7b	0.0013083363
206	0x3b8ac0bf	0.004234403
207	0x3a48b047	0.0007655662
208	0x3b156bc6	0.0022799834
209	0x3bc0018a	0.0058595585
210	0x3a7d028d	0.0009651564
211	0x3b1bb35a	0.0023758025
212	0x3bb09bb9	0.0053896573
213	0x3a37a381	0.000700526
214	0x3b5c8560	0.0033648834
215	0x3bdaf87b	0.006682453
216	0x388c9efd	6.705334e-05
217	0x38c8ff15	9.584256e-05
218	0x3936c326	0.00017429571
219	0x38d24137	0.000100257275
220	0x38f60852	0.00011731744
221	0x392c51bf	0.00016433651
222	0x387aed34	5.9825557e-05
223	0x39179aae	0.00014458105
224	0x395c8461	0.0002103015
225	0x3898f1f4	7.292992e-05
226	0x390d7840	0.00013491604
227	0x3925995b	0.00015792756
228	0x379532c1	1.7785818e-05
229	0x37eca8d6	2.8212013e-05
230	0x384bc517	4.8582526e-05
231	0x374174f2	1.1530925e-05
232	0x38036d70	3.1334755e-05
233	0x380a6b79	3.3001856e-05
234	0x380d6ccc	3.3718345e-05
235	0x3858b4c8	5.166678e-05
236	0x389d7321	7.507788e-05
237	0x379d1ef2	1.8730268e-05
238	0x3832efb3	4.2661744e-05
239	0x383c1ba1	4.4848424e-05
240	0x37acf0e7	2.0616177e-05
241	0x3704827a	7.898192e-06
242	0x37fb5951	2.9963123e-05
243	0x3733e5b9	1.0722718e-05
244	0x373c405b	1.1220657e-05
245	0x385c67a6	5.2548618e-05
246	0x3774f679	1.460092e-05
247	0x374810cf	1.19248425e-05
248	0x380c31ca	3.342497e-05
249	0x36753c4e	3.6542947e-06
250	0x3780b322	1.5342204e-05
251	0x3856eecc	5.1243973e-05
252	0x385cf5dd	5.2681065e-05
253	0x38cd9f1f	9.8048e-05
254	0x3900bcdb	0.00012277385
255	0x37e80fe2	2.7663951e-05

exp_avg f4 [64, 128, 1, 3]
0	0x3024f6f4	6.0013794e-10
1	0x389ca164	7.468721e-05
2	0x38ebfe67	0.00011253059
3	0xae8c7e08	-6.3888506e-11
4	0x9b9a8078	-2.5560184e-22
5	0x00000004	6e-45
6	0x3990acd2	0.00027594581
7	0x394e3248	0.00019664422
8	0x3918695b	0.00014535098
9	0x35ef9699	1.7850717e-06
10	0x399e039f	0.00030138806
11	0x38a7da74	8.0038706e-05
12	0x3921d223	0.00015432439
13	0xb68fe96b	-4.2889055e-06
14	0x37352e02	1.0799153e-05
15	0x35fc6c12	1.8806916e-06
16	0xa5a42332	-2.8473314e-16
17	0x80000004	-6e-45
18	0x39316247	0.00016916647
19	0xb6382b2d	-2.7443268e-06
20	0x3730b1ef	1.0531846e-05
21	0x387518f1	5.843578e-05
22	0xb72b10d5	-1.0196313e-05
23	0x30fe90a2	1.852204e-09
24	0x8491bfd3	-3.42655e-36
25	0x86c9df18	-7.5935603e-35
26	0x94dd0039	-2.2315385e-26
27	0x36c5d753	5.8961245e-06
28	0xb25e7d8c	-1.2950647e-08
29	0xa9caa5c0	-8.999355e-14
30	0x399e788f	0.00030225932
31	0x388cc4ff	6.7124136e-05
32	0x38ec19de	0.00011258175
33	0xb6f28167	-7.2272264e-06
34	0x3653b538	3.1546933e-06
35	0x342a0d94	1.5837423e-07
36	0x38c4e387	9.3883886e-05
37	0x37d99a2c	2.5940208e-05
38	0x3927ebcb	0.00016014201
39	0x396109ab	0.00021461274
40	0x391dd4fb	0.00015052028
41	0x3a039c8f	0.00050205825
42	0x80000004	-6e-45
43	0x878ca397	-2.1161008e-34
44	0x00000004	6e-45
45	0x00000004	6e-45
46	0x80000004	-6e-45
47	0x9b91ecfc	-2.4141385e-22
48	0x364b04a6	3.0252063e-06
49	0x39ddc2ef	0.00042297642
50	0x3902d4cc	0.00012477039
51	0x39af476a	0.0003343181
52	0xb6ab77e4	-5.1101542e-06
53	0x37b3f036	2.145032e-05
54	0x295df8e3	4.9287733e-14
55	0x34d87fc9	4.032611e-07
56	0x39b1a2a2	0.00033881242
57	0x36058434	1.9895497e-06
58	0xb1747ac9	-3.5576468e-09
59	0xa3895a60	-1.4891845e-17
60	0xb6aa06a5	-5.0671683e-06
61	0xb0ef1e27	-1.7398109e-09
62	0x34e8b6a0	4.3346245e-07
63	0x00000004	6e-45
64	0x8319fb03	-4.5250806e-37
65	0x00000004	6e-45
66	0x3897e5e3	7.243061e-05
67	0x2e7cd60b	5.7488275e-11
68	0x36ecf2cc	7.0616134e-06
69	0x39332516	0.00017084586
70	0x38c87afa	9.559649e-05
71	0x386038a2	5.3458505e-05
72	0xb5602bea	-8.3510406e-07
73	0xb6da3209	-6.502731e-06
74	0x33081f4a	3.1693425e-08
75	0x39a0ea30	0.0003069206
76	0xb6f9d931	-7.4460627e-06
77	0x37c3456a	2.3278135e-05
78	0xb6f9296b	-7.4256e-06
79	0x367368d0	3.627083e-06
80	0xb6189d1f	-2.2741222e-06
81	0xb764dc82	-1.36412e-05
82	0x391937d5	0.00014612016
83	0x397d0027	0.00024128017
84	0x3912ed27	0.00014011991
85	0x39b734fe	0.00034943962
86	0x39bb88d3	0.0003576936
87	0x38c8dc63	9.5777934e-05
88	0x36033006	1.9548474e-06
89	0x366bbc3c	3.5127296e-06
90	0x338ce2d5	6.5605185e-08
91	0x33a76312	7.794564e-08
92	0x3a5d24fe	0.0008435993
93	0x39b31534	0.00034157338
94	0x38be7682	9.08198e-05
95	0x3952d8a1	0.00020107861
96	0xb6ce8088	-6.1542414e-06
97	0x3682dd9a	3.9000997e-06
98	0x34544ba0	1.9771551e-07
99	0x38933e7a	7.0211434e-05
100	0x393abc80	0.00017808564
101	0x3896bc77	7.187662e-05
102	0xb51b872d	-5.7938706e-07
103	0x34cf6bb2	3.8635113e-07
104	0x39b418bc	0.00034350704
105	0x33a77de1	7.799441e-08
106	0x8da44120	-1.0122959e-30
107	0x3990b745	0.00027602367
108	0x394bb869	0.00019428287
109	0x393bc637	0.0001790755
110	0x38e2ebfa	0.00010820474
111	0x39880bef	0.00025948833
112	0x391b4ffb	0.00014811747
113	0x3974b492	0.00023336921
114	0xb792f9df	-1.7520912e-05
115	0x36de0eee	6.6178536e-06
116	0x3295501b	1.738231e-08
117	0x9aee99ca	-9.868295e-23
118	0x35a3a06c	1.2191135e-06
119	0x3979751c	0.00023790117
120	0x379bc8db	1.857097e-05
121	0x3832135b	4.2456533e-05
122	0x39f74740	0.00047164597
123	0x39b31b95	0.0003416209
124	0x3947ec8d	0.00019066241
125	0x397c658b	0.0002407042
126	0x38219fcf	3.8534225e-05
127	0x3891ed8d	6.958386e-05
128	0xb639c24f	-2.768025e-06
129	0x39e7cbc3	0.00044211568
130	0x396c13fc	0.00022514159
131	0x35f924e9	1.8562688e-06
132	0x31b32769	5.214066e-09
133	0x349f1e17	2.963795e-07
134	0x39a13a21	0.00030751622
135	0x399c3768	0.0002979592
136	0x399316a6	0.000280549
137	0x387ede25	6.0765207e-05
138	0x387367a2	5.803223e-05
139	0x3898f090	7.292733e-05
140	0x39870bac	0.00025757903
141	0x38db5972	0.00010459394
142	0x39700fd5	0.00022894081
143	0xb73bbaeb	-1.1189589e-05
144	0x00000004	6e-45
145	0x80000004	-6e-45
146	0x099d1de6	3.782449e-33
147	0x387c8781	6.020768e-05
148	0x392effca	0.00016689222
149	0x3725febd	9.894077e-06
150	0x00000004	6e-45
151	0x80000004	-6e-45
152	0x8093fb0f	-1.3589881e-38
153	0x38bd9f1e	9.04186e-05
154	0xb7513cd7	-1.2471536e-05
155	0x2d81be1f	1.4750033e-11
156	0x38207eae	3.8264952e-05
157	0x378e0dc3	1.6934127e-05
158	0x344e0754	1.9187911e-07
159	0x3600506a	1.9120293e-06
160	0x360a6b62	2.0626107e-06
161	0xb64e6b9a	-3.0759024e-06
162	0x378ed0fe	1.7025039e-05
163	0x38cc3b6a	9.738545e-05
164	0x398cc8ee	0.00026852585
165	0x38f7f492	0.000118234326
166	0x39785c5d	0.00023685531
167	0x3935b6e5	0.00017329639
168	0x38f08529	0.00011468895
169	0xb6946087	-4.421981e-06
170	0x36674418	3.4461318e-06
171	0x390337ef	0.0001251397
172	0x38ee4d28	0.00011363096
173	0x3716b3bd	8.982545e-06
174	0xb3057177	-3.106967e-08
175	0x362a6501	2.5390766e-06
176	0x38a7e2e3	8.0054415e-05
177	0x384f2062	4.9382805e-05
178	0x39408040	0.00018358324
179	0x38df78be	0.000106559586
180	0x00000004	6e-45
181	0x80000004	-6e-45
182	0x80000004	-6e-45
183	0x2c192db3	2.1767976e-12
184	0x3773f109	1.4540049e-05
185	0x3956d257	0.00020486988
186	0x2adb6b2b	3.8976577e-13
187	0x2f9509c7	2.710989e-10
188	0x37bbeeb7	2.2403297e-05
189	0x33eed982	1.1122303e-07
190	0x00000004	6e-45
191	0x367c3f83	3.7587895e-06
192	0xa28a0dd3	-3.741961e-18
193	0x3351adde	4.8819736e-08
194	0x9beb3340	-3.8910608e-22
195	0x3969e3fc	0.00022305542
196	0x36192cf9	2.2824954e-06
197	0x394a9901	0.0001932122
198	0x3844061b	4.6735728e-05
199	0x39b8e124	0.00035262958
200	0x39de0b5a	0.00042351597
201	0x39a78ef7	0.0003195924
202	0xb763b8c3	-1.3573273e-05
203	0x3784fed9	1.5854299e-05
204	0x3970436d	0.00022913302
205	0x37f96ebb	2.9734676e-05
206	0x38e4a247	0.00010902114
207	0x39c6b67b	0.00037901461
208	0x39651f4a	0.00021850798
209	0x36c5eced	5.8986393e-06
210	0xb5bc18a6	-1.4014265e-06
211	0xb693fd36	-4.410419e-06
212	0x323c62dc	1.0965518e-08
213	0x36602d07	3.340481e-06
214	0x36836ab7	3.9165275e-06
215	0xb65061e8	-3.1051404e-06
216	0x38f4370e	0.000116450814
217	0x380e0c3a	3.3866825e-05
218	0x398ccd09	0.00026855644
219	0xb52b74fa	-6.387269e-07
220	0x3683fca3	3.933515e-06
221	0x38d53212	0.00010165958
222	0x3961d60c	0.00021537411
223	0xb7560255	-1.2755937e-05
224	0x36e2abfd	6.755347e-06
225	0x37ccb7d8	2.4404304e-05
226	0xb6247779	-2.4507447e-06
227	0x32836393	1.5295688e-08
228	0x38b9e3ce	8.863919e-05
229	0x396dfe23	0.00022696755
230	0x36862a58	3.9984407e-06
231	0x3926150e	0.00015838837
232	0x37efe204	2.8596267e-05
233	0x39134db6	0.00014047962
234	0x388c34b1	6.685535e-05
235	0x398f3dde	0.0002732118
236	0xb765633f	-1.3672571e-05
237	0x00000004	6e-45
238	0x80000004	-6e-45
239	0x0a0ef4a8	6.883066e-33
240	0x3966320a	0.0002195315
241	0x3946f406	0.00018973657
242	0xb68a24e5	-4.1170156e-06
243	0x371c1d41	9.305136e-06
244	0x391c7bf9	0.00014923503
245	0xb66c68cd	-3.5227743e-06
246	0xb566b38d	-8.594296e-07
247	0xb4ce8bb2	-3.8472132e-07
248	0xb641b194	-2.8862605e-06
249	0x3931ca96	0.00016955505
250	0x351ca69f	5.8356994e-07
251	0x37583bbc	1.2888511e-05
252	0x36f31b20	7.245122e-06
253	0x3947d710	0.00019058236
254	0xb5896b85	-1.0238588e-06
255	0x294c1b74	4.532091e-14

exp_avg_sq f4 [64, 128, 1, 3]
0	0x2f1b3f18	1.4119583e-10
1	0x33bfbca4	8.928444e-08
2	0x350d78c3	5.2702325e-07
3	0x28584dfc	1.2007319e-14
4	0x2ba8ea06	1.2002073e-12
5	0x1b5767fb	1.7817981e-22
6	0x35f840d0	1.8496303e-06
7	0x35a8867f	1.2556119e-06
8	0x35b8437b	1.3728708e-06
9	0x3211f1b0	8.495064e-09
10	0x35043eb3	4.926507e-07
11	0x35becfdd	1.4216599e-06
12	0x35a1883d	1.2035085e-06
13	0x33930f80	6.8480404e-08
14	0x3377a858	5.7662277e-08
15	0x338d90bd	6.592152e-08
16	0x2b6c294e	8.3901365e-13
17	0x1b007f4a	1.0629041e-22
18	0x35d35dfb	1.5748077e-06
19	0x340fd760	1.3396266e-07
20	0x33c32922	9.087877e-08
21	0x340903ff	1.2760573e-07
22	0x33e040b5	1.0442583e-07
23	0x322bbddb	9.996678e-09
24	0x24c86058	8.6899386e-17
25	0x28079351	7.5259496e-15
26	0x2c2bc885	2.4411872e-12
27	0x338ebb03	6.6464075e-08
28	0x2e74bda5	5.5647615e-11
29	0x310d6680	2.0576465e-09
30	0x360f6170	2.1365377e-06
31	0x35a6c7b4	1.2426085e-06
32	0x34eadc48	4.3746172e-07
33	0x34a48169	3.064154e-07
34	0x321b6f66	9.0475165e-09
35	0x318d9144	4.120155e-09
36	0x34820e59	2.4224826e-07
37	0x34a19b36	3.0101518e-07
38	0x35523960	7.831459e-07
39	0x34e56ba1	4.2732884e-07
40	0x351d9e53	5.871745e-07
41	0x368f40db	4.2692823e-06
42	0x195eac1d	1.1511889e-23
43	0x2c33abdd	2.5532833e-12
44	0x1b50a06e	1.7257194e-22
45	0x1a22243b	3.353008e-23
46	0x1b3cd1c9	1.5618781e-22
47	0x2b0cfd11	5.008919e-13
48	0x338fdd3a	6.699197e-08
49	0x35ba1b0f	1.3865955e-06
50	0x35aff3c3	1.310946e-06
51	0x3613a07b	2.199812e-06
52	0x34546427	1.9780474e-07
53	0x33e7a3c0	1.0786562e-07
54	0x300297d5	4.750949e-10
55	0x2fb7e94a	3.3453268e-10
56	0x34ab14c2	3.1866335e-07
57	0x3188dbdf	3.9831174e-09
58	0x311380f1	2.146461e-09
59	0x312cab0c	2.5126523e-09
60	0x329c36c2	1.8185691e-08
61	0x311ee97a	2.3124742e-09
62	0x32a347e9	1.9008398e-08
63	0x1b23ff08	1.3565449e-22
64	0x27bcf787	5.244885e-15
65	0x1bf964d5	4.1258756e-22
66	0x3496ce65	2.808985e-07
67	0x2ea5bf21	7.5372826e-11
68	0x33112e26	3.3802415e-08
69	0x354c3749	7.607637e-07
70	0x350bc196	5.206324e-07
71	0x3590a1c3	1.0775915e-06
72	0x33b8e76e	8.6102645e-08
73	0x342db773	1.6178619e-07
74	0x322c7251	1.003771e-08
75	0x361d87ca	2.3473863e-06
76	0x339a7181	7.19183e-08
77	0x34255d8c	1.5400855e-07
78	0x34e0a968	4.184651e-07
79	0x330abf97	3.230488e-08
80	0x33038132	3.0618317e-08
81	0x35500a6d	7.750121e-07
82	0x3527aea5	6.246649e-07
83	0x35c9b7fe	1.5029216e-06
84	0x3459e9d7	2.029477e-07
85	0x365431be	3.1619415e-06
86	0x3694ee8b	4.4385138e-06
87	0x35809ba1	9.582037e-07
88	0x33a53c5d	7.694391e-08
89	0x32d852a9	2.5183299e-08
90	0x329b30f0	1.8066629e-08
91	0x31aef1a6	5.0915387e-09
92	0x368511bd	3.965774e-06
93	0x36267dd0	2.480916e-06
94	0x359ea56f	1.1820065e-06
95	0x35b57b57	1.3521447e-06
96	0x3527f284	6.2565255e-07
97	0x32fbec02	2.932757e-08
98	0x31baaff6	5.433317e-09
99	0x357453ea	9.1019194e-07
100	0x354ceb51	7.633835e-07
101	0x3508bc28	5.093775e-07
102	0x30aefa91	1.2731382e-09
103	0x32154625	8.6888905e-09
104	0x352f582c	6.532089e-07
105	0x33611719	5.2407902e-08
106	0x32191d33	8.912411e-09
107	0x35a75024	1.2465794e-06
108	0x35ebfdde	1.758275e-06
109	0x35949e6e	1.1072968e-06
110	0x356b3478	8.7620674e-07
111	0x3603b29f	1.9624492e-06
112	0x359d036e	1.169841e-06
113	0x35c78c28	1.4867446e-06
114	0x350f50b1	5.338907e-07
115	0x329c0859	1.8164586e-08
116	0x318a046f	4.0168326e-09
117	0x2ea06631	7.2941105e-11
118	0x30e4a08a	1.6634811e-09
119	0x3470c8e1	2.2424821e-07
120	0x3127cd96	2.441856e-09
121	0x34047686	1.2336577e-07
122	0x3623febb	2.4437165e-06
123	0x3630bf34	2.6337339e-06
124	0x3603daea	1.9647946e-06
125	0x3617d0c5	2.2622273e-06
126	0x3415acde	1.3939595e-07
127	0x34becf7a	3.5541217e-07
128	0x3305b616	3.1132082e-08
129	0x36aa6c87	5.079029e-06
130	0x36a977c2	5.050534e-06
131	0x35a1160a	1.2001849e-06
132	0x31d3f40b	6.1686527e-09
133	0x32fd6086	2.949697e-08
134	0x354cd352	7.6303434e-07
135	0x35ddbbcd	1.652044e-06
136	0x365f548e	3.3278807e-06
137	0x35e1220c	1.6773715e-06
138	0x33811cf1	6.012295e-08
139	0x34bcae88	3.5144717e-07
140	0x35b97741	1.3818282e-06
141	0x34bc8892	3.5117097e-07
142	0x359b33f0	1.1563516e-06
143	0x34a8116b	3.1305112e-07
144	0x1a8f4981	5.9262166e-23
145	0x1bbcf23f	3.125854e-22
146	0x2a2673f1	1.4783987e-13
147	0x35200b0d	5.9620726e-07
148	0x3553042b	7.860969e-07
149	0x34d095e7	3.8852087e-07
150	0x260204a0	4.510908e-16
151	0x1dd2db8c	5.5813543e-21
152	0x25425c34	1.6858057e-16
153	0x340bded7	1.3026452e-07
154	0x340d8112	1.3178604e-07
155	0x2c80146f	3.6402474e-12
156	0x33c1bc95	9.021566e-08
157	0x33c50591	9.17454e-08
158	0x331f0116	3.702106e-08
159	0x31803e0c	3.732344e-09
160	0x3273fd6b	1.4202082e-08
161	0x33245ed0	3.8270457e-08
162	0x32480af3	1.1644022e-08
163	0x34761b86	2.2920548e-07
164	0x353a9edf	6.952159e-07
165	0x33a139e5	7.507678e-08
166	0x3503028f	4.8805026e-07
167	0x35a57ba7	1.2329446e-06
168	0x3580e9b8	9.604764e-07
169	0x33811212	6.0103176e-08
170	0x32a7973b	1.951013e-08
171	0x35904f19	1.0751857e-06
172	0x3510d841	5.395887e-07
173	0x338b771f	6.49436e-08
174	0x30f7de1f	1.8034746e-09
175	0x31acd3a4	5.0299196e-09
176	0x3322e53f	3.7927062e-08
177	0x35216c32	6.013462e-07
178	0x35313200	6.60104e-07
179	0x35243a8b	6.117995e-07
180	0x248477ad	5.7448613e-17
181	0x22cfd9b6	5.6337973e-18
182	0x1ab6ac26	7.5551557e-23
183	0x2fd18d45	3.8117257e-10
184	0x319588b6	4.352013e-09
185	0x34a707d4	3.111187e-07
186	0x30bf7834	1.3931243e-09
187	0x320c269b	8.15785e-09
188	0x332bf872	4.004e-08
189	0x33a29951	7.571601e-08
190	0x2844bf92	1.0921726e-14
191	0x3265bc47	1.3372364e-08
192	0x2db89e62	2.0988714e-11
193	0x2998dd9f	6.788601e-14
194	0x2a587f66	1.9228854e-13
195	0x3595b41e	1.1153786e-06
196	0x34f796fe	4.6117196e-07
197	0x35755035	9.138633e-07
198	0x34deda04	4.150935e-07
199	0x35bc20db	1.4016654e-06
200	0x368bf8af	4.1714734e-06
201	0x3640d2a8	2.8732848e-06
202	0x34ada413	3.234314e-07
203	0x33d2715d	9.799508e-08
204	0x35f20341	1.8031352e-06
205	0x34e0bbcb	4.185989e-07
206	0x350c0588	5.2162113e-07
207	0x3623101e	2.4298274e-06
208	0x35ff8f97	1.9040771e-06
209	0x3574b80e	9.116492e-07
210	0x33043fe4	3.0791753e-08
211	0x3314920a	3.4591757e-08
212	0x30d28731	1.5317935e-09
213	0x31b2cf9d	5.2040847e-09
214	0x3304b459	3.089767e-08
215	0x33113c0f	3.3815066e-08
216	0x343f7a1f	1.7832689e-07
217	0x34ac3de8	3.208254e-07
218	0x358fe53d	1.0721047e-06
219	0x32b67e9c	2.1245164e-08
220	0x3266bd58	1.3430814e-08
221	0x3376a1db	5.7423545e-08
222	0x35b3ac83	1.3386747e-06
223	0x3437f876	1.7133593e-07
224	0x32e26723	2.6356764e-08
225	0x3421cc26	1.5068562e-07
226	0x2f1a603d	1.4040409e-10
227	0x30212a3d	5.8631483e-10
228	0x3583b03b	9.81155e-07
229	0x3588cd70	1.019258e-06
230	0x34daae39	4.0732428e-07
231	0x35233568	6.079995e-07
232	0x340c7fe3	1.3085041e-07
233	0x352e2dd2	6.488673e-07
234	0x3513c271	5.5044717e-07
235	0x357a3419	9.320807e-07
236	0x3492d500	2.7349597e-07
237	0x1ffb3659	1.06392546e-19
238	0x1b03f9c4	1.091677e-22
239	0x2b093e89	4.875896e-13
240	0x34ece10a	4.4122163e-07
241	0x3561bd14	8.4094177e-07
242	0x343a612b	1.735795e-07
243	0x33685045	5.4089714e-08
244	0x346aec57	2.1878928e-07
245	0x33ac2220	8.0155814e-08
246	0x337372b7	5.668218e-08
247	0x3286bda5	1.5685893e-08
248	0x337ae3e8	5.841494e-08
249	0x35e125e8	1.6774839e-06
250	0x338dc404	6.601479e-08
251	0x338c5e08	6.536362e-08
252	0x3392d44d	6.837272e-08
253	0x34e7f636	4.3206245e-07
254	0x355995e9	8.105695e-07
255	0x2f159711	1.360514e-10
