exp/loss/binary/state.pt (torch_old, 340531 bytes, 12 tensors)

conv1.weight f4 [128, 4, 1, 3]
1.2551401 0.3508545 0.2981637 -0.92782825 0.040278018 0.33891648 0.009084807 0.35953653
-0.18250202 -0.5870205 0.08374884 -0.75336164 0.37922361 -0.30932307 0.3385138 -0.6319352
-0.55908185 -0.15685205 -0.6157443 0.65683025 0.85032856 -1.0735996 -0.03186452 -0.3888688
0.32991156 0.44446507 0.038867723 0.30260986 -0.38001755 0.3824322 -0.10090961 0.9497385
0.25015333 -0.23975903 -0.2687647 -0.76107633 0.0029746213 0.1373273 -0.00780852 -0.23623064
-0.09227021 -0.0838329 0.023901535 0.1573673 0.17850013 0.2082304 -0.16393813 -0.11650387
0.76411897 0.22718528 -0.6242538 0.06917081 -0.06479146 -0.5123056 0.81038976 -0.43497184
0.44255745 -0.53698623 -0.18762302 0.51497865 -1.2461082 0.026581448 -0.54381746 -1.1227586
0.28712648 -0.305038 0.52841467 0.5976342 0.080477186 -0.18889238 0.65004784 -0.18562831
-0.36782914 0.5808232 -0.93351424 -0.45191193 -0.17597145 -0.300085 0.18849869 0.7385143
1.001772 0.66754895 0.06402875 0.606085 0.2823436 -0.20068505 0.1670744 -0.112782866
0.43634185 -0.4974178 -0.33746785 0.6166542 -0.59514946 -0.37518424 0.41451365 0.0810226
1.054646 0.6408975 0.32823947 -0.075231574 -1.1176926 -0.22313465 -0.2083323 0.050625775
0.29202136 1.1853284 -0.46868995 0.15484418 -0.16034605 0.87735605 -0.68099755 -1.3581614
-0.16091527 -0.7340913 -0.38231775 -0.23594078 0.57757455 0.44104254 -0.18453103 0.12486599
0.21603161 -0.87403303 0.26424065 0.082253836 0.6215945 -0.6949807 1.5460256 -0.17502695
0.22372352 -0.52862495 -0.4597118 0.46504658 0.15267101 -0.37815905 0.10158203 0.2615658
-0.5389634 -0.6566345 -0.19893552 -0.07611242 -0.19696914 0.1911187 0.35483077 1.012421
-0.5667895 -0.54610723 0.542147 0.8889013 -0.6330586 -0.07140026 0.9899589 -0.2182679
-0.080016375 -0.24756335 0.51216143 -0.5334165 -0.49180183 -0.42587095 0.15106553 0.11196462
-0.12680626 0.6785732 0.13420738 0.323364 0.46910906 0.2556331 -1.1086142 -0.81169045
0.0024379566 -0.19540054 -0.06314891 -0.27994257 0.0049374998 -0.02967482 0.071864896 0.2387279
0.27332056 0.19794624 -0.0055019786 -0.20545964 0.4762964 0.26750475 -0.79292953 -0.27147466
0.18216212 -1.0973649 -0.0074593243 1.2027845 0.3542339 -0.999015 0.4572857 0.24002455
1.0359225 0.13153921 -0.66991985 -0.3576948 -0.49258485 0.6043432 -0.25871614 0.76315737
0.24433158 0.33566606 -0.4429372 -0.3932541 0.33115584 0.24599808 0.04049006 -0.2864949
-0.19722393 0.14657465 -0.3946874 0.20387694 0.7498181 -0.05528744 -0.76180047 -0.82222396
0.50771916 -0.3394661 -0.08079371 -0.24507158 -0.85073584 -0.9173689 1.5282379 0.41302332
-0.14667177 0.38185367 0.062583245 -0.12485825 0.35433647 -1.0094066 -0.21412843 -0.33077675
-0.031664614 0.1228475 -0.008970413 -0.120776206 0.86180836 0.2100963 0.100319505 -0.80291235
0.123280436 0.1341335 -0.09524943 0.034476288 -1.098173 -0.40646285 -0.22945404 0.19380835
-0.66472155 0.27938813 0.8950555 0.4729843 0.42601243 0.25936472 0.06994389 -0.68921536
00000000: 6ea8 a03f 33a3 b33e eaa8 983e 2786 6dbf
00000010: 90fa 243d 7686 ad3e 71d8 143c 2c15 b83e
00000020: cfe1 3abe fa46 16bf 8384 ab3d 4fdc 40bf
00000030: 9929 c23e 985f 9ebe ae51 ad3e 81c6 21bf
00000040: fd1f 0fbf d39d 20be 6ba1 1dbf 0726 283f
00000050: 22af 593f b66b 89bf 5f84 02bd d019 c7be
00000060: 2bea a83e ed90 e33e c333 1f3d aeef 9a3e
00000070: a991 c2be 27ce c33e b3a9 cebd 1022 733f
00000080: 1914 803e 6483 75be 879b 89be e6d5 42bf
00000090: ddf1 423b 879f 0c3e 9dde ffbb 72e6 71be
000000a0: 2af8 bcbd 95b0 abbd 27cd c33c e524 213e
000000b0: bdc8 363e 5a3a 553e 66df 27be 9599 eebd
000000c0: 4d9d 433f 42a3 683e 19cf 1fbf 6da9 8d3d
000000d0: 63b1 84bd 7626 03bf b475 4f3f a1b4 debe
000000e0: e496 e23e ee77 09bf 4020 40be a4d5 033f
000000f0: 7980 9fbf 56c1 d93c 9f37 0bbf 8eb6 8fbf
00000100: 3e02 933e f12d 9cbe 2f46 073f 8efe 183f
00000110: 39d1 a43d 016d 41be 8969 263f 5915 3ebe
00000120: 1a54 bcbe d4b0 143f cafa 6ebf 0061 e7be
00000130: dc31 34be bea4 99be cd05 413e 460f 3d3f
00000140: 113a 803f 7de4 2a3f 8121 833d 6328 1b3f
00000150: 578f 903e 6280 4dbe 8d15 2b3e b4fa e6bd
00000160: 3368 df3e 8cad febe 96c8 acbe 0ddd 1d3f
00000170: b75b 18bf 2618 c0be 223b d43e 2def a53d
00000180: a4fe 863f dc11 243f 010f a83e 0313 9abd
00000190: 8d10 8fbf 697d 64be 1055 55be f95c 4f3d
000001a0: d383 953e d7b8 973f 21f8 efbe 798f 1e3e
000001b0: c131 24be 689a 603f db55 2ebf 3cd8 adbf
000001c0: f9c6 24be 68ed 3bbf 27bf c3be 769a 71be
000001d0: eddb 133f 54d0 e13e b4f5 3cbe bdb9 ff3d
000001e0: 6437 5d3e a1c0 5fbf 8d4a 873e b374 a83d
000001f0: d120 1f3f 41ea 31bf 2be4 c53f 443a 33be
00000200: c717 653e f753 07bf 585f ebbe 961a ee3e
00000210: ca55 1c3e 109e c1be 3d0a d03d f4eb 853e
00000220: 81f9 09bf 3319 28bf c1b5 4bbe d4e0 9bbd
00000230: 47b2 49be 9fb4 433e 61ac b53e 0397 813f
00000240: 1e19 11bf afcd 0bbf 25ca 0a3f 098f 633f
00000250: 2110 22bf 4d3a 92bd f26d 7d3f 9f81 5fbe
00000260: a0df a3bd 3f81 7dbe 031d 033f fc8d 08bf
00000270: 73cd fbbe c20b dabe ecb0 1a3e b54d e53d
00000280: 80d9 01be f9b6 2d3f a96d 093e f78f a53e
00000290: 102f f03e 57e2 823e 12e7 8dbf f2ca 4fbf
000002a0: 20c6 1f3b 1417 48be 3754 81bd a254 8fbe
000002b0: c0ca a13b 9c18 f3bc e72d 933d 1675 743e
000002c0: acf0 8b3e 6bb2 4a3e f149 b4bb 0364 52be
000002d0: 1fdd f33e 62f6 883e 6efd 4abf bafe 8abe
000002e0: b588 3a3e 7476 8cbf 596d f4bb d8f4 993f
000002f0: 255e b53e 72bf 7fbf 5a21 ea3e ffc8 753e
00000300: 1c99 843f 37b2 063e de7f 2bbf c623 b7be
00000310: 1534 fcbe 3cb6 1a3f 7176 84be 485e 433f
00000320: 0f32 7a3e 6cdc ab3e aac8 e2be 9a58 c9be
00000330: 428d a93e ece6 7b3e e8d8 253d 76af 92be
00000340: 12f5 49be aa17 163e 7814 cabe 1ec5 503e
00000350: 14f4 3f3f 1575 62bd 5b05 43bf 457d 52bf
00000360: e2f9 013f 80ce adbe 2c77 a5bd 0bf4 7abe
00000370: d3c9 59bf b0d8 6abf 4d9d c33f cb77 d33e
00000380: 2031 16be 5382 c33e a52b 803d afb5 ffbd
00000390: 976b b53e 3c34 81bf 7c44 5bbe 925b a9be
000003a0: c1b2 01bd 7897 fb3d a4f8 12bc 8459 f7bd
000003b0: 799f 5c3f 7c23 573e 5074 cd3d aa8b 4dbf
000003c0: 747a fc3d 4b5a 093e 2212 c3bd 0237 0d3d
000003d0: ef90 8cbf e61b d0be 00f6 6abe b275 463e
000003e0: 312b 2abf f60b 8f3e 5b22 653f 002b f23e
000003f0: 4d1e da3e 74cb 843e be3e 8f3d 6b70 30bf

conv2.weight f4 [64, 128, 1, 3]
-0.0069348793 0.020051757 -0.012440292 -0.036072657 -0.0027450097 -0.057350725 -0.06435414 0.044690363
0.047290422 0.041510638 0.035305846 -0.029119754 -0.025751688 -0.07438059 -0.0058600456 -0.030179443
0.008384034 -0.053100977 -0.032872044 -0.042293888 0.015580006 -0.07407688 -0.07948624 -0.0690113
-0.08971898 -0.0043906234 -0.055387218 -0.01732236 -0.044390563 -0.046020087 -0.048245512 -0.069735475
-0.07177606 -0.10322664 -0.042632036 -0.00832923 -0.0017282973 -0.072735645 -0.082728714 0.030845057
-0.04834133 -0.0168892 -0.052818786 -0.023998452 0.035081837 -0.054396868 -0.038921177 -0.04837742
0.008201611 -0.02636995 0.050200243 -0.03184471 0.055796135 -0.04900627 -0.015782604 -0.0074162977
-0.05752191 0.038498856 0.011223271 -0.012143628 -0.07942449 -0.059309885 -0.032398526 -0.024938423
-0.03161615 -0.025777388 -0.035913847 0.035685737 0.0066656657 -0.024375778 -0.09788846 -0.052994657
0.017820206 -0.004550312 0.01038298 -0.08480122 0.008312571 0.089131616 -0.04085402 -0.06298992
-0.009423249 -0.09723138 -0.07959697 -0.05389317 0.0066759544 0.0400972 -0.0138400085 -0.024690937
-0.057094075 0.023244 -0.0462841 0.028911807 -0.018213717 0.030192466 -0.009693822 0.016054366
-0.06274902 -0.056403887 -0.03148811 -0.07217533 -0.08087166 -0.07305633 -0.022153178 -0.022687659
-0.07842837 -0.033549253 -0.0032559393 0.056192275 -0.034864325 0.015364875 -0.009561309 -0.009908527
-0.05996955 -0.03188325 -0.01628416 -0.052622177 -0.024084466 -0.051936608 -0.053171962 -0.031020686
0.014680843 0.032185845 0.026666852 -0.061589655 -0.05715045 -0.012525896 -0.03985119 -0.015725369
0.0011883097 -0.035465807 -0.0856632 -0.006440238 0.049608104 0.023969488 -0.014424107 -0.0176509
-0.016379891 -0.028217895 -0.011477469 0.013736977 -0.0067528686 -0.084854454 -0.045859568 -0.060063183
0.01477941 -0.014159141 -0.017485209 -0.07946121 0.017294556 -0.071384236 -0.037402395 -0.014793844
-0.022013795 -0.05721668 -0.0379636 -0.010925862 -0.07192125 -0.076305054 -0.049155425 -0.07954209
-0.048553493 -0.070735104 -0.064851575 -0.03556313 -0.0027530724 0.019542225 0.028570026 -8.765563e-05
-0.0679162 -0.00919453 -0.019750733 -0.035388518 0.008977012 -0.0006016575 0.009103205 0.009621258
-0.013098288 -0.017527767 -0.022705097 -0.043501716 0.04329982 -0.0053767217 0.015329546 -0.046932735
-0.0035861542 0.032640398 0.04221911 -0.086193666 -0.02906328 0.025493816 -0.021366572 0.016362365
-0.045767754 -0.009486879 -0.02937777 0.028821154 -0.0077020186 0.0024223495 -0.047007482 -0.06586887
-0.03839214 -0.08824511 -0.04264464 -0.050015785 -0.0079634525 -0.079271525 -0.07456415 0.012002922
-0.059312187 0.0104906615 -0.056327924 0.014550566 0.0032743423 0.027950576 -0.057295218 -0.06528972
0.06339143 -0.036754336 0.008205445 0.0074891006 -0.014785702 0.034399994 -0.023199316 0.03139693
-0.004213409 0.003183145 -0.054723293 -0.00815401 -0.017625144 -0.084413566 -0.08822149 0.033185124
-0.092471264 -0.050462198 -0.050800648 -0.012304972 -0.012110907 0.05299239 -0.10190984 -0.07481534
-0.035229232 -0.03211192 -0.05426247 -0.036236864 -0.055484757 0.018946413 -0.008778564 -0.010726482
-0.011265842 -0.010960231 -0.08941099 -0.07311499 -0.051371023 -0.05686464 -0.066460654 -0.012501584
00000000: fc3d e3bb 9543 a43c 5ed2 4bbc ecc0 13bd
00000010: 9fe5 33bb 98e8 6abd 1acc 83bd 3e0d 373d
00000020: 9ab3 413d 0f07 2a3d dd9c 103d 8d8c eebc
00000030: 34f5 d2bc da54 98bd a005 c0bb e13a f7bc
00000040: 305d 093c 6980 59bd d6a4 06bd 5b3c 2dbd
00000050: 4843 7f3c 9fb5 97bd afc9 a2bd cc55 8dbd
00000060: 96be b7bd 38df 8fbb b5dd 62bd 9fe7 8dbc
00000070: e1d2 35bd 8f7f 3cbd 169d 45bd 79d1 8ebd
00000080: 54ff 92bd 7d68 d3bd ee9e 2ebd 5377 08bc
00000090: 0988 e2ba 6df6 94bd ac6d a9bd c6ae fc3c
000000a0: 8f01 46bd 385b 8abc 8358 58bd 6798 c4bc
000000b0: f9b1 0f3d 40cf 5ebd d06b 1fbd 6727 46bd
000000c0: 0d60 063c cb05 d8bc c59e 4d3d 996f 02bd
000000d0: 7d8a 643d ccba 48bd 854a 81bc 6a04 f3bb
000000e0: 189c 6bbd fab0 1d3d cfe1 373c 11f6 46bc
000000f0: 4fa9 a2bd ecee 72bd 51b4 04bd aa4b ccbc
00000100: f07f 01bd 1a2b d3bc 661a 13bd 352b 123d
00000110: a86b da3b b6af c7bc bf79 c8bd ed10 59bd
00000120: aefb 913c c91a 95bb 601d 2a3c 43ac adbd
00000130: 7331 083c a38a b63d 8b56 27bd dc00 81bd
00000140: f963 1abc 3f21 c7bd bc03 a3bd 16bf 5cbd
00000150: f7c1 da3b f63c 243d 34c1 62bc a644 cabc
00000160: 7adb 69bd 336a be3c 6594 3dbd 74d8 ec3c
00000170: ef34 95bc 3156 f73c d6d2 1ebc 7284 833c
00000180: 8f82 80bd c307 67bd adf9 00bd a9d0 93bd
00000190: 0aa0 a5bd 8f9e 95bd 957a b5bc 78db b9bc
000001a0: 0e9f a0bd f16a 09bd 9961 55bb df29 663d
000001b0: e5cd 0ebd f5bc 7b3c 09a7 1cbc 6057 22bc
000001c0: a2a2 75bd 0398 02bd 5c66 85bc 5a8a 57bd
000001d0: c94c c5bc 7bbb 54bd d8ca 59bd 181f febc
000001e0: eb87 703c 4ed5 033d 7174 da3c 6f45 7cbd
000001f0: 9716 6abd 6a39 4dbc 003b 23bd 7dd2 80bc
00000200: 0fc1 9b3a 9844 11bd 3070 afbd a208 d3bb
00000210: de31 4b3d a95b c43c 1753 6cbc 9f98 90bc
00000220: 1f2f 86bc 3729 e7bc fe0b 3cbc 0f11 613c
00000230: 2b47 ddbb 2cc8 adbd 3ed7 3bbd d004 76bd
00000240: 5725 723c befb 67bc 243d 8fbc 8fbc a2bd
00000250: 50ad 8d3c e631 92bd 4133 19bd e161 72bc
00000260: 4656 b4bc 0a5c 6abd b87f 1bbd 6302 33bc
00000270: 734b 93bd d345 9cbd 3357 49bd f7e6 a2bd
00000280: 07e0 46bd 91dd 90bd e7d0 84bd a5aa 11bd
00000290: e46c 34bb 0417 a03c b00b ea3c c2d3 b7b8
000002a0: a617 8bbd a7a4 16bc 4acc a1bc 8df3 10bd
000002b0: 5114 133c 8db8 1dba 9c25 153c 7ba2 1d3c
000002c0: 349a 56bc 6496 8fbc 0a00 babc db2e 32bd
000002d0: 275b 313d 362f b0bb c728 7b3c 8a3c 40bd
000002e0: af05 6bbb f0b1 053d f2ed 2c3d 4e86 b0bd
000002f0: 1e16 eebc 68d8 d03c f308 afbc 5e0a 863c
00000300: f876 3bbd db6e 1bbc a6a9 f0bc 571a ec3c
00000310: 3761 fcbb 48c0 1e3b eb8a 40bd 42e6 86bd
00000320: 1441 1dbd dab9 b4bd 25ac 2ebd 5add 4cbd
00000330: 2479 02bc 1c59 a2bd 17b5 98bd e7a7 443c
00000340: 56f1 72bd 06e1 2b3c 1cb8 66bd 7f65 6e3c
00000350: 5996 563b 9bf8 e43c 64ae 6abd 9eb6 85bd
00000360: 5ed3 813d b78b 16bd 2170 063c 2167 f53b
00000370: bb3f 72bc 02e7 0c3d 7e0c bebc 119a 003d
00000380: a310 8abb 509c 503b 8825 60bd 6698 05bc
00000390: 9b62 90bc 05e1 acbd 78ad b4bd 20ed 073d
000003a0: 9361 bdbd 73b1 4ebd 5714 50bd cb9a 49bc
000003b0: d36c 46bc 8c0e 593d 1bb6 d0bd c938 99bd
000003c0: 874c 10bd ca87 03bd 5342 5ebd 1b6d 14bd
000003d0: fc43 63bd 8235 9b3c f7d3 0fbc 20be 2fbc
000003e0: 5e94 38bc 8a92 33bc 1c1d b7bd 50bd 95bd
000003f0: 6c6a 52bd e6ea 68bd 861c 88bd 72d3 4cbc

conv3.weight f4 [32, 64, 1, 1]
0.076483876 0.07018553 -2.0012276 -0.0061172466 -2.176135 -0.07997218 0.054103427 -0.6387928
0.054500952 0.2877868 0.099672124 -0.7262582 -0.07272166 0.39770243 0.061809853 1.2011763
0.063373126 -0.08123265 0.05881571 -0.051976215 -0.09009942 0.034689598 0.087991886 -0.03192216
0.4581404 0.15975115 -0.07831771 -0.1140582 -2.3713179 0.0025294842 0.74327284 -0.33653122
0.971828 -0.04305607 0.7577205 0.0865717 -0.58917606 0.07872534 0.81636804 -0.55928475
0.06272978 -0.074232325 -0.08336936 0.051006816 -0.19049759 -0.5570339 -0.10300675 -0.06981783
-0.3069802 -0.027036358 -1.2397851 0.06821467 -0.10910832 -0.5210615 0.0715164 -0.03574368
0.06800535 0.10045683 0.28858468 -1.7792072 0.005645952 0.06679853 -0.10707927 -0.080978274
0.06867553 -0.018507855 0.9327295 -1.823255 0.2723871 0.15079255 -0.008071617 2.8544972
-0.02178597 -0.24601671 -1.2787936 -0.14431262 0.12337722 -0.8777465 -0.036439743 0.1296294
0.091545835 -0.01946007 -0.037560828 0.11320767 0.14599083 0.0037683523 1.3787282 0.02699835
0.12821102 0.30112812 0.08771394 -0.036122497 0.16906536 0.05111841 0.7018252 -2.8231487
1.8870549 -0.020918552 0.46792236 -0.08171554 -0.21476322 0.106821455 0.05806086 -0.5968845
0.023599263 0.07409979 0.049484484 0.09274176 -1.0694934 0.6761167 0.031107226 0.05075937
0.2555666 0.030101962 -0.11251632 0.0076299594 0.033467744 -1.1529711 -0.03084882 0.044331156
0.074715324 0.100462615 0.32400516 -0.13751385 0.073653854 -0.0166022 0.19892645 -0.016162477
-0.10299707 0.024424296 -1.9085766 -0.23186521 -1.2106824 0.11128151 0.10743402 -1.2355227
0.11454621 0.13038437 -3.013363 0.68298846 -0.014944471 0.59295726 0.10600723 -2.1913755
-0.050195925 0.078989 0.06633502 0.07142402 0.10461033 0.06541667 0.16513312 0.029289583
-0.7739903 -1.336546 -0.004397874 0.014489346 0.96290183 -0.07420332 0.7648373 -1.8441622
0.6046296 0.050048307 -0.049534436 -0.037056316 0.4507859 -0.06776404 -0.06758169 -1.3886696
-0.10398493 0.0146984365 0.04069739 -0.07342692 -2.8943617 0.44299242 -0.047248185 0.026400467
-3.289475 0.10450429 -0.50952756 0.030098086 -0.11118875 0.14610648 0.06454404 0.10022983
0.04428275 0.06491668 -1.0163895 0.59986526 -0.09312621 0.026126565 0.11962034 -0.00341988
-0.063043244 0.0010396813 1.0522841 -1.5326602 0.18899599 -0.18874706 0.12298473 2.4533672
-0.077257514 -0.25172976 -1.2190614 -0.3850902 0.033700053 -0.84597856 -0.003884898 0.20490265
-0.0058332444 -0.11444976 -0.07632393 0.085856006 0.013372654 -0.05159916 1.4200169 -0.08211342
0.09698163 0.2795066 -0.06529512 0.090421446 0.11381894 -0.047013167 0.736039 -2.8606682
1.9338722 0.055853534 0.5624488 0.028963918 -0.18826249 0.035957083 0.20927943 -0.46300966
0.124708705 -0.04283482 0.039898388 -0.06486329 -1.110371 0.59978634 -0.06041588 0.15673213
0.27776605 0.027345255 0.39609107 -0.010234949 -0.064355254 -1.1820358 -0.06389823 -0.0990708
0.01268611 0.085725494 0.35539111 -0.13860701 0.10063224 -0.031080538 0.1381121 -0.017186554
00000000: 94a3 9c3d 6ebd 8f3d 1d14 00c0 2f73 c8bb
00000010: cc45 0bc0 74c8 a3bd 8e9b 5d3d ed87 23bf
00000020: 643c 5f3d cb58 933e e620 cc3d 0fec 39bf
00000030: 18ef 94bd a79f cb3e 542c 7d3d 25c0 993f
00000040: c5c9 813d 4e5d a6bd bee8 703d 03e5 54bd
00000050: 0b86 b8bd ae16 0e3d 1735 b43d d0c0 02bd
00000060: 6191 ea3e ce95 233e 0965 a0bd 5897 e9bd
00000070: acc3 17c0 b4c5 253b 2147 3e3f d24d acbe
00000080: b8c9 783f 905b 30bd f8f9 413f 814c b13d
00000090: 3ed4 16bf c03a a13d 7ffd 503f 492d 0fbf
000000a0: 7978 803d 1e07 98bd 8ebd aabd 86ec 503d
000000b0: cd11 43be c699 0ebf 34f5 d2bd a7fc 8ebd
000000c0: 822c 9dbe 5a7b ddbc 47b1 9ebf 22b4 8b3d
000000d0: 2f74 dfbd 4964 05bf 3177 923d f767 12bd
000000e0: 6446 8b3d 4fbc cd3d 5fc1 933e 10bd e3bf
000000f0: ae01 b93b abcd 883d 604c dbbd f0d7 a5bd
00000100: c2a5 8c3d c99d 97bc 5cc7 6e3f 6b60 e9bf
00000110: 5276 8b3e 5d69 1a3e d13e 04bc 15b0 3640
00000120: 7e78 b2bc ceeb 7bbe 82af a3bf b0c6 13be
00000130: 32ad fc3d ffb3 60bf d741 15bd 92bd 043e
00000140: 627c bb3d ba6a 9fbc 62d9 19bd 6cd9 e73d
00000150: 9f7e 153e 76f6 763b 2a7a b03f a52b dd3c
00000160: c049 033e 772d 9a3e 5ea3 b33d 2ff5 13bd
00000170: 781f 2d3e 8a61 513d d1aa 333f 78ae 34c0
00000180: 048b f13f 625d abbc 8593 ef3e 7a5a a7bd
00000190: e4ea 5bbe 35c5 da3d 39d1 6d3d 6ccd 18bf
000001a0: 3e53 c13c a1c1 973d 3eb0 4a3d 64ef bd3d
000001b0: 29e5 88bf fc15 2d3f 95d4 fe3c 0fe9 4f3d
000001c0: a0d9 823e 6498 f63c f56e e6bd bd04 fa3b
000001d0: 7915 093d 8f94 93bf aab6 fcbc 9694 353d
000001e0: 5904 993d 58bf cd3d 01e4 a53e 6ed0 0cbe
000001f0: d5d7 963d 5601 88bc 60b3 4b3e 2c67 84bc
00000200: 21f0 d2bd 7615 c83c 3d4c f4bf 136e 6dbe
00000210: a4f7 9abf 8fe7 e33d 5e06 dc3d 9c25 9ebf
00000220: 3497 ea3d 7b83 053e f0da 40c0 55d8 2e3f
00000230: a8d9 74bc 0ccc 173f 521a d93d 7f3f 0cc0
00000240: 3e9a 4dbd fcc4 a13d a8da 873d c246 923d
00000250: f13d d63d 2df9 853d a818 293e b5f0 ef3c
00000260: 3a24 46bf f013 abbf 0b1c 90bb b964 6d3c
00000270: bc80 763f e9f7 97bd 61cc 433f 820d ecbf
00000280: 01c9 1a3f 74ff 4c3d 9fe4 4abd 5dc8 17bd
00000290: 69cd e63e dfc7 8abd 4568 8abd edbf b1bf
000002a0: 0df6 d4bd b6d1 703c 4eb2 263d da60 96bd
000002b0: 393d 39c0 e7cf e23e 5087 41bd cb45 d83c
000002c0: c286 52c0 5806 d63d 6670 02bf 4390 f63c
000002d0: edb6 e3bd f09c 153e aa2f 843d 4c45 cd3d
000002e0: d461 353d 09f3 843d 0d19 82bf c590 193f
000002f0: f4b8 bebd 6107 d63c 82fb f43d 1120 60bb
00000300: d11c 81bd ea45 883a 3fb1 863f 362e c4bf
00000310: 2a88 413e e946 41be 6bdf fb3d f803 1d40
00000320: 3039 9ebd b9e2 80be 340a 9cbf 8b2a c5be
00000330: 1109 0a3d 0d92 58bf c699 7ebb 00d2 513e
00000340: cd24 bfbb a364 eabd b84f 9cbd 46d5 af3d
00000350: fa18 5b3c a459 53bd 1dc3 b53f 152b a8bd
00000360: 4e9e c63d 7d1b 8f3e 73b9 85bd e12e b93d
00000370: e819 e93d e190 40bd 0d6d 3c3f 3015 37c0
00000380: 2089 f73f adc6 643d a5fc 0f3f bd45 ed3c
00000390: e2c7 40be bc47 133d 594d 563e 9a0f edbe
000003a0: 4767 ff3d 9073 2fbd 7e6c 233d 0bd7 84bd
000003b0: a320 8ebf 998b 193f a476 77bd 637e 203e
000003c0: 5a37 8e3e 2803 e03c 73cc ca3e 7db0 27bc
000003d0: b0cc 83bd f34c 97bf 13dd 82bd a2e5 cabd
000003e0: 67d9 4f3c d990 af3d d3f5 b53e ffee 0dbe
000003f0: 4718 ce3d 9d9c febc 426d 0d3e d1ca 8cbc

conv4.weight f4 [1, 32, 1, 1]
3.6951027 -4.1381664 3.187021 -3.6838372 2.6726604 3.3390758 -2.3367996 -0.86354613
2.4093158 4.086266 2.53401 2.774091 -0.9147897 3.1712325 -2.5485377 2.6137278
3.0125177 3.0034783 2.7880034 3.0499947 -2.0795875 3.4346502 -0.78984946 2.8936594
-3.4520442 2.087905 -0.8396623 2.5556056 2.903857 4.1346617 2.976239 2.878521
00000000: 907c 6c40 dc6b 84c0 27f8 4b40 fdc3 6bc0
00000010: de0c 2b40 6bb3 5540 208e 15c0 5c11 5dbf
00000020: 3b32 1a40 b1c2 8240 382d 2240 b58a 3140
00000030: a82f 6abf 79f5 4a40 3e1b 23c0 5147 2740
00000040: 17cd 4040 fd38 4040 a66e 3240 1d33 4340
00000050: f617 05c0 4fd1 5b40 9333 4abf b731 3940
00000060: 4bee 5cc0 3ca0 0540 1cf4 56bf 0b8f 2340
00000070: cbd8 3940 264f 8440 b37a 3e40 b039 3840

exp_avg f4 [128, 4, 1, 3]
0.0009752795 0.0006377172 -0.0016111836 0.00017827163 -0.0063771657 -0.0020813697 0.0022714993 0.0003464829
-0.0015014957 0.0013047847 -0.0023763762 -0.0036851391 0.0038263986 -8.029687e-05 -0.0022169421 0.0018901741
-0.0032202275 0.0006566601 -0.0012023643 -0.0013231398 0.00095831486 -0.0012222567 -0.0015803167 0.0036753046
0.005255674 0.0029536902 0.004381059 0.004793035 0.004103618 0.0050580865 -0.00024369133 0.0016664264
-0.00041549167 0.00011822352 0.003812262 0.0013787401 6e-45 6e-45 -6e-45 6e-45
6e-45 6e-45 6e-45 -6e-45 -6e-45 6e-45 -6e-45 6e-45
-0.0005943904 -0.00016519823 -0.0004357025 -0.00026312395 0.0023371787 0.0010944668 0.00022209561 0.00082597364
0.0011445284 0.00030711846 0.00089859683 0.002307019 -0.002124148 0.00044862504 -0.0011676099 0.0004522967
0.0011142921 0.00069915445 -0.0017644825 -0.00021836843 -0.00039743117 0.000553393 -1.778467e-05 0.00089788396
-0.0027739275 0.00013448232 0.0044907522 0.00042323602 0.0028174748 0.0055763014 -0.0024638746 0.0002264417
0.0037679982 -0.0012178422 0.0037359153 0.004818637 -0.0039116894 -0.0061011314 -0.0042445776 -0.004368612
-0.004129612 -0.0021900136 -0.0048844325 -0.003180071 -0.0031670139 -0.0045827357 -0.0021970598 -0.0035905482
0.0034917481 0.0012891701 -0.0010665228 0.0024724093 0.0008344225 -0.00035443495 0.001495541 -0.002328249
-0.0028406961 0.00046039151 -0.0010587221 -0.0017075187 -0.0031890143 -0.0027468111 -0.0022159577 -0.0006480555
-0.0015191421 0.00038387062 -0.0049383217 -0.00050498836 -1.7970344e-05 -0.0011738479 -0.00034558037 0.00032430168
-0.0015305466 -0.0015268781 -0.0020636993 -0.00240581 0.00040158915 -0.004772045 0.00024271288 0.000924544
-0.003985751 0.00010061576 -0.00071736117 -0.0046707015 -0.0004715024 -0.0030833944 -0.0018625032 0.00031515778
-0.00050666253 -3.7631504e-05 -0.003203833 -0.0038851167 -0.002599932 -0.002055029 -0.0009300949 -0.001029737
8.4402855e-05 -2.3080147e-06 -0.0020055445 9.240264e-05 -0.003187599 -0.0025576928 0.0041050697 0.0024198014
0.0051427763 0.0030512733 -0.0023320366 0.0042686635 -0.002691351 -0.0002486245 0.0028369685 -0.00084051193
-0.00032347304 -0.0013299341 -0.0011475942 0.0072538867 0.0060275267 0.0024643599 0.003996926 0.002308552
-6e-45 -6e-45 -6e-45 6e-45 6e-45 -6e-45 -6e-45 -6e-45
-6e-45 -6e-45 6e-45 -6e-45 -0.00061747135 0.00043074688 0.0023885688 -0.0010330834
0.0002260378 0.0014832757 -0.0001347295 0.0004929021 0.0021721446 -0.00045080425 0.00088743505 0.0020420048
-0.0020370944 0.0017813753 0.0051635858 -0.0033117845 2.5479058e-06 -0.0031042758 0.0053806957 0.0067074387
0.0052009383 0.0026171561 0.00456029 0.0026302543 -0.00041276598 0.00039183963 -0.0012855415 -0.001095012
-0.0016168866 -0.0032031592 0.0010864913 -0.0009098994 -0.0006455863 0.0016059651 -0.0020604758 -0.00050072686
0.00042827675 -0.0006234037 -0.0030335784 0.0017967816 0.00041799454 -0.0011700676 -0.000256945 -0.0026689894
-0.0056431694 8.204388e-05 -0.0019698413 -0.0031981883 0.002274009 0.0044699144 0.00047110562 0.00039537105
0.0001007739 0.0008360871 0.0013793897 0.0022761717 0.003526748 0.0014187287 0.0014956784 0.0018827094
-0.00432599 -0.0009640449 -0.0009651951 -0.00027187506 0.0020005954 0.0008330038 -0.003395335 -0.0006717933
-0.0026314247 -0.00060636457 0.0015736197 -0.0015872876 0.0012755791 -0.00019946517 0.0014567041 0.0021691674
00000000: e6a9 7f3a 7a2c 273a 5a2e d3ba 6dee 3a39
00000010: 8bf7 d0bb 9767 08bb 6fdd 143b 26a8 b539
00000020: d6cd c4ba 4f05 ab3a fabc 1bbb 6082 71bb
00000030: 51c4 7a3b 0e65 a8b8 1e4a 11bb b8bf f73a
00000040: 740a 53bb b723 2c3a a798 9dba 346d adba
00000050: 6c37 7b3a 2134 a0ba a122 cfba 61dd 703b
00000060: ca37 ac3b b392 413b fd8e 8f3b e40e 9d3b
00000070: a577 863b 4ebe a53b 6587 7fb9 fe6b da3a
00000080: 59d6 d9b9 c5ee f738 25d7 793b d7b6 b43a
00000090: 0400 0000 0400 0000 0400 0080 0400 0000
000000a0: 0400 0000 0400 0000 0400 0000 0400 0080
000000b0: 0400 0080 0400 0000 0400 0080 0400 0000
000000c0: ddd0 1bba 1039 2db9 006f e4b9 e6f3 89b9
000000d0: 5a2b 193b 3674 8f3a 56e2 6839 2786 583a
000000e0: 0004 963a be04 a139 d08f 6b3a 5b31 173b
000000f0: 4a35 0bbb 6f35 eb39 7d0a 99ba 3c22 ed39
00000100: 700d 923a 7647 373a 3546 e7ba d4f9 64b9
00000110: 4f5e d0b9 9311 113a 4a30 95b7 f95f 6b3a
00000120: c8ca 35bb d303 0d39 2927 933b c7e5 dd39
00000130: 62a5 383b 68b9 b63b f578 21bb fb70 6d39
00000140: 85f0 763b 01a0 9fba 42d6 743b a8e5 9d3b
00000150: a12d 80bb 00ec c7bb 1916 8bbb 9326 8fbb
00000160: b251 87bb 5586 0fbb 970d a0bb bd68 50bb
00000170: ad8d 4fbb c62a 96bb 8cfc 0fbb 674f 6bbb
00000180: d0d5 643b 5ff9 a83a 91ca 8bba 2508 223b
00000190: 25bd 5a3a 74d3 b9b9 0706 c43a 8995 18bb
000001a0: f92a 3abb b460 f139 d2c4 8aba d2ce dfba
000001b0: c8fe 50bb d803 34bb 9a39 11bb 45e2 29ba
000001c0: f31d c7ba 3e42 c939 a5d1 a1bb 3261 04ba
000001d0: 05bf 96b7 cddb 99ba 032f b5b9 0907 aa39
000001e0: 9f9c c8ba 8721 c8ba 213f 07bb cbaa 1dbb
000001f0: 628c d239 d15e 9cbb be80 7e39 195d 723a
00000200: e79a 82bb ad01 d338 4b0d 3cba af0c 99bb
00000210: fb33 f7b9 c612 4abb 3d1f f4ba c33b a539
00000220: 8cd1 04ba 85d6 1db8 66f7 51bb 719d 7ebb
00000230: 9f63 2abb aaad 06bb 9dd1 73ba 3df8 86ba
00000240: 7001 b138 64e3 1ab6 746f 03bb 4ac8 c138
00000250: 09e7 50bb f79e 27bb d283 863b 8895 1e3b
00000260: bc84 a83b dff7 473b 15d5 18bb 25e0 8b3b
00000270: 6161 30bb d159 82b9 6fec 393b cd55 5cba
00000280: d197 a9b9 2f51 aeba df6a 96ba 03b2 ed3b
00000290: 8f82 c53b 1981 213b a5f8 823b 134b 173b
000002a0: 0400 0080 0400 0080 0400 0080 0400 0000
000002b0: 0400 0000 0400 0080 0400 0080 0400 0080
000002c0: 0400 0080 0400 0080 0400 0000 0400 0080
000002d0: cddd 21ba ded5 e139 8989 1c3b 8768 87ba
000002e0: 8f04 6d39 796a c23a 2d46 0db9 1a36 013a
000002f0: 8a5a 0e3b ec59 ecb9 c2a2 683a 28d3 053b
00000300: c680 05bb 097d e93a 4c33 a93b 860a 59bb
00000310: b0fc 2a36 1b71 4bbb 8c50 b03b 13ca db3b
00000320: a26c aa3b 9884 2b3b 7c6e 953b 5860 2c3b
00000330: 8368 d8b9 d36f cd39 9d7f a8ba 8186 8fba
00000340: b6ed d3ba 18ec 51bb 9968 8e3a 5186 6eba
00000350: 903c 29ba 3f7f d23a 0c09 07bb 3643 03ba
00000360: 558a e039 ea6b 23ba 00cf 46bb fc81 eb3a
00000370: 4726 db39 f45c 99ba 93b6 86b9 36ea 2ebb
00000380: 56ea b8bb f90e ac38 7418 01bb b298 51bb
00000390: 8a07 153b 5c78 923b bafe f639 ce49 cf39
000003a0: 9356 d338 db2c 5b3a a3cc b43a d32b 153b
000003b0: 0321 673b a3f4 b93a a40a c43a 3fc5 f63a
000003c0: 09c1 8dbb f5b7 7cba 2605 7dba 748a 8eb9
000003d0: 6c1c 033b f05d 5a3a 4584 5ebb 491b 30ba
000003e0: fb73 2cbb 70f4 1eba ea41 ce3a 890c d0ba
000003f0: 5531 a73a 8627 51b9 e1ee be3a 9728 0e3b

exp_avg_sq f4 [128, 4, 1, 3]
0.00038742652 0.00042391356 0.0007934039 0.00070903415 0.00092170987 0.0009599759 0.00054238597 0.00087658793
0.0018567166 0.0003008833 0.00068941346 0.0014009315 0.00020536456 0.00040079452 0.00070402503 0.00011452497
0.00027145408 0.00078836334 0.0007080017 0.0007259024 0.00086083915 0.00036911896 0.00041575453 0.0008395376
0.00021156523 0.0002744067 0.00041883532 0.000554064 0.0005995301 0.00064006296 0.00016756881 0.00023613629
0.0007190912 0.00015893996 0.00035164927 0.00066404755 7e-43 7e-43 7e-43 7e-43
7e-43 7e-43 7e-43 7e-43 7e-43 7e-43 7e-43 7e-43
0.00015410125 0.00018391837 0.0003677479 0.0003184638 0.0002199935 0.00038629398 0.00014188587 0.0005324516
0.0006964438 0.00010517123 0.00032736865 0.00045440492 0.00036371045 0.00044384916 0.0006459926 8.09982e-05
0.00068673235 0.0007056804 0.000718639 0.0006418776 0.0011153104 0.00024386961 0.00052425143 0.0010160743
0.00014181895 0.0002888003 0.00082898705 0.00025771846 0.00066085573 0.001438433 0.00017168188 0.00013346892
0.00055413967 0.0001718405 0.00040833288 0.0010950901 0.00031220375 0.0003993509 0.00060694217 0.00035303502
0.00067108846 0.00069094804 0.0005045429 0.0005261286 0.00092067174 0.00030379277 0.0005352965 0.00078597176
0.0003880126 0.0006281517 0.0013992054 0.001197056 0.0010499449 0.0023085221 0.00022850795 0.00068639463
0.0013063233 0.00061915163 0.0007944685 0.0018981519 0.0002977435 0.00020725482 0.0006194365 8.733694e-05
0.00016744762 0.0002544692 0.0007022839 0.0009162653 0.0011671124 0.00016901463 0.00055098836 0.0005803066
0.00037017622 0.0003315848 0.0007741461 0.0009776666 0.0008382417 0.001465373 0.00010817635 0.0008724695
0.0009002614 0.00012647476 0.0007067587 0.0013033337 0.000313616 0.00039271222 0.0007691166 0.00043204104
0.00043054594 0.0011223477 0.0005777726 0.00081073074 0.0009314548 0.00030211796 0.00056077144 0.0009963155
0.00041437455 0.00047441563 0.0007955494 0.0008422045 0.00073472934 0.000976615 0.0005746664 0.0011280015
0.0018144933 0.00035992646 0.00069327507 0.0012567206 0.00053299917 0.00075759395 0.0014152215 0.00045920466
0.0004803495 0.0010679845 0.0015700154 0.0022322081 0.002914122 0.00062687485 0.0012906478 0.0018250395
7e-43 7e-43 7e-43 7e-43 7e-43 7e-43 7e-43 7e-43
7e-43 7e-43 7e-43 7e-43 3.445841e-05 0.00016353461 0.00027055477 5.3932028e-05
0.0002483188 0.0002721855 8.6739215e-05 0.00013012609 0.00039661294 5.916477e-05 0.00017232042 0.0003290083
0.0005625928 0.0006824004 0.0012031139 0.0009975731 0.0008814518 0.0014034059 0.0007317099 0.0010937485
0.0018154477 0.000622878 0.0009741292 0.0015322042 0.0002014209 0.00032445916 0.0005704836 0.0001471926
0.00019435202 0.00030691244 0.00067823566 0.00094370847 0.0012766744 0.00025540614 0.00054014724 0.0008862666
6.981264e-05 0.0001627763 0.00057393854 0.0001315702 0.000115344315 0.00036667162 0.000116888354 0.0005787955
0.001220117 7.856542e-05 0.00039078805 0.00084984826 0.00019555703 0.00053851824 0.0006455417 0.000188886
0.00024967274 0.0005065112 0.0007182169 0.0011262421 0.0013105114 0.00042027366 0.00054653134 0.0010235786
0.00045521892 0.00030649084 0.0007627078 0.000451645 0.00026081255 0.000307913 0.00089139893 0.0010181821
0.0023302557 0.00018768074 0.0005169208 0.0008626321 0.00013859544 0.00022046837 0.00033515538 9.825931e-05
00000000: 821f cb39 b740 de39 6ffc 4f3a 7ade 393a
00000010: e79e 713a e4a6 7b3a e82e 0e3a d2ca 653a
00000020: 125d f33a dfbf 9d39 c1b9 343a 769f b73a
00000030: 2157 5739 bb21 d239 528e 383a 202d f038
00000040: f351 8e39 2baa 4e3a 3199 393a 7c4a 3e3a
00000050: f0a9 613a 4f86 c139 a1f9 d939 6a14 5c3a
00000060: 9cd7 5d39 3ede 8f39 2097 db39 9b3e 113a
00000070: c929 1d3a e6c9 273a 69b5 2f39 5a9b 7739
00000080: 6581 3c3a 1fa9 2639 915d b839 7a13 2e3a
00000090: f401 0000 f401 0000 f401 0000 f401 0000
000000a0: f401 0000 f401 0000 f401 0000 f401 0000
000000b0: f401 0000 f401 0000 f401 0000 f401 0000
000000c0: 3d96 2139 36da 4039 4ace c039 7df7 a639
000000d0: 0eae 6639 8087 ca39 33c7 1439 3994 0b3a
000000e0: 8d91 363a 608f dc38 ada2 ab39 323d ee39
000000f0: 64b0 be39 6db4 e839 d457 293a 94dd a938
00000100: d405 343a 69fd 383a 0c63 3c3a ad43 283a
00000110: 9b2f 923a 40b7 7f39 eb6d 093a cc2d 853a
00000120: 3cb5 1439 1f6a 9739 6150 593a 631e 8739
00000130: 473d 2d3a cd89 bc3a 8105 3439 caf3 0b39
00000140: af43 113a 1530 3439 8315 d639 2089 8f3a
00000150: 47af a339 f85f d139 331b 1f3a 8f17 b939
00000160: fceb 2f3a bd20 353a 4d43 043a e5eb 093a
00000170: 3c59 713a 6046 9f39 2453 0c3a ac09 4e3a
00000180: 2b6e cb39 8caa 243a 8b65 b73a 89e6 9c3a
00000190: 4e9e 893a 934a 173b a39b 6f39 2aef 333a
000001a0: f038 ab3a 904e 223a e143 503a 69cb f83a
000001b0: 751a 9c39 8b52 5939 ae61 223a aa28 b738
000001c0: e194 2f39 476a 8539 7a19 383a 8631 703a
000001d0: cbf9 983a 8539 3139 3470 103a b71f 183a
000001e0: 3614 c239 8fd8 ad39 11f0 4a3a 0c25 803a
000001f0: 73bd 5b3a c211 c03a bcdc e238 70b6 643a
00000200: 85ff 6b3a 4f9e 0439 c645 393a 9fd4 aa3a
00000210: d46c a439 f1e4 cd39 8b9e 493a 9183 e239
00000220: e6ba e139 bd1b 933a aa75 173a 3887 543a
00000230: e02c 743a 9665 9e39 bc00 133a cd96 823a
00000240: 6940 d939 fdba f839 6b8c 503a 63c7 5c3a
00000250: da9a 403a c301 803a 36a5 163a 73d9 933a
00000260: 4bd4 ed3a 83b4 bc39 e7bc 353a 8cb8 a43a
00000270: f8b8 0b3a 4599 463a f47e b93a 68c1 f039
00000280: 6bd7 fb39 9dfb 8b3a fac8 cd3a 3d4a 123b
00000290: dbfa 3e3b dc54 243a f42a a93a 2a36 ef3a
000002a0: f401 0000 f401 0000 f401 0000 f401 0000
000002b0: f401 0000 f401 0000 f401 0000 f401 0000
000002c0: f401 0000 f401 0000 f401 0000 f401 0000
000002d0: 7087 1038 7d7a 2b39 3fd9 8d39 1335 6238
000002e0: c930 8239 1fb4 8e39 c3e7 b538 7572 0839
000002f0: 7df0 cf39 b027 7838 e9b0 3439 bf7e ac39
00000300: f77a 133a 1ee3 323a ceb1 9d3a 00c1 823a
00000310: 3b11 673a 7df2 b73a 38d0 3f3a 1c5c 8f3a
00000320: 51f4 ed3a a348 233a b45c 7f3a 3ed4 c83a
00000330: 8334 5339 2c1c aa39 828c 153a b657 1a39
00000340: f9ca 4b39 17e9 a039 a0cb 313a 3463 773a
00000350: 1656 a73a 08e8 8539 ab98 0d3a 5854 683a
00000360: 6068 9238 eeae 2a39 5d74 163a 1bf6 0939
00000370: 02e5 f138 d53d c039 f521 f538 4fba 173a
00000380: 55ec 9f3a 7dc3 a438 afe2 cc39 5ac8 5e3a
00000390: 710e 4d39 592b 0d3a 9239 293a b30f 4639
000003a0: 82e6 8239 64c7 043a b846 3c3a 6a9e 933a
000003b0: 77c5 ab3a 2d58 dc39 1945 0f3a 9929 863a
000003c0: 73aa ee39 81b0 a039 74f0 473a c4ca ec39
000003d0: abbd 8839 626f a139 c5ac 693a 8674 853a
000003e0: 34b7 183b 2acc 4439 f881 073a 4322 623a
000003f0: ee53 1139 872d 6739 cbb7 af39 9110 ce38

exp_avg f4 [64, 128, 1, 3]
6e-45 6e-45 6e-45 -6e-45 6e-45 6e-45 6e-45 -6e-45
6e-45 6e-45 6e-45 0.0 6e-45 6e-45 6e-45 6e-45
6e-45 6e-45 6e-45 6e-45 6e-45 6e-45 6e-45 6e-45
6e-45 6e-45 6e-45 6e-45 6e-45 6e-45 6e-45 6e-45
6e-45 6e-45 6e-45 6e-45 6e-45 6e-45 6e-45 6e-45
6e-45 6e-45 6e-45 6e-45 6e-45 6e-45 6e-45 6e-45
6e-45 6e-45 6e-45 6e-45 -6e-45 6e-45 6e-45 6e-45
6e-45 6e-45 6e-45 6e-45 6e-45 6e-45 6e-45 6e-45
6e-45 6e-45 6e-45 6e-45 6e-45 6e-45 6e-45 6e-45
6e-45 6e-45 6e-45 6e-45 6e-45 -6e-45 6e-45 6e-45
6e-45 6e-45 6e-45 6e-45 6e-45 6e-45 6e-45 6e-45
6e-45 6e-45 6e-45 6e-45 6e-45 -6e-45 6e-45 6e-45
6e-45 6e-45 6e-45 6e-45 6e-45 6e-45 6e-45 6e-45
6e-45 6e-45 6e-45 6e-45 6e-45 6e-45 6e-45 6e-45
6e-45 6e-45 6e-45 6e-45 6e-45 6e-45 6e-45 6e-45
6e-45 6e-45 6e-45 6e-45 6e-45 6e-45 6e-45 6e-45
6e-45 6e-45 6e-45 6e-45 -6e-45 -6e-45 6e-45 6e-45
6e-45 6e-45 6e-45 6e-45 6e-45 6e-45 6e-45 6e-45
6e-45 6e-45 6e-45 6e-45 6e-45 6e-45 6e-45 6e-45
6e-45 6e-45 6e-45 6e-45 6e-45 6e-45 6e-45 6e-45
6e-45 6e-45 6e-45 6e-45 6e-45 6e-45 6e-45 6e-45
6e-45 -6e-45 0.0 6e-45 6e-45 -6e-45 -6e-45 6e-45
6e-45 6e-45 6e-45 6e-45 6e-45 6e-45 6e-45 6e-45
6e-45 6e-45 6e-45 6e-45 6e-45 6e-45 6e-45 6e-45
6e-45 6e-45 6e-45 6e-45 6e-45 6e-45 6e-45 6e-45
6e-45 6e-45 6e-45 6e-45 6e-45 6e-45 6e-45 6e-45
6e-45 6e-45 6e-45 6e-45 6e-45 6e-45 6e-45 6e-45
-6e-45 6e-45 6e-45 6e-45 6e-45 6e-45 6e-45 6e-45
6e-45 6e-45 6e-45 6e-45 6e-45 6e-45 6e-45 -6e-45
6e-45 6e-45 6e-45 6e-45 6e-45 -6e-45 6e-45 6e-45
6e-45 6e-45 6e-45 6e-45 6e-45 6e-45 6e-45 6e-45
6e-45 6e-45 6e-45 6e-45 6e-45 6e-45 6e-45 6e-45
00000000: 0400 0000 0400 0000 0400 0000 0400 0080
00000010: 0400 0000 0400 0000 0400 0000 0400 0080
00000020: 0400 0000 0400 0000 0400 0000 0000 0000
00000030: 0400 0000 0400 0000 0400 0000 0400 0000
00000040: 0400 0000 0400 0000 0400 0000 0400 0000
00000050: 0400 0000 0400 0000 0400 0000 0400 0000
00000060: 0400 0000 0400 0000 0400 0000 0400 0000
00000070: 0400 0000 0400 0000 0400 0000 0400 0000
00000080: 0400 0000 0400 0000 0400 0000 0400 0000
00000090: 0400 0000 0400 0000 0400 0000 0400 0000
000000a0: 0400 0000 0400 0000 0400 0000 0400 0000
000000b0: 0400 0000 0400 0000 0400 0000 0400 0000
000000c0: 0400 0000 0400 0000 0400 0000 0400 0000
000000d0: 0400 0080 0400 0000 0400 0000 0400 0000
000000e0: 0400 0000 0400 0000 0400 0000 0400 0000
000000f0: 0400 0000 0400 0000 0400 0000 0400 0000
00000100: 0400 0000 0400 0000 0400 0000 0400 0000
00000110: 0400 0000 0400 0000 0400 0000 0400 0000
00000120: 0400 0000 0400 0000 0400 0000 0400 0000
00000130: 0400 0000 0400 0080 0400 0000 0400 0000
00000140: 0400 0000 0400 0000 0400 0000 0400 0000
00000150: 0400 0000 0400 0000 0400 0000 0400 0000
00000160: 0400 0000 0400 0000 0400 0000 0400 0000
00000170: 0400 0000 0400 0080 0400 0000 0400 0000
00000180: 0400 0000 0400 0000 0400 0000 0400 0000
00000190: 0400 0000 0400 0000 0400 0000 0400 0000
000001a0: 0400 0000 0400 0000 0400 0000 0400 0000
000001b0: 0400 0000 0400 0000 0400 0000 0400 0000
000001c0: 0400 0000 0400 0000 0400 0000 0400 0000
000001d0: 0400 0000 0400 0000 0400 0000 0400 0000
000001e0: 0400 0000 0400 0000 0400 0000 0400 0000
000001f0: 0400 0000 0400 0000 0400 0000 0400 0000
00000200: 0400 0000 0400 0000 0400 0000 0400 0000
00000210: 0400 0080 0400 0080 0400 0000 0400 0000
00000220: 0400 0000 0400 0000 0400 0000 0400 0000
00000230: 0400 0000 0400 0000 0400 0000 0400 0000
00000240: 0400 0000 0400 0000 0400 0000 0400 0000
00000250: 0400 0000 0400 0000 0400 0000 0400 0000
00000260: 0400 0000 0400 0000 0400 0000 0400 0000
00000270: 0400 0000 0400 0000 0400 0000 0400 0000
00000280: 0400 0000 0400 0000 0400 0000 0400 0000
00000290: 0400 0000 0400 0000 0400 0000 0400 0000
000002a0: 0400 0000 0400 0080 0000 0000 0400 0000
000002b0: 0400 0000 0400 0080 0400 0080 0400 0000
000002c0: 0400 0000 0400 0000 0400 0000 0400 0000
000002d0: 0400 0000 0400 0000 0400 0000 0400 0000
000002e0: 0400 0000 0400 0000 0400 0000 0400 0000
000002f0: 0400 0000 0400 0000 0400 0000 0400 0000
00000300: 0400 0000 0400 0000 0400 0000 0400 0000
00000310: 0400 0000 0400 0000 0400 0000 0400 0000
00000320: 0400 0000 0400 0000 0400 0000 0400 0000
00000330: 0400 0000 0400 0000 0400 0000 0400 0000
00000340: 0400 0000 0400 0000 0400 0000 0400 0000
00000350: 0400 0000 0400 0000 0400 0000 0400 0000
00000360: 0400 0080 0400 0000 0400 0000 0400 0000
00000370: 0400 0000 0400 0000 0400 0000 0400 0000
00000380: 0400 0000 0400 0000 0400 0000 0400 0000
00000390: 0400 0000 0400 0000 0400 0000 0400 0080
000003a0: 0400 0000 0400 0000 0400 0000 0400 0000
000003b0: 0400 0000 0400 0080 0400 0000 0400 0000
000003c0: 0400 0000 0400 0000 0400 0000 0400 0000
000003d0: 0400 0000 0400 0000 0400 0000 0400 0000
000003e0: 0400 0000 0400 0000 0400 0000 0400 0000
000003f0: 0400 0000 0400 0000 0400 0000 0400 0000

exp_avg_sq f4 [64, 128, 1, 3]
7e-43 7e-43 7e-43 7e-43 7e-43 7e-43 7e-43 7e-43
7e-43 7e-43 7e-43 0.0 7e-43 7e-43 7e-43 7e-43
7e-43 7e-43 7e-43 7e-43 7e-43 7e-43 7e-43 7e-43
7e-43 7e-43 7e-43 7e-43 7e-43 7e-43 7e-43 7e-43
7e-43 7e-43 7e-43 7e-43 7e-43 7e-43 7e-43 7e-43
7e-43 7e-43 7e-43 7e-43 7e-43 7e-43 7e-43 7e-43
7e-43 7e-43 7e-43 7e-43 7e-43 7e-43 7e-43 7e-43
7e-43 7e-43 7e-43 7e-43 7e-43 7e-43 7e-43 7e-43
7e-43 7e-43 7e-43 7e-43 7e-43 7e-43 7e-43 7e-43
7e-43 7e-43 7e-43 7e-43 7e-43 7e-43 7e-43 7e-43
7e-43 7e-43 7e-43 7e-43 7e-43 7e-43 7e-43 7e-43
7e-43 7e-43 7e-43 7e-43 7e-43 7e-43 7e-43 7e-43
7e-43 7e-43 7e-43 7e-43 7e-43 7e-43 7e-43 7e-43
7e-43 7e-43 7e-43 7e-43 7e-43 7e-43 7e-43 7e-43
7e-43 7e-43 7e-43 7e-43 7e-43 7e-43 7e-43 7e-43
7e-43 7e-43 7e-43 7e-43 7e-43 7e-43 7e-43 7e-43
7e-43 7e-43 7e-43 7e-43 7e-43 7e-43 7e-43 7e-43
7e-43 7e-43 7e-43 7e-43 7e-43 7e-43 7e-43 7e-43
7e-43 7e-43 7e-43 7e-43 7e-43 7e-43 7e-43 7e-43
7e-43 7e-43 7e-43 7e-43 7e-43 7e-43 7e-43 7e-43
7e-43 7e-43 7e-43 7e-43 7e-43 7e-43 7e-43 7e-43
7e-43 7e-43 0.0 7e-43 7e-43 7e-43 7e-43 7e-43
7e-43 7e-43 7e-43 7e-43 7e-43 7e-43 7e-43 7e-43
7e-43 7e-43 7e-43 7e-43 7e-43 7e-43 7e-43 7e-43
7e-43 7e-43 7e-43 7e-43 7e-43 7e-43 7e-43 7e-43
7e-43 7e-43 7e-43 7e-43 7e-43 7e-43 7e-43 7e-43
7e-43 7e-43 7e-43 7e-43 7e-43 7e-43 7e-43 7e-43
7e-43 7e-43 7e-43 7e-43 7e-43 7e-43 7e-43 7e-43
7e-43 7e-43 7e-43 7e-43 7e-43 7e-43 7e-43 7e-43
7e-43 7e-43 7e-43 7e-43 7e-43 7e-43 7e-43 7e-43
7e-43 7e-43 7e-43 7e-43 7e-43 7e-43 7e-43 7e-43
7e-43 7e-43 7e-43 7e-43 7e-43 7e-43 7e-43 7e-43
00000000: f401 0000 f401 0000 f401 0000 f401 0000
00000010: f401 0000 f401 0000 f401 0000 f401 0000
00000020: f401 0000 f401 0000 f401 0000 0000 0000
00000030: f401 0000 f401 0000 f401 0000 f401 0000
00000040: f401 0000 f401 0000 f401 0000 f401 0000
00000050: f401 0000 f401 0000 f401 0000 f401 0000
00000060: f401 0000 f401 0000 f401 0000 f401 0000
00000070: f401 0000 f401 0000 f401 0000 f401 0000
00000080: f401 0000 f401 0000 f401 0000 f401 0000
00000090: f401 0000 f401 0000 f401 0000 f401 0000
000000a0: f401 0000 f401 0000 f401 0000 f401 0000
000000b0: f401 0000 f401 0000 f401 0000 f401 0000
000000c0: f401 0000 f401 0000 f401 0000 f401 0000
000000d0: f401 0000 f401 0000 f401 0000 f401 0000
000000e0: f401 0000 f401 0000 f401 0000 f401 0000
000000f0: f401 0000 f401 0000 f401 0000 f401 0000
00000100: f401 0000 f401 0000 f401 0000 f401 0000
00000110: f401 0000 f401 0000 f401 0000 f401 0000
00000120: f401 0000 f401 0000 f401 0000 f401 0000
00000130: f401 0000 f401 0000 f401 0000 f401 0000
00000140: f401 0000 f401 0000 f401 0000 f401 0000
00000150: f401 0000 f401 0000 f401 0000 f401 0000
00000160: f401 0000 f401 0000 f401 0000 f401 0000
00000170: f401 0000 f401 0000 f401 0000 f401 0000
00000180: f401 0000 f401 0000 f401 0000 f401 0000
00000190: f401 0000 f401 0000 f401 0000 f401 0000
000001a0: f401 0000 f401 0000 f401 0000 f401 0000
000001b0: f401 0000 f401 0000 f401 0000 f401 0000
000001c0: f401 0000 f401 0000 f401 0000 f401 0000
000001d0: f401 0000 f401 0000 f401 0000 f401 0000
000001e0: f401 0000 f401 0000 f401 0000 f401 0000
000001f0: f401 0000 f401 0000 f401 0000 f401 0000
00000200: f401 0000 f401 0000 f401 0000 f401 0000
00000210: f401 0000 f401 0000 f401 0000 f401 0000
00000220: f401 0000 f401 0000 f401 0000 f401 0000
00000230: f401 0000 f401 0000 f401 0000 f401 0000
00000240: f401 0000 f401 0000 f401 0000 f401 0000
00000250: f401 0000 f401 0000 f401 0000 f401 0000
00000260: f401 0000 f401 0000 f401 0000 f401 0000
00000270: f401 0000 f401 0000 f401 0000 f401 0000
00000280: f401 0000 f401 0000 f401 0000 f401 0000
00000290: f401 0000 f401 0000 f401 0000 f401 0000
000002a0: f401 0000 f401 0000 0000 0000 f401 0000
000002b0: f401 0000 f401 0000 f401 0000 f401 0000
000002c0: f401 0000 f401 0000 f401 0000 f401 0000
000002d0: f401 0000 f401 0000 f401 0000 f401 0000
000002e0: f401 0000 f401 0000 f401 0000 f401 0000
000002f0: f401 0000 f401 0000 f401 0000 f401 0000
00000300: f401 0000 f401 0000 f401 0000 f401 0000
00000310: f401 0000 f401 0000 f401 0000 f401 0000
00000320: f401 0000 f401 0000 f401 0000 f401 0000
00000330: f401 0000 f401 0000 f401 0000 f401 0000
00000340: f401 0000 f401 0000 f401 0000 f401 0000
00000350: f401 0000 f401 0000 f401 0000 f401 0000
00000360: f401 0000 f401 0000 f401 0000 f401 0000
00000370: f401 0000 f401 0000 f401 0000 f401 0000
00000380: f401 0000 f401 0000 f401 0000 f401 0000
00000390: f401 0000 f401 0000 f401 0000 f401 0000
000003a0: f401 0000 f401 0000 f401 0000 f401 0000
000003b0: f401 0000 f401 0000 f401 0000 f401 0000
000003c0: f401 0000 f401 0000 f401 0000 f401 0000
000003d0: f401 0000 f401 0000 f401 0000 f401 0000
000003e0: f401 0000 f401 0000 f401 0000 f401 0000
000003f0: f401 0000 f401 0000 f401 0000 f401 0000

exp_avg f4 [32, 64, 1, 1]
6e-45 6e-45 -0.00013229341 -7.240056e-06 9.819671e-06 6e-45 6e-45 8e-43
6e-45 -0.0013676365 -0.0008183547 -0.0011775898 0.0 -0.0018664348 6e-45 0.00057032885
6e-45 0.0 6e-45 6e-45 -6e-45 6e-45 -9.456139e-05 6e-45
-0.00014275049 -0.00049298 6e-45 6e-45 4.9875143e-06 6e-45 -0.0008674528 -0.0002304841
-0.0019939896 6e-45 -0.0004792814 6e-45 0.00023694422 6e-45 -0.00069867447 -0.0007231964
6e-45 0.0 6e-45 6e-45 -0.0007845084 0.00015557365 0.0 -6e-45
-0.0004895688 6e-45 2.139644e-07 6e-45 6e-45 -0.00051425595 -6e-45 6e-45
6e-45 -6e-45 0.0011629228 -0.0004279072 6e-45 6e-45 -0.0003805945 -6e-45
6e-45 -6e-45 -0.0008774334 -0.00083390845 -0.0038104043 -6e-45 6e-45 -0.0003184976
6e-45 0.00025178707 0.00064336834 -0.0020568613 0.0 0.00065824424 6e-45 -0.002370228
6e-45 6e-45 6e-45 6e-45 -6e-45 -6e-45 -0.00075622473 6e-45
-0.0041037975 -0.0022496274 6e-45 6e-45 -0.00020143007 6e-45 -0.00042258168 -0.00028626953
0.0012069637 6e-45 -0.0015443104 6e-45 -0.004414787 -6e-45 -8.7825293e-07 -0.00052480976
6e-45 6e-45 6e-45 6e-45 4.1993444e-05 -0.0011087554 -6e-45 6e-45
0.000524939 6e-45 -1.0833807e-05 6e-45 6e-45 -0.00076157035 6e-45 6e-45
6e-45 6e-45 -0.0039528115 -0.0045673326 6e-45 6e-45 0.00033917653 -6e-45
-6e-45 6e-45 -4.613682e-05 -0.0008640674 -0.0006482763 6e-45 6e-45 8.17846e-05
-6e-45 -0.00054826395 -3.3036285e-05 -0.0016344042 6e-45 -0.0010721463 6e-45 -8.6517364e-05
6e-45 6e-45 6e-45 6e-45 -6e-45 6e-45 1.5428026e-05 6e-45
-0.00045060302 -0.00061392 6e-45 6e-45 -0.00040712478 -6e-45 -0.00036840668 -2.6849086e-06
-0.00029325607 6e-45 -0.0002455665 6e-45 -0.0011881638 -6e-45 -4.0637107e-05 -0.0002335903
6e-45 6e-45 6e-45 6e-45 -0.000101122496 -0.0003606231 -6e-45 6e-45
-7.044541e-06 6e-45 -1.4216826e-07 6e-45 6e-45 -0.0009946087 6e-45 6e-45
6e-45 6e-45 -0.0001672717 -0.0018629571 6e-45 6e-45 -0.0002532005 -6e-45
-6e-45 -6e-45 -0.00089503673 -0.0007868801 -0.003398227 6e-45 -6e-45 -0.00028354675
6e-45 8.994933e-05 0.0003914391 -0.002565279 -6e-45 0.0005549359 -6e-45 -0.0025159514
-6e-45 -6e-45 -6e-45 6e-45 -6e-45 -6e-45 -0.0008123217 6e-45
-0.0035352008 -0.0026489333 6e-45 -6e-45 -0.00022795738 6e-45 -0.0006333808 -0.0002620773
0.0010548325 -6e-45 -0.0011335312 -6e-45 -0.0041162046 6e-45 1.0092553e-05 -0.00049785763
6e-45 -6e-45 6e-45 -6e-45 -7.231176e-05 -0.0009944737 6e-45 6e-45
0.00044929943 -6e-45 -9.496101e-06 -6e-45 -6e-45 -0.00068857137 6e-45 -6e-45
6e-45 6e-45 -0.0037560905 -0.0045908047 -6e-45 -6e-45 0.0002436407 -6e-45
00000000: 0400 0000 0400 0000 3eb8 0ab9 9cef f2b6
00000010: 2abf 2437 0400 0000 0400 0000 3b02 0000
00000020: 0400 0000 4442 b3ba db86 56ba 5b59 9aba
00000030: 0000 0000 29a3 f4ba 0400 0000 1f82 153a
00000040: 0400 0000 0000 0000 0400 0000 0400 0000
00000050: 0400 0080 0400 0000 424f c6b8 0400 0000
00000060: 4baf 15b9 543b 01ba 0400 0000 0400 0000
00000070: 6c5a a736 0400 0000 c665 63ba 1bae 71b9
00000080: 98ad 02bb 0400 0000 1048 fbb9 0400 0000
00000090: 3b74 7839 0400 0000 4027 37ba e494 3dba
000000a0: 0400 0000 0000 0000 0400 0000 0400 0000
000000b0: 78a7 4dba 7c21 2339 0000 0000 0400 0080
000000c0: 6856 00ba 0400 0000 16be 6534 0400 0000
000000d0: 0400 0000 22cf 06ba 0400 0080 0400 0000
000000e0: 0400 0000 0400 0080 376d 983a bb58 e0b9
000000f0: 0400 0000 0400 0000 878a c7b9 0400 0080
00000100: 0400 0000 0400 0080 8f03 66ba a69a 5aba
00000110: fab7 79bb 0400 0080 0400 0000 06fc a6b9
00000120: 0400 0000 4a02 8439 b8a7 283a 68cc 06bb
00000130: 0000 0000 068e 2c3a 0400 0000 d455 1bbb
00000140: 0400 0000 0400 0000 0400 0000 0400 0000
00000150: 0400 0080 0400 0080 623d 46ba 0400 0000
00000160: 2679 86bb 7c6e 13bb 0400 0000 0400 0000
00000170: f936 53b9 0400 0000 f48d ddb9 7216 96b9
00000180: fb32 9e3a 0400 0000 756a caba 0400 0000
00000190: eba9 90bb 0400 0080 15c1 6bb5 6393 09ba
000001a0: 0400 0000 0400 0000 0400 0000 0400 0000
000001b0: 1e22 3038 a853 91ba 0400 0080 0400 0000
000001c0: 0f9c 093a 0400 0000 d9c2 35b7 0400 0000
000001d0: 0400 0000 1fa4 47ba 0400 0000 0400 0000
000001e0: 0400 0000 0400 0000 9686 81bb 90a9 95bb
000001f0: 0400 0000 0400 0000 81d3 b139 0400 0080
00000200: 0400 0080 0400 0000 0983 41b8 9582 62ba
00000210: 16f1 29ba 0400 0000 0400 0000 c683 ab38
00000220: 0400 0080 5fb9 0fba 7190 0ab8 8139 d6ba
00000230: 0400 0000 4387 8cba 0400 0000 a870 b5b8
00000240: 0400 0000 0400 0000 0400 0000 0400 0000
00000250: 0400 0080 0400 0000 6f6b 8137 0400 0000
00000260: ea3e ecb9 79ef 20ba 0400 0000 0400 0000
00000270: 5d73 d5b9 0400 0080 b526 c1b9 612e 34b6
00000280: 2ac0 99b9 0400 0000 61bf 80b9 0400 0000
00000290: 29bc 9bba 0400 0080 c371 2ab8 ebef 74b9
000002a0: 0400 0000 0400 0000 0400 0000 0400 0000
000002b0: ba11 d4b8 0312 bdb9 0400 0080 0400 0000
000002c0: 2560 ecb6 0400 0000 eaa6 18b4 0400 0000
000002d0: 0400 0000 885d 82ba 0400 0000 0400 0000
000002e0: 0400 0000 0400 0000 a865 2fb9 782e f4ba
000002f0: 0400 0000 0400 0000 ffbf 84b9 0400 0080
00000300: 0400 0080 0400 0080 e6a0 6aba a146 4eba
00000310: cab4 5ebb 0400 0000 0400 0080 00a9 94b9
00000320: 0400 0000 2ea3 bc38 113a cd39 3d1e 28bb
00000330: 0400 0080 1e79 113a 0400 0080 a9e2 24bb
00000340: 0400 0080 0400 0080 0400 0080 0400 0000
00000350: 0400 0080 0400 0080 fdf1 54ba 0400 0000
00000360: d4ae 67bb ba99 2dbb 0400 0000 0400 0080
00000370: d807 6fb9 0400 0000 7709 26ba 6b67 89b9
00000380: 4e42 8a3a 0400 0080 ff92 94ba 0400 0080
00000390: 3ae1 86bb 0400 0000 2f53 2937 a982 02ba
000003a0: 0400 0000 0400 0080 0400 0000 0400 0080
000003b0: 15a6 97b8 0059 82ba 0400 0000 0400 0000
000003c0: f38f eb39 0400 0080 7151 1fb7 0400 0080
000003d0: 0400 0080 3e81 34ba 0400 0000 0400 0080
000003e0: 0400 0000 0400 0000 be28 76bb 766e 96bb
000003f0: 0400 0080 0400 0080 cd79 7f39 0400 0080
