exp/online_bak/state.pt (torch_old, 340498 bytes, 12 tensors)

conv1.weight f4 [128, 4, 1, 3]
000000 f4 83 9f 3e 63 dc 4d 3f a4 77 ef 3d 0b 4a 20 be
       0.3115536 0.8041441 0.116927415 -0.15653245
000010 ca b7 e3 3e b1 eb 6f 3e c0 d0 9c bd f9 74 ba 3c
       0.44476157 0.23429753 -0.076570034 0.022760855
000020 53 5a 17 bd 61 79 78 3e 21 13 1b 3e ec 2d 50 be
       -0.036951374 0.24265052 0.15144016 -0.20330018
000030 d4 55 81 be 12 c0 d7 be de 5e 0a be 16 98 96 be
       -0.25260794 -0.42138726 -0.13512751 -0.29412907
000040 43 70 b6 bd 5d 76 e9 bd 9c c8 ee be b8 a2 a2 3d
       -0.08908131 -0.11399529 -0.46637428 0.079411924
000050 e9 76 af 3e b8 6c de be b2 cd 93 be f8 9e 92 3d
       0.3427041 -0.4344232 -0.2886787 0.07159227
000060 c0 b0 03 3e ca 0f 74 3d 16 a6 ea 3d 12 c8 de 3e
       0.12860394 0.05958537 0.1145746 0.43512017
000070 1e df 3e 3e 70 2d b4 3e 9c 51 f5 be 23 5a 69 be
       0.186398 0.35190916 -0.47913826 -0.2278829
000080 ac be 62 3c 85 cc f3 3d 1f 74 c6 be 30 9b 8b be
       0.013839405 0.119042434 -0.38760468 -0.27266836
000090 e5 56 c3 be 3d 48 93 3e d1 e0 8c bd cb 4b 13 bf
       -0.38152233 0.2876605 -0.06878818 -0.57537526
0000a0 58 21 95 be 0d 8f d6 be 55 0c 2f be 87 1a 23 3e
       -0.29127002 -0.41906014 -0.17094548 0.15928088
0000b0 07 e5 b3 3e b9 98 2d 3e e4 2d 9f be b9 57 12 be
       0.35135671 0.1695279 -0.310897 -0.14291276
0000c0 f8 01 90 3d 15 26 8f be 40 b4 79 be f0 23 5b 3d
       0.070316255 -0.27958742 -0.24385166 0.05350107
0000d0 67 1b 57 3e 40 83 15 3f de 60 51 be b1 e7 25 3d
       0.21006547 0.58403397 -0.20447108 0.04050416
0000e0 db ab 82 3d d4 14 08 be 23 a8 83 3d 15 85 e8 3e
       0.06380435 -0.13289195 0.06428554 0.45414034
0000f0 39 bf a9 be c5 7f b6 bc 01 8a f5 be 3b 3e 7f 3d
       -0.33153704 -0.022277722 -0.4795685 0.062315207
000100 eb bb 41 be 99 ef 8f bd 3a f0 81 3d e7 cc a2 3e
       -0.18919341 -0.070281215 0.06344648 0.31796953
000110 52 fe 02 3e 26 63 f0 bb 3b 2f 12 3f 03 e2 00 be
       0.12792328 -0.007336038 0.5710332 -0.12586217
000120 9f 1c 2b bf 1a 3f ff 3e b6 90 6c bd ab 3f d0 3e
       -0.6684055 0.4985283 -0.057755195 0.40673575
000130 20 d3 cf bc 43 2b ed bd 8f a8 1d be aa e4 3d 3e
       -0.025369227 -0.11580517 -0.15396331 0.1854426
000140 ed 0f ca 3d 60 94 40 3f 61 78 71 be 91 e3 8d 3d
       0.09866319 0.752264 -0.23581077 0.069281705
000150 40 75 cb be 31 6c 90 be bf e6 55 3e c7 a9 8b bf
       -0.39737892 -0.28207543 0.20888804 -1.0911187
000160 f1 0d 6e 3e 18 c5 8b be 5e 31 5a be 30 7c 70 3e
       0.23247506 -0.27298808 -0.21307895 0.23484874
000170 ae 70 fc 3c 84 a4 fb be 8c 13 05 3e ca 27 21 3e
       0.030815449 -0.49148953 0.12995738 0.15737835
000180 4d 1f d1 3e 8f 6b 3d be 35 ee cb bc a6 cc 1c be
       0.40844193 -0.18498062 -0.02489386 -0.15312442
000190 10 b2 3a bf 99 8d e6 be 00 50 e5 3d 95 d6 54 be
       -0.7292795 -0.45029905 0.111968994 -0.20784982
0001a0 b4 ce 44 bd dd 7c 91 3e 03 5b 80 be 58 6b 7f be
       -0.04804869 0.28415576 -0.25069436 -0.24943292
0001b0 2e 02 15 bf ad 63 95 3c b3 b7 9c 3d 6f 8a 6f bf
       -0.5820645 0.018236006 0.07652225 -0.9357061
0001c0 2c b5 13 3e b0 59 93 be e3 f7 07 bf 6a 2e 95 bd
       0.1442458 -0.28779364 -0.5311262 -0.072842434
0001d0 09 23 a2 3e 63 0f 3b 3e b1 35 81 3c 98 9a 5a bd
       0.31667355 0.18267588 0.015772672 -0.05337009
0001e0 88 d3 26 be 11 b9 99 3e fe fe db 3e 45 b9 a9 3e
       -0.1629163 0.30024007 0.4296798 0.33149162
0001f0 49 69 c2 bc a0 13 7b bd 4c cb 09 bd 6d 6d 05 3f
       -0.023731844 -0.061298013 -0.033641145 0.52120095
000200 f1 dd fd 3d 4b fa 07 3e b4 f5 0d bf 12 73 00 3f
       0.123958476 0.13279073 -0.5545304 0.50175583
000210 af 8b 02 3e 08 f8 87 be a4 ee b5 bd f4 66 f2 3e
       0.12748598 -0.2655642 -0.08883408 0.47344172
000220 a6 10 89 3d 20 3e b6 bc e6 7c db bd 19 a3 8a be
       0.066926286 -0.02224642 -0.10717182 -0.2707756
000230 7e f4 75 be 0e a5 ae 3e 04 0f 85 be 44 87 b0 3e
       -0.24019048 0.34110302 -0.2598802 0.344782
000240 98 5c 4c be 2b e8 76 3e 43 d1 bf 3e a1 aa f4 3e
       -0.19957197 0.24112003 0.37464342 0.4778643
000250 cc 14 c2 3d 23 4e 13 be 96 47 cb 3d d3 a9 33 be
       0.09476623 -0.14385276 0.09925763 -0.17545252
000260 e7 c6 c7 be 44 a4 29 3e 6d a9 b2 3e 8d a8 fe be
       -0.39018938 0.16566569 0.34894887 -0.4973797
000270 0b cc c1 3e 16 87 3b be 9e bc 06 be a1 f9 a0 3e
       0.37850985 -0.1831325 -0.13157889 0.31440452
000280 f0 17 b0 3e 8e e0 0d 3e 17 ae 20 3d ba 06 be bd
       0.34393263 0.13855192 0.039228525 -0.09278627
000290 10 49 99 3d 5b fb bc 3e 06 85 14 bf a6 3e 0b bf
       0.07484639 0.3691052 -0.5801548 -0.5439247
0002a0 6f f5 af 3e 3a 24 c0 be 13 f5 5f be 51 59 e8 be
       0.34366938 -0.3752764 -0.21870832 -0.45380643
0002b0 19 42 00 3d 7b d0 4d be c0 4e 88 3e a0 ee 3e 3e
       0.031313036 -0.2009906 0.2662258 0.18645716
0002c0 f2 84 26 3e 9f 29 d4 3e cb 52 97 3c a7 c4 83 be
       0.16261652 0.41438004 0.018472096 -0.2573597
0002d0 df c3 b0 3e e6 8d 1c bf af b5 56 be 0d fd bb 3e
       0.34524438 -0.6115402 -0.20967744 0.367165
0002e0 26 e6 ca be fa d8 95 be 1c 10 aa bd b2 70 94 3e
       -0.39628714 -0.29267102 -0.08303854 0.2899223
0002f0 12 9e 91 3e 8a db f3 be 1a d4 9e be 97 30 a7 3e
       0.2844091 -0.47628433 -0.31021196 0.3265426
000300 9a 2a 52 be 32 0b 31 3f 10 d9 63 be b6 60 02 3e
       -0.20524064 0.6915771 -0.22250772 0.12732205
000310 2d bd 3b 3e fa 15 4d 3e 8c 32 6e be ce 38 9a 3e
       0.18333884 0.20027915 -0.2326147 0.30121464
000320 84 ca 03 3e 70 1e f8 3e 8b e9 f3 3c 6a 2b 52 3d
       0.12870222 0.48460722 0.029774448 0.051310934
000330 e6 90 ad 3e 91 99 3f be f7 9b 95 3c b6 46 07 be
       0.3389961 -0.18710925 0.018262846 -0.13210568
000340 75 96 a8 3d a6 8a cf 3e 13 b5 a7 3d 62 3f 91 be
       0.082318224 0.40535468 0.08188834 -0.2836867
000350 9e 62 4a 3e 47 8a cd be e7 11 9b be 28 94 a9 be
       0.19764182 -0.4014456 -0.30287096 -0.33120847
000360 41 6e 8f 3e fb 00 40 3e ee aa 13 be db 91 28 3e
       0.28013805 0.18750374 -0.14420673 0.1646189
000370 2f c6 a7 bc b8 94 a0 be 36 be d3 3e 4b 2e 07 be
       -0.020480243 -0.31363463 0.41356057 -0.13201253
000380 4d cd 8b be 68 53 85 3e 92 cf ae be 35 5d a1 be
       -0.2730507 0.26040196 -0.3414274 -0.31516424
000390 ec 8b 35 3e 03 29 bf 3e aa 2b ae 3e e7 f4 87 be
       0.17729157 0.37335977 0.34017688 -0.26554033
0003a0 61 08 5c 3e 95 9d c0 3e 3d 35 0a 3e ed 6e 1f 3c
       0.21487571 0.37620226 0.13496871 0.009731037
0003b0 4c 2e f1 3d 44 46 3d 3e a0 92 1f 3e be 5f 70 be
       0.117764086 0.18483835 0.15583277 -0.23474023
0003c0 4a 72 61 be d2 42 b0 bd cf b7 13 be e2 ac dd be
       -0.22016254 -0.08606495 -0.14425586 -0.43295962
0003d0 63 46 e7 be 4f 28 d8 be 5c 66 0c be 60 c0 2b 3e
       -0.45170888 -0.42218253 -0.13710922 0.16772604
0003e0 63 1d 1f be 7a b8 16 3e 51 07 a9 3e c6 8b f2 3d
       -0.15538554 0.1471881 0.33013394 0.11843066
0003f0 1e 49 d5 bb a2 85 cc 3e 92 da ca bc a4 46 af 3d
       -0.0065089604 0.39945704 -0.024762426 0.085583955

conv2.weight f4 [64, 128, 1, 3]
000000 0a 4b c6 3e bc d6 29 3e e6 ed 3a 3e fd 20 80 be
       0.38729125 0.16585821 0.18254814 -0.25025168
000010 7e 4f e9 3e 38 91 46 3d 96 19 6a 3e 2b bd 92 3e
       0.4556846 0.048478335 0.22861323 0.2865995
000020 e1 cd d5 bd ad 4b 87 bf 76 34 12 3f 02 06 8b 3e
       -0.10439659 -1.056997 0.571113 0.2715302
000030 99 28 90 3c 5c f8 9f 3d 41 c3 86 be 1a 08 02 3f
       0.017597483 0.07811043 -0.26320842 0.5079361
000040 24 a8 a2 3e 60 bb 33 3d cb cc 62 3e 5b c1 b5 3e
       0.31768906 0.043879867 0.22148435 0.3549908
000050 05 8d 0f be 11 ad a7 3c 18 8d 8a 3f 5b 26 df be
       -0.14018638 0.020468267 1.0824308 -0.4358395
000060 5f fa 1b 3f ac 58 33 3b 6f 29 2d be d4 22 c3 be
       0.6092891 0.0027366085 -0.16910337 -0.3811251
000070 97 77 22 3f 06 e3 d5 bd 89 9b a0 3e 6c 10 8f 3e
       0.6346373 -0.10443692 0.31368664 0.27942216
000080 dd ca 29 be 82 9f bc bd 13 44 b5 bd bd bf 40 bd
       -0.16581292 -0.09210111 -0.08850875 -0.047057856
000090 44 d9 ca 3b 7e 4e 5f be 82 4f b0 3e 57 3e 9c 3e
       0.006190451 -0.21807286 0.3443566 0.30516312
0000a0 51 59 f3 3c 73 88 04 bd cb 7c 12 3d b7 b8 34 bd
       0.029705675 -0.03235669 0.035763543 -0.04412147
0000b0 9b 97 4a 3e 5b 9c 2c 3f 7d a1 af 3e 60 e7 84 3d
       0.19784395 0.6742608 0.34302893 0.06489444
0000c0 02 dc 8a 3e c5 bf a8 3e be ec a0 bb 06 c0 f7 3e
       0.27120978 0.3295881 -0.0049110344 0.4838869
0000d0 f9 c9 e7 3c ef de c5 be 04 91 65 3d 27 71 d7 bd
       0.02829455 -0.38646647 0.0560465 -0.10519629
0000e0 05 aa 02 3e 4d 6d ba 3e 11 e6 1b 3e 38 ab 4b 3e
       0.1276017 0.36411515 0.15224482 0.19889534
0000f0 ae 0e 30 bf 84 ee 4b 3b 2c a9 8b 3e d0 12 09 bd
       -0.687724 0.0031117508 0.27277505 -0.033465207
000100 50 3a 91 3e 2d d2 40 be 85 0a 20 be 2d 16 26 3f
       0.283648 -0.18830176 -0.15629013 0.6487759
000110 fa d2 8e be 24 10 69 3e a9 3e 29 3e b2 29 19 be
       -0.27895337 0.22760063 0.16527809 -0.14957312
000120 fe f3 2f 3d 25 ee 11 3f 58 cb 4d be 28 6e b6 3d
       0.0429573 0.57004005 -0.200971 0.089077294
000130 f7 76 e6 3e ec cd b3 bd e5 2a ee 3c bf 7b 4d be
       0.45012638 -0.08779511 0.029073188 -0.20066737
000140 e6 fa 6b 3c 22 da a7 bd a4 ab b7 bb 66 e2 34 bd
       0.014403081 -0.081959024 -0.005605178 -0.044161223
000150 fe 1e 8c 3e 4c ea 80 3e 7e e6 b3 bb 7a 80 3d 3e
       0.27367395 0.25178754 -0.0054901233 0.18506041
000160 32 ba ae be a3 da 88 3d 0c 9c c3 3e 2c b5 c2 be
       -0.3412643 0.06682327 0.38204992 -0.38028848
000170 59 42 8b bb 93 7c 85 3e 0a 23 f0 3c 6f ec bd bd
       -0.0042498526 0.26071605 0.029313583 -0.09273612
000180 35 2f d1 bc 5b a5 11 be 69 77 c3 bc dc 4b 9a bd
       -0.025535205 -0.14223234 -0.02386065 -0.07534
000190 e6 1e 9e 3d b2 5c d9 3d 9b ef 3f 3d ac f5 8b be
       0.07720737 0.10613383 0.046859365 -0.2733587
0001a0 53 9e 06 3e a7 fc 2b 3e f2 54 f5 3e 34 7f 2e bd
       0.13146333 0.16795598 0.4791637 -0.04260178
0001b0 89 17 95 3e cb 79 3e 3e 07 f0 b4 be 97 e6 33 3e
       0.29119518 0.18601148 -0.35339376 0.17568432
0001c0 06 a0 11 3e 62 5c bf bd 98 a0 62 3d d8 57 ce bb
       0.142212 -0.093437925 0.055328935 -0.006297093
0001d0 f8 1a bd bd 55 31 c7 3c 72 89 70 3e 33 e8 56 bd
       -0.092336595 0.024315516 0.23489931 -0.052467536
0001e0 76 cb 43 3e 21 9d 33 3f 89 d7 a3 be b0 5b ff 3d
       0.19120583 0.70161635 -0.32000378 0.1246866
0001f0 8e 64 8d 3d eb e1 c3 bc ee d5 c3 be cc 70 05 be
       0.06903945 -0.023911437 -0.38249153 -0.1303131
000200 01 d8 cb 3e 6f c9 8d 3e 96 a7 cd 3a ac 61 fe bd
       0.39813235 0.27692744 0.0015690203 -0.12420973
000210 f3 7f 69 3e 6f 7d 9d be 9d d2 fd 3d 5c d7 cb 3d
       0.22802715 -0.3075976 0.12393687 0.09953186
000220 ef a5 5e 3e 87 bf b2 bd 26 20 81 3d 32 19 82 3e
       0.21742986 -0.08727937 0.0630496 0.25409847
000230 a4 a4 1e bd d1 20 f8 3e ef 07 02 3e 7d 1d 3a 3d
       -0.038731232 0.48462537 0.12698339 0.04543828
000240 8d 60 c7 3d ec b1 09 3f 88 65 85 3d 2a da 5e 3e
       0.097352125 0.5378711 0.06513506 0.2176291
000250 9e e8 47 3e 19 3b 14 be f2 dd 05 3f 4c 58 89 be
       0.1952233 -0.14475669 0.52291787 -0.26825178
000260 9b 32 01 bd 4b 79 e4 3e e3 f3 21 be e8 31 8e 3d
       -0.0315424 0.4462379 -0.15815692 0.069431126
000270 ad 16 72 bd 59 89 cf bd 07 55 9c 3e 2a 73 05 bf
       -0.059103657 -0.10133619 0.3053362 -0.5212885
000280 a3 b9 ba 3e 88 40 bb 3d 1b 7b 8d 3e 64 25 b2 be
       0.36469755 0.09143168 0.27632985 -0.34794152
000290 1c bf 59 3d 0e 11 a5 3e 47 69 a1 3e b6 f5 06 3d
       0.05316077 0.32239574 0.31525633 0.032949172
0002a0 ca 16 90 3d ba ef e9 be b2 18 12 3e 8a 61 63 3c
       0.07035597 -0.4569071 0.14267233 0.013878236
0002b0 6d 4d 93 3e 9e af b2 be bc bb 1b 3e 52 9a 08 3b
       0.2877001 -0.3489961 0.15208334 0.0020843935
0002c0 9c 30 c8 3d 5d 5e 31 3d d6 03 20 3e c2 5d 28 3e
       0.097748965 0.043302882 0.15626463 0.16442016
0002d0 88 2c ee 3d 2a 6a ee 3e b7 92 a3 bc 6f 3e 21 be
       0.116295874 0.46565372 -0.01996742 -0.15746473
0002e0 5f 06 c6 bd 84 a0 92 3e f8 ed a5 bd 02 b6 7b be
       -0.09669184 0.2863809 -0.081020296 -0.24581149
0002f0 fa 00 85 3e 7f 5a 8f 3f 84 2a 3e 3e d9 b1 cd be
       0.25977308 1.1199492 0.18570906 -0.4017475
000300 e8 4e 39 3f ba be 8d be ae 1e 26 3d 06 cb 5c 3e
       0.72386026 -0.27684575 0.040556602 0.21561822
000310 f1 01 6a bd 78 cf a9 3d 1e 77 8c bc ed b9 1a be
       -0.057130758 0.08291525 -0.017146643 -0.15109988
000320 b7 8d 4d 3e 38 4e 76 bd dc 9d b5 3d 40 e6 0f bf
       0.20073591 -0.06013319 0.08868 -0.5621071
000330 9c 4d 0c 3e 48 0a da 3d 41 d3 f9 be 30 79 e3 3e
       0.1370148 0.10646492 -0.48793986 0.44428396
000340 c9 f5 1c 3e 63 00 bd be 40 73 70 bd b7 9c 09 3f
       0.15328135 -0.36914358 -0.05870366 0.5375475
000350 f6 83 b8 be a3 bf a8 bd c2 ff 75 be a5 f3 9a 3e
       -0.36038178 -0.08239677 -0.24023345 0.3026401
000360 0b 43 63 be 6a 50 49 bd fa 46 23 3f 88 3e b6 3c
       -0.22193544 -0.049148954 0.63780177 0.022246614
000370 37 aa b8 be 71 7b 8e 3e f2 ed 02 3f 7d 98 aa 3d
       -0.36067364 0.27828553 0.51144326 0.08329866
000380 82 eb 9a 3d c2 fb ae 3d 44 9c 7d 3e 7c cc 88 bd
       0.07564451 0.08544113 0.24766642 -0.06679627
000390 96 51 a9 bd d6 5f 9a 3d 6d 91 7e 3d ea 3d 14 3e
       -0.082675144 0.075378105 0.062150408 0.14476743
0003a0 bf 6c d8 bd ec c8 8f 3d 5d 3a f9 bd 3a ca 98 3d
       -0.10567617 0.07020745 -0.12169335 0.07460447
0003b0 77 ad d4 3e 93 9d 27 bd 4c 61 db 3d cb 14 24 3e
       0.41538593 -0.04092176 0.10711917 0.16023557
0003c0 3f 10 31 3e e9 c8 36 be f2 78 4d 3e 35 43 6e 3e
       0.17291354 -0.17850079 0.20065668 0.23267825
0003d0 32 50 b2 3d e0 99 39 3e 8c 50 c3 3c 35 83 ba 3e
       0.08706702 0.18125105 0.023842119 0.36428228
0003e0 38 10 49 bd 61 4d c0 3d a9 86 d1 3d df 9b 9e be
       -0.049087733 0.09389759 0.102307625 -0.30978295
0003f0 fc d9 73 be 95 bc 88 bd b1 77 35 3e 94 ef 94 bd
       -0.23813623 -0.06676594 0.1772144 -0.072722584

conv3.weight f4 [32, 64, 1, 1]
000000 78 94 24 bf 73 a7 20 3f 89 16 be bc 5c 9e 9b be
       -0.64289045 0.6275551 -0.023204105 -0.30394256
000010 43 bf c7 be ed 76 1e bc e2 1d 1a bf 7c 91 1d 3f
       -0.3901311 -0.009671909 -0.6020185 0.61550117
000020 e4 13 36 3f a8 11 97 3e d6 16 90 be 73 26 c7 be
       0.711241 0.29505658 -0.28142422 -0.38896522
000030 8b 4d 7d bd 2c ea 50 bd 2d 0a 86 3f 5e 8e 07 bf
       -0.06184153 -0.051004574 1.0471855 -0.5295161
000040 41 3d bc 3d b4 c3 c1 be 5b 78 52 3f 51 70 26 bd
       0.09191371 -0.37844622 0.822149 -0.040634457
000050 a2 dd e2 3e 9a 40 2f 3f d3 d0 1e 3f ff 7c 74 3f
       0.44309717 0.6845795 0.6203739 0.9550323
000060 e8 e5 51 bc 16 e7 48 3f a9 62 13 3f 5f 17 19 3f
       -0.012811162 0.7847761 0.5757242 0.59801286
000070 41 16 98 be 29 35 71 bb e4 98 4d bd 18 bb 7f bd
       -0.29704478 -0.0036805368 -0.050194636 -0.062434286
000080 08 ca 3e 3f ef 32 0b bd 23 2d 85 3c 6e ce bc 3d
       0.74527025 -0.03398412 0.016256874 0.09219061
000090 58 c1 ba 3d 94 a0 b3 3d c9 d3 3e bd ff a2 1b bf
       0.09118909 0.08770862 -0.046588693 -0.6079559
0000a0 53 49 98 3d ef bb 98 bd e7 b1 b8 bd 0c 63 fd 3e
       0.074358605 -0.074577205 -0.09018307 0.4948963
0000b0 24 c8 f0 bd 3d d1 4a bd 16 a9 ae bd 42 78 b3 bd
       -0.11756924 -0.04951595 -0.08528344 -0.08763172
0000c0 c6 a6 d1 be a8 57 b7 bc 50 5d dc be d4 b9 3c 3f
       -0.4094755 -0.022380665 -0.43039942 0.7372105
0000d0 67 d1 2d bf 47 6a 4f bf 05 15 69 3d 10 da ef bc
       -0.6789765 -0.8102154 0.05690481 -0.029278785
0000e0 1e 55 3d 3f 32 94 14 3f 87 91 ca be 01 14 ff be
       0.73958004 0.5803863 -0.39564154 -0.4981995
0000f0 60 8f b5 3c 48 c1 33 3f 1d 02 02 be ab 65 a1 bd
       0.022163093 0.702168 -0.12696119 -0.0788072
000100 9d f2 28 bf 78 d3 0b 3f fe 68 82 3c 7a 0a b6 be
       -0.659952 0.5461955 0.015919205 -0.35554868
000110 16 72 c1 be 7f cb e8 3d de 2d 2e bf ec 33 22 3f
       -0.37782353 0.11366939 -0.6803874 0.63360476
000120 47 3a 32 3f 9c 6f 28 3e 89 20 d0 be 7e c4 7b be
       0.69620174 0.16448826 -0.40649822 -0.24586675
000130 01 5d 09 3e f0 61 80 bd 77 75 79 3f d2 a6 ea be
       0.13414384 -0.0626868 0.9744486 -0.458304
000140 3d bc c5 3d b9 57 b2 be 9a 9b 3c 3f f9 cc f2 3d
       0.09655044 -0.34832552 0.7367493 0.11855502
000150 ba 26 31 3f 1c 60 3c 3f 33 97 27 3f 4b df 82 3f
       0.6919972 0.7358415 0.65465087 1.0224394
000160 0f 2f 53 bd 43 30 32 3f 90 f2 41 3f 33 31 30 3f
       -0.05155855 0.6960489 0.75760746 0.6882507
000170 26 78 aa be 3b 34 a8 3d a7 06 a7 3d 67 43 d4 bd
       -0.3329479 0.08213087 0.08155566 -0.103644185
000180 4b 5e 2d 3f 46 e8 5d bc e7 97 d4 bc 5f dc 97 bd
       0.67722005 -0.013544148 -0.025951339 -0.07415079
000190 7b bc 3d bd 89 b8 db 3d 61 c3 b1 bd e0 ea 4c bf
       -0.046322327 0.10728557 -0.08679844 -0.8004589
0001a0 f5 d4 fa 3c 9d 21 9d 3d e3 92 44 3d dd 69 0a 3f
       0.030619124 0.07672427 0.047991645 0.54067785
0001b0 03 d9 aa 3c 32 4c 18 3d 18 4d 46 3d 8d 6c 20 3c
       0.020855432 0.03718204 0.048413366 0.0097915055
0001c0 78 d5 f8 be 28 ea fa 3c 36 f7 bf be 2e e4 38 3f
       -0.48600364 0.030629233 -0.37493294 0.72223175
0001d0 97 51 10 bf 6f 9c 2a bf e8 f6 c9 bc 29 b3 45 3d
       -0.56374496 -0.6664495 -0.024653867 0.048266564
0001e0 d6 fc 42 3f 52 d9 23 3f c9 96 ff be 0d 59 f3 be
       0.7616705 0.6400348 -0.49919727 -0.47528878
0001f0 99 8e 9e 3d ec cc 23 3f 5b de d9 3d 5a 22 b2 bc
       0.07742042 0.6398456 0.10638114 -0.021744896
000200 97 2b 48 bf eb fc 11 3f 51 72 9a bd c0 b6 e5 be
       -0.7819151 0.5702655 -0.075413354 -0.4486599
000210 d7 81 9a be ce 30 a3 3d 6b a0 0e bf a9 3b 0d 3f
       -0.30177185 0.07968293 -0.5571353 0.5516916
000220 29 c0 3b 3f ab e6 39 3e 0a 7a 7a be 45 d1 8e be
       0.7334009 0.18154399 -0.24460617 -0.27894035
000230 cd 5b b0 bc 7e 60 cb bc 8a 26 88 3f 2e 34 9f be
       -0.021528149 -0.024826284 1.0636761 -0.31094497
000240 cd 05 5d bd bc 30 65 be 6c 7a 4f 3f 95 d9 9c 3d
       -0.05396061 -0.22381872 0.81046176 0.07658688
000250 4a c8 22 3f 88 58 35 3f ae 54 20 3f 2b c4 80 3f
       0.63586867 0.7083821 0.6262921 1.0059866
000260 12 b3 e3 bd a1 d5 3d 3f 85 48 2c 3f 70 f6 38 3f
       -0.11118139 0.74154097 0.67298156 0.72251034
000270 87 02 44 be ab e5 a3 bd 1d c1 80 bd ba 72 a1 bc
       -0.19141589 -0.0800279 -0.062868334 -0.019708026
000280 6f d4 3a 3f 52 d8 60 3d fe 77 ad bd e5 a0 d8 bc
       0.729804 0.0548938 -0.08470152 -0.026443908
000290 a1 b9 64 bc ec ca bc bd a6 0e 82 bd a3 80 39 bf
       -0.013960273 -0.09218392 -0.0635045 -0.7246191
0002a0 fb b7 b4 bd 86 6d 9d 3c 2e ce 15 3d f5 ee be 3e
       -0.08824154 0.019217264 0.03657358 0.37291685
0002b0 89 4f 24 bd 16 81 64 3c 92 4d ff bc 87 f9 81 bd
       -0.040114913 0.013946792 -0.031164918 -0.06346422
0002c0 74 4e fb be f8 bc ce 3d 08 8f fc be b4 ef 31 3f
       -0.49083292 0.10094637 -0.49327874 0.6950638
0002d0 d7 96 2a bf 1f 9c 4f bf be b1 70 3d aa 5e dd 3d
       -0.66636413 -0.81097597 0.05876326 0.10809071
0002e0 e7 9c 43 3f cb b8 20 3f db 28 07 bf 6d b4 a9 be
       0.7641129 0.6278197 -0.52796715 -0.33145466
0002f0 68 97 99 bd 64 eb 26 3f ce cc b2 bd 97 f1 c1 ba
       -0.074995816 0.6520293 -0.0873047 -0.0014796731
000300 88 81 20 3f dd 4e 92 bc 02 0f e5 3d d1 b8 e5 3e
       0.6269765 -0.01785987 0.11184503 0.44867566
000310 bd 65 a0 3e 43 f8 dc bd 7a bd 48 3f bc 47 1b bd
       0.3132762 -0.1078954 0.7841412 -0.037910208
000320 db 08 da be 24 1b 67 3e 6f 64 ed 3e 36 fd 7e 3e
       -0.4258488 0.22568947 0.46365687 0.2490128
000330 7e 22 47 3c f8 6a cc bd 46 23 6a be 9b 02 da 3e
       0.01215422 -0.0998134 -0.22865018 0.42580113
000340 ee 36 e9 3a a9 94 4b 3e 41 3b ea bd 9c 39 cb 3d
       0.001779286 0.19880928 -0.11437083 0.099230975
000350 46 84 01 bb 93 e3 fb bd 67 3c 3b 3c 7f 7b 23 bf
       -0.001976268 -0.12299266 0.011427975 -0.63860315
000360 47 2d 34 3b bc 41 16 3c 88 54 ad bd 6e 13 02 3d
       0.0027492808 0.009170946 -0.08463389 0.03175681
000370 1a cf 89 3e 25 34 56 bc 56 89 99 bc 64 64 90 bd
       0.26915818 -0.013073956 -0.018742245 -0.07050398
000380 41 10 5c 3d df ea 44 3d a9 88 b3 3c 4e 5f a3 3c
       0.05372644 0.048075553 0.02191575 0.019942906
000390 a4 09 cd bd 6d 11 85 3d 66 cc 79 3d bb 95 1b 3f
       -0.100116044 0.06497464 0.060985945 0.60775346
0003a0 53 31 dc 3d 67 0c 95 bd 99 53 99 3d 91 fd 3d bc
       0.10751595 -0.07277756 0.07486648 -0.0115960995
0003b0 40 52 77 bd c2 15 21 bd 92 65 0b bd 54 9b be 3d
       -0.060381174 -0.03932739 -0.034032412 0.0930697
0003c0 b8 09 01 3f a0 d4 d3 bb 07 c6 fe 3e 2f 11 9a bd
       0.50405455 -0.006464556 0.49760458 -0.07522809
0003d0 ab 68 fa 3e ef ad 22 3f e6 26 5c bd ac 98 f1 bd
       0.4890798 0.6354665 -0.053748034 -0.11796698
0003e0 a8 32 e1 be 63 8b e2 3d 60 b0 06 3f 2b 08 e4 3e
       -0.4398396 0.11061742 0.52612877 0.44537482
0003f0 62 9d 6d 3d d1 e2 e9 be f6 54 59 bd 47 89 97 bd
       0.05801142 -0.4568086 -0.05305954 -0.073992305

conv4.weight f4 [1, 32, 1, 1]
000000 12 ea b8 3f ef 6a b4 3f 11 92 c4 3f 32 b7 26 bf
       1.4446433 1.4095134 1.5357076 -0.65123284
000010 1b 82 17 bf 7c 98 d1 3f ff 2c 18 bd 56 f3 1d be
       -0.591829 1.637466 -0.037152287 -0.15424857
000020 8f bb 20 bf ad 8c f9 bc 7c 53 b0 3f 0c 2a ab 3f
       -0.6278619 -0.030462587 1.3775477 1.3372207
000030 8c 91 22 bf 48 89 ae 3f 82 30 24 3b a5 0b 29 bf
       -0.63503337 1.3635645 0.0025053327 -0.66033393
000040 77 19 a6 3d 26 66 10 bf 7c 43 ba 3b bd cc 0d bf
       0.08110326 -0.56405866 0.0056843143 -0.5539053
000050 17 3a 22 bf a0 ae 15 bf 6f e0 34 bf 9a 53 ba 3f
       -0.6336989 -0.5846958 -0.7065496 1.4556763
000060 7a 99 30 bf e7 3a f3 be 68 0f 2a bf db 28 b2 3f
       -0.68984187 -0.47505876 -0.6642976 1.3918718
000070 0d 35 0e 3d f8 46 1c bf 2d 86 00 bf a6 e6 b8 3f
       0.034718562 -0.6104579 -0.50204736 1.4445388

exp_avg f4 [128, 4, 1, 3]
000000 1f c5 20 3a 2a b3 8b b8 56 8b 30 38 e7 72 1a 3a
       0.0006132889 -6.6614084e-05 4.2091437e-05 0.00058917556
000010 0f 27 e9 38 21 30 8c 36 99 6d c0 38 e8 db 14 39
       0.00011117581 4.177928e-06 9.1756876e-05 0.00014196301
000020 8a 16 e1 38 38 b0 26 37 c3 a9 18 39 97 d3 a6 38
       0.00010733034 9.9354e-06 0.00014559091 7.9549085e-05
000030 ed ef 02 36 b0 5a da b8 6e e5 9b b9 a5 8e 56 b7
       1.9511165e-06 -0.00010411942 -0.00029734842 -1.2788606e-05
000040 07 53 f2 b8 cb 45 e0 b9 ad c3 c1 b7 ed a2 59 b9
       -0.00011554924 -0.0004277661 -2.3098512e-05 -0.00020755427
000050 d7 04 c4 b9 37 19 3b b8 17 9c 71 b9 25 ed ed b9
       -0.0003738764 -4.4607757e-05 -0.00023041699 -0.0004538085
000060 b4 a4 95 b8 26 78 47 39 23 6c 5e 3a f5 94 fa b7
       -7.135552e-05 0.00019022878 0.00084847416 -2.9871686e-05
000070 ad 29 04 39 16 63 a4 3a ba 6f 38 39 e3 46 22 39
       0.00012604026 0.0012541737 0.00017589229 0.00015475931
000080 75 f9 87 3a 6f 05 3f 39 43 91 40 39 1a 81 b8 3a
       0.0010374027 0.00018217204 0.00018364661 0.0014076561
000090 12 70 b5 37 56 d0 6e b9 9c 05 a3 b9 bf 70 b0 b7
       2.1629068e-05 -0.0002277506 -0.00031093962 -2.1033336e-05
0000a0 91 21 10 b9 b0 49 99 b9 bb 90 36 b9 ef 7a eb b9
       -0.00013745415 -0.00029237336 -0.00017410789 -0.00044914286
0000b0 cb 50 bd b9 a2 0b 72 b9 5e 66 f1 b9 d3 1f a1 b9
       -0.00036109085 -0.00023083252 -0.00046043372 -0.00030732024
0000c0 51 52 8a b9 96 eb 83 b8 cc e6 80 39 cb 82 25 b9
       -0.00026382742 -6.290448e-05 0.0002458602 -0.0001578435
0000d0 04 27 9c b8 92 79 11 3a 3b 06 d0 b8 3c 81 31 b9
       -7.445927e-05 0.00055494264 -9.9193734e-05 -0.00016928179
0000e0 99 2f 98 39 59 4e 30 b8 64 50 fa b8 68 1f 20 3a
       0.00029027162 -4.2034637e-05 -0.00011935903 0.00061081955
0000f0 8f 5b 18 b9 4d b8 ad b7 e0 5f 38 b9 ad f3 e5 38
       -0.00014529958 -2.0709029e-05 -0.00017583324 0.00010964959
000100 00 94 07 39 5d 8a b8 b8 e6 0a 8a b9 1f 32 24 b9
       0.00012929738 -8.799576e-05 -0.0002632953 -0.0001565893
000110 7d c1 ef b9 87 83 4a 36 a1 5a 01 b8 66 c1 b2 b9
       -0.00045729792 3.0176905e-06 -3.08404e-05 -0.000340949
000120 01 fd b0 b8 45 65 1b 38 90 6c bb b7 44 6b 05 39
       -8.4394596e-05 3.7049194e-05 -2.234269e-05 0.00012723828
000130 ab 4c 62 37 97 ea e4 38 ef 63 60 b7 91 e6 4d b7
       1.34885e-05 0.00010915583 -1.3374708e-05 -1.2272635e-05
000140 70 24 71 b8 4c 1e b4 38 d8 14 12 b7 c7 c8 5b b7
       -5.7492813e-05 8.588712e-05 -8.707131e-06 -1.3100164e-05
000150 53 e7 75 38 e6 e7 6f 38 d3 4b 8c b9 49 81 12 b9
       5.862799e-05 5.7198013e-05 -0.00026759374 -0.00013971807
000160 64 ff a0 b9 f9 08 dd b9 86 b8 83 39 13 ba 8c 38
       -0.0003070786 -0.0004215909 0.00025123748 6.710379e-05
000170 e7 1e 4f b9 0c 56 1e 39 34 00 34 b9 48 46 c7 b9
       -0.0001975257 0.00015100109 -0.00017166213 -0.000380086
000180 6c f6 31 37 7a 17 68 37 d6 6b 3a b8 4d bd 93 38
       1.0607397e-05 1.3833744e-05 -4.4446286e-05 7.044766e-05
000190 b5 53 43 38 7c eb 2e b8 40 36 08 39 cd f5 8e 38
       4.656958e-05 -4.1704145e-05 0.0001299018 6.8168716e-05
0001a0 93 1b 06 b9 ea 73 c0 38 77 d9 9d 38 79 0f f7 b7
       -0.00012789508 9.176864e-05 7.5268494e-05 -2.94519e-05
0001b0 72 39 08 b7 76 5e ec b8 1c 02 63 b9 61 4a 52 b8
       -8.119607e-06 -0.00011270952 -0.00021649193 -5.0137172e-05
0001c0 ee 80 87 b9 14 0a 72 b9 ef 46 a3 37 3c ea 9b b9
       -0.00025845267 -0.00023082673 1.9464145e-05 -0.00029738422
0001d0 7f dc 71 b9 c8 da 42 b8 fa 6c b3 b9 2c bf 38 b9
       -0.00023065692 -4.645696e-05 -0.00034222734 -0.00017618824
0001e0 7e 10 b1 39 c2 2b a0 38 e7 6a 83 b7 78 67 f8 39
       0.00033772358 7.637545e-05 -1.5666197e-05 0.00047379336
0001f0 f8 cd 94 38 17 ff 6e b8 c0 71 09 38 25 50 fb 37
       7.0955546e-05 -5.6981193e-05 3.2769283e-05 2.9958852e-05
000200 ae 03 dd b7 46 cf ed 38 21 5d 9e 38 25 c5 b7 b8
       -2.6346966e-05 0.00011339648 7.551374e-05 -8.762841e-05
000210 5a a0 46 b9 e8 55 a6 38 56 7c a1 39 11 06 50 b9
       -0.00018942487 7.931498e-05 0.0003080095 -0.00019838686
000220 b5 39 b5 b6 62 31 fc 39 db aa 8c 38 99 8b 75 37
       -5.4009383e-06 0.0004810198 6.7075445e-05 1.4635641e-05
000230 5c 9e d2 39 3d c5 82 38 43 7e 0d 38 ca 34 0f 3a
       0.00040172308 6.2356215e-05 3.373461e-05 0.0005462883
000240 d3 67 dc 38 b1 b5 a8 37 59 06 85 38 8d cb ea b7
       0.00010509756 2.0111767e-05 6.3431165e-05 -2.798976e-05
000250 be c1 eb 38 b5 c5 5c 38 37 a8 9e b8 e9 62 ea 38
       0.000112417605 5.2636216e-05 -7.5653596e-05 0.00011176413
000260 56 ba 51 38 a7 55 72 b8 a6 c2 ad 38 6e 2a 2b 38
       5.0003022e-05 -5.7777066e-05 8.285539e-05 4.0809093e-05
000270 9f 3f 0c 38 ea ab f9 38 2d ff 7c 39 38 a7 6f 38
       3.3437853e-05 0.00011905267 0.00024127653 5.7137775e-05
000280 1e b5 9e 38 21 3b 40 39 fc e6 2f 39 8f cf 4c 39
       7.567763e-05 0.00018332574 0.00016775349 0.00019532278
000290 39 1a b8 39 cf 67 13 39 8a b3 79 39 5d 34 af 39
       0.00035114752 0.00014057684 0.00023813374 0.00033417615
0002a0 ed dd 11 b8 1a ba da b8 d7 7d 2e b9 3b 6f 2b 38
       -3.477738e-05 -0.00010429714 -0.00016640812 4.087317e-05
0002b0 bf bf e6 b8 b9 88 2f b9 e4 c2 3f b8 f0 9d 55 b9
       -0.0001100297 -0.00016740234 -4.5719455e-05 -0.00020372099
0002c0 87 57 8c b9 65 52 82 b8 65 9e 1c b9 6b 62 5e b9
       -0.00026768094 -6.21423e-05 -0.00014936326 -0.00021208233
0002d0 cf 1d 9d 3a 37 0c 0e b9 63 58 f7 36 c7 ed a0 3a
       0.0011987033 -0.00013546726 7.371463e-06 0.0012277894
0002e0 fc ad 10 39 a6 19 3e b9 a2 43 f8 b7 d5 7c 18 b9
       0.00013797724 -0.00018129367 -2.9595398e-05 -0.00014542353
0002f0 6d e5 91 b9 7d 52 a9 b7 a0 09 94 36 fd cc af b9
       -0.0002782749 -2.0184782e-05 4.411864e-06 -0.0003353133
000300 10 62 8f b8 e4 00 ba 37 b0 d9 78 b7 d6 f1 84 38
       -6.837037e-05 2.2173343e-05 -1.4832636e-05 6.339296e-05
000310 c8 21 b1 b7 11 87 90 37 8f 5c ce b5 54 30 f3 37
       -2.1115775e-05 1.7229033e-05 -1.5375134e-06 2.8990362e-05
000320 a7 78 7c 38 b0 a2 8d 38 e8 c3 e9 36 2d ed 44 37
       6.019385e-05 6.753707e-05 6.9667476e-06 1.1737732e-05
000330 0b 11 db 39 51 73 27 39 71 26 43 3a 91 dd cd 39
       0.00041783633 0.0001596932 0.0007444388 0.00039265727
000340 91 c6 77 39 32 03 85 3a 30 8f 6f 39 c3 fd 97 39
       0.00023629727 0.0010148047 0.00022846158 0.00028990032
000350 41 8f 56 3a 75 9a 34 39 3b b3 a0 39 63 f2 93 3a
       0.00081847986 0.00017223677 0.00030651115 0.0011287447
000360 ef 51 0e 39 01 6f 34 38 63 3d dd 38 be 08 e3 38
       0.00013572698 4.3018725e-05 0.00010549535 0.00010825832
000370 ac 7b 96 38 15 7d 94 38 d8 04 19 38 05 a4 02 39
       7.175593e-05 7.080488e-05 3.6482554e-05 0.00012458868
000380 6b 84 20 39 c3 12 c5 37 75 f1 08 39 76 b5 17 39
       0.00015308119 2.3492967e-05 0.0001305992 0.00014468082
000390 e1 b5 f9 39 1a 74 de b6 44 09 90 37 ed f9 f9 39
       0.0004762849 -6.6296316e-06 1.7170452e-05 0.0004767919
0003a0 12 5a 2e 38 e4 ad af b8 16 d5 10 38 f7 4e 92 38
       4.1568717e-05 -8.37704e-05 3.4530727e-05 6.976531e-05
0003b0 2d d3 ec 36 e0 23 9a 37 36 c8 89 38 94 e4 cb b8
       7.057932e-06 1.8374936e-05 6.569961e-05 -9.72237e-05
0003c0 60 20 fd b8 57 17 76 b9 5d d0 9d b9 4d de a6 b8
       -0.000120700104 -0.00023469083 -0.00030100616 -7.9569036e-05
0003d0 9f cc 80 b9 fb fc b4 b9 7c 70 24 b9 a8 eb bf b9
       -0.00024566517 -0.0003452076 -0.00015682162 -0.00036605936
0003e0 b6 d9 ca b9 2d 3c 56 b9 68 fe b3 b9 a0 84 d1 b9
       -0.0003869065 -0.00020431048 -0.00034331088 -0.000399624
0003f0 f3 88 e1 b9 db eb 35 38 e3 95 0c 39 49 2d af b9
       -0.0004301738 4.337342e-05 0.00013407278 -0.0003341234

exp_avg_sq f4 [128, 4, 1, 3]
000000 1a e1 3f 35 f1 5e 04 34 af d8 4b 35 f2 80 44 35
       7.148061e-07 1.2327997e-07 7.593871e-07 7.320333e-07
000010 59 30 1e 35 d1 51 15 36 b4 e1 f3 34 c9 f8 13 35
       5.892994e-07 2.2250354e-06 4.5426498e-07 5.51238e-07
000020 75 f6 f6 35 32 72 26 33 5c b4 36 35 3c 21 3e 36
       1.8400157e-06 3.8753747e-08 6.806274e-07 2.8331551e-06
000030 e4 65 0e 35 02 cc 88 35 75 a9 cc 35 6f 7c 45 34
       5.304739e-07 1.0192164e-06 1.5248503e-06 1.8392323e-07
000040 7b 34 22 35 8a af 98 35 f3 16 18 36 ca 44 52 36
       6.042607e-07 1.1375971e-06 2.2663123e-06 3.133248e-06
000050 9e 40 36 36 be 43 69 35 fd 65 f6 35 57 9b fa 35
       2.7157726e-06 8.689784e-07 1.8358111e-06 1.8671661e-06
000060 85 c3 78 35 fd 26 eb 35 e9 1a 7a 36 84 10 75 35
       9.267172e-07 1.7520211e-06 3.7268567e-06 9.1293646e-07
000070 42 84 da 35 47 e4 81 36 c7 13 ea 35 0b 82 31 36
       1.6280758e-06 3.8710746e-06 1.7440115e-06 2.645075e-06
000080 70 73 a0 36 c3 51 d1 35 66 d6 4f 36 3a a5 a6 36
       4.7818103e-06 1.5595509e-06 3.09702e-06 4.9664204e-06
000090 45 27 86 35 84 97 90 35 5b 61 e7 35 53 f3 8c 34
       9.995207e-07 1.0772933e-06 1.7239175e-06 2.6254074e-07
0000a0 2b 55 55 35 a3 f1 0d 35 21 80 22 36 fc 8c 41 36
       7.947262e-07 5.287822e-07 2.4214462e-06 2.8841305e-06
0000b0 7f 52 50 36 70 e2 91 35 2d ff 17 36 98 82 05 36
       3.1042434e-06 1.0869244e-06 2.2649285e-06 1.989456e-06
0000c0 09 e4 a3 34 10 34 32 35 21 bb 8c 35 e0 c6 1e 35
       3.0527033e-07 6.638593e-07 1.0485275e-06 5.914899e-07
0000d0 57 6b 76 35 90 b3 cc 35 a6 1f 46 35 20 cd 46 35
       9.179834e-07 1.5251444e-06 7.38068e-07 7.4059244e-07
0000e0 51 16 63 35 1e ef 55 35 d2 4e 8b 35 db 66 9f 35
       8.4596564e-07 7.9696645e-07 1.0379247e-06 1.1876358e-06
0000f0 5b f8 88 34 de 82 26 33 74 94 f1 34 ff 2d 50 33
       2.5512676e-07 3.876891e-08 4.4997762e-07 4.8470607e-08
000100 9d ab b3 33 1e 60 a2 34 5d 08 b8 34 d0 98 42 34
       8.366553e-08 3.0244786e-07 3.4278756e-07 1.8123251e-07
000110 40 18 98 35 e1 ad 75 32 57 0b 00 34 0f d0 82 35
       1.133194e-06 1.4300412e-08 1.1925054e-07 9.746308e-07
000120 73 41 81 34 91 cf 53 34 a7 57 2e 35 be ae 9c 34
       2.4075743e-07 1.9726419e-07 6.49476e-07 2.9184406e-07
000130 49 29 0d 35 66 88 3c 35 a1 5d 01 35 b3 f4 d9 34
       5.258667e-07 7.0233943e-07 4.819249e-07 4.0597442e-07
000140 00 c3 5f 35 b1 8d 33 34 99 03 23 35 7d a6 41 35
       8.3357736e-07 1.6722221e-07 6.0727467e-07 7.2140375e-07
000150 6d 6e 03 35 42 de 12 36 02 64 85 36 35 24 f3 34
       4.8961994e-07 2.1885066e-06 3.9753513e-06 4.528862e-07
000160 a9 01 9e 36 5e 93 05 37 6d ef 6d 36 3b ba 5e 36
       4.70896e-06 7.961729e-06 3.5455116e-06 3.3188978e-06
000170 f2 71 9d 36 08 2d f5 35 04 4c 96 36 0d 58 03 37
       4.6922296e-06 1.8267028e-06 4.4791977e-06 7.828709e-06
000180 9e ec 3f 35 72 7c 37 34 87 b2 84 35 9e 83 64 35
       7.149737e-07 1.7088476e-07 9.886725e-07 8.5128147e-07
000190 56 56 4b 34 5f f9 49 35 01 44 8a 34 f4 b3 b8 35
       1.8937257e-07 7.524122e-07 2.5753982e-07 1.3761442e-06
0001a0 df db 5b 36 10 61 fe 33 a6 91 55 35 32 eb 40 36
       3.2761525e-06 1.1845452e-07 7.956063e-07 2.8747131e-06
0001b0 82 f2 0f 35 89 4b 1e 36 2a 63 8f 36 38 e3 60 34
       5.3624547e-07 2.3587802e-06 4.2732763e-06 2.0944287e-07
0001c0 07 e8 05 36 9d 4e 08 36 cc ce 52 36 99 1c dd 36
       1.9953602e-06 2.0311338e-06 3.141281e-06 6.5896425e-06
0001d0 51 2a cc 36 01 fe 1b 36 0d d1 b0 36 a9 90 91 36
       6.0846e-06 2.324465e-06 5.2695455e-06 4.3381774e-06
0001e0 a5 09 98 34 43 b5 e5 33 42 6e d4 34 e5 d1 d2 34
       2.8319224e-07 1.0696615e-07 3.95683e-07 3.9268267e-07
0001f0 7a 19 4a 35 a5 ca 07 36 33 8d 1c 35 bb 45 6c 34
       7.528794e-07 2.0234522e-06 5.832e-07 2.200458e-07
000200 49 04 61 34 24 2e f9 33 da 62 d6 34 5b d8 cb 35
       2.0956317e-07 1.1603359e-07 3.993253e-07 1.5187646e-06
000210 40 91 c8 34 56 7c b8 33 e9 e1 c1 34 fa 98 67 34
       3.7358586e-07 8.590784e-08 3.6113423e-07 2.1569204e-07
000220 5e 6e 20 34 2c 44 2f 35 03 ce 60 34 d4 df 67 34
       1.4941313e-07 6.5291783e-07 2.0936572e-07 2.159498e-07
000230 42 16 19 35 09 f7 63 33 c4 7c 98 34 52 b0 3f 35
       5.702933e-07 5.3077233e-08 2.8402985e-07 7.1409625e-07
000240 c9 50 c6 33 1f af ad 34 e3 23 5d 35 41 32 3f 34
       9.234788e-08 3.2351178e-07 8.238114e-07 1.7806543e-07
000250 81 02 fd 34 92 2b 45 35 9e bb 94 34 2b 18 46 35
       4.7126744e-07 7.345162e-07 2.7703658e-07 7.3795917e-07
000260 ab e7 62 35 21 ee 8f 34 a6 06 61 35 3f 08 4d 35
       8.452868e-07 2.6809087e-07 8.3828706e-07 7.638045e-07
000270 21 77 f9 34 6c cb 6f 35 22 aa 5e 35 57 83 dc 34
       4.6466542e-07 8.9330456e-07 8.294902e-07 4.1073756e-07
000280 65 de 17 35 f3 68 53 35 80 99 7e 35 c5 11 66 35
       5.657551e-07 7.8756347e-07 9.4845745e-07 8.5707535e-07
000290 32 36 8a 35 ba 5b 62 35 4e 2d 3c 35 e5 ed 8e 35
       1.0297574e-06 8.432504e-07 7.0101385e-07 1.0649061e-06
0002a0 88 57 05 33 2e 1f 7d 34 e1 31 99 35 e5 39 5c 33
       3.1046085e-08 2.3573804e-07 1.1413905e-06 5.1275396e-08
0002b0 52 be a5 33 ec 66 34 35 d1 4b ce 34 4b 0f d3 35
       7.71803e-08 6.7204996e-07 3.8425654e-07 1.5725176e-06
0002c0 57 ce 41 36 e5 e9 11 34 ee 21 9c 35 0e e6 21 36
       2.8879347e-06 1.3589268e-07 1.1632781e-06 2.412478e-06
0002d0 b0 fb 0e 36 6e e6 6a 35 15 38 43 36 99 5e 42 36
       2.130615e-06 8.750711e-07 2.9089908e-06 2.8963316e-06
0002e0 82 9f 24 35 0b bc e1 35 f1 1a a7 35 f4 49 97 36
       6.1326875e-07 1.6818534e-06 1.2450311e-06 4.50876e-06
0002f0 55 5b b8 36 e7 2d 20 35 f7 95 43 36 8e 05 4a 36
       5.4942598e-06 5.967144e-07 2.9144555e-06 3.010358e-06
000300 78 20 68 34 3e 9b b2 33 47 78 b4 34 0b 22 97 34
       2.1618496e-07 8.317009e-08 3.3615126e-07 2.815071e-07
000310 ef 74 18 35 74 42 a8 35 58 f7 d6 34 0d 3f 54 34
       5.6794573e-07 1.2536316e-06 4.0040572e-07 1.9766976e-07
000320 f2 d6 b7 34 8c 6f a6 33 0a 11 8f 34 22 13 87 35
       3.42428e-07 7.7502676e-08 2.6648223e-07 1.0063852e-06
000330 9c 67 81 35 f4 5e b8 35 54 a0 03 36 8a 4a 35 35
       9.641403e-07 1.3736703e-06 1.9613844e-06 6.7536223e-07
000340 f1 3f 92 35 56 47 ec 35 f1 1a 03 36 00 c9 f7 35
       1.0896457e-06 1.7604132e-06 1.9536203e-06 1.8461433e-06
000350 85 2a 20 36 01 0b af 35 4c 35 e6 35 d0 78 1c 36
       2.3866608e-06 1.3041719e-06 1.7151847e-06 2.3316134e-06
000360 03 ff 50 34 71 39 d1 34 35 1e bf 34 68 57 40 34
       1.9464282e-07 3.8971078e-07 3.55985e-07 1.7913192e-07
000370 9f 1a ad 34 bc 03 84 34 89 91 af 34 87 67 01 35
       3.224313e-07 2.4589633e-07 3.270218e-07 4.8206897e-07
000380 14 8c fb 34 b0 01 a2 34 5f 42 dc 34 1c 56 b6 34
       4.6854313e-07 3.017608e-07 4.1026485e-07 3.3962795e-07
000390 50 a3 a8 34 ea f5 9a 33 94 4c 92 34 b2 75 05 35
       3.1411264e-07 7.215915e-08 2.7250337e-07 4.971763e-07
0003a0 1f c3 05 35 a1 8a be 35 91 1e 5e 34 7e bb e0 33
       4.98303e-07 1.419645e-06 2.0686481e-07 1.04649175e-07
0003b0 33 7f 97 34 78 f0 16 33 70 23 82 34 22 97 93 35
       2.821849e-07 3.51433e-08 2.424017e-07 1.0996339e-06
0003c0 a9 17 0f 35 f0 f6 f9 35 76 95 38 36 62 8c 4e 34
       5.330608e-07 1.8623814e-06 2.7505134e-06 1.9236316e-07
0003d0 55 03 8f 35 48 34 95 35 c6 68 36 36 26 58 85 36
       1.06553e-06 1.1116581e-06 2.71811e-06 3.9739707e-06
0003e0 88 77 7f 36 0e d0 f8 35 fb b9 4d 36 50 42 18 36
       3.8067537e-06 1.8537992e-06 3.0655635e-06 2.2688364e-06
0003f0 93 b3 d1 34 39 a6 97 34 dc 31 ea 34 5a 14 b8 34
       3.905994e-07 2.8246885e-07 4.3622174e-07 3.4287478e-07

exp_avg f4 [64, 128, 1, 3]
000000 9d 6b 95 37 06 77 c0 36 c9 b3 1d 37 be a2 a9 b6
       1.7812295e-05 5.735902e-06 9.399789e-06 -5.055538e-06
000010 a2 cf 0f b7 1f 08 34 37 a4 9d 0e 38 84 f0 84 35
       -8.5718075e-06 1.0730727e-05 3.4002253e-05 9.904766e-07
000020 6a fd bd 36 54 b4 80 34 fe 4a ce 36 b8 69 cb 37
       5.66214e-06 2.3973064e-07 6.1480087e-06 2.4248715e-05
000030 d2 37 42 37 73 d0 df b6 a1 59 e9 b7 0d 15 d8 35
       1.1576298e-05 -6.6701846e-06 -2.7817501e-05 1.6099381e-06
000040 c8 1c 4f 34 0f e4 57 35 28 bb b5 b6 b2 0f 89 37
       1.9288848e-07 8.042561e-07 -5.416008e-06 1.6338981e-05
000050 10 2d 59 b7 5c 25 fa 35 3a 7d 0b b7 06 b5 e4 b5
       -1.29447e-05 1.8637325e-06 -8.314202e-06 -1.7040009e-06
000060 9a 7a e3 35 54 ce c9 37 77 e8 21 38 aa 57 51 b6
       1.69485e-06 2.4057146e-05 3.860189e-05 -3.1194454e-06
000070 76 42 e2 b6 0f ff f6 36 88 8f 82 37 e2 52 5d 37
       -6.743062e-06 7.361064e-06 1.5564045e-05 1.3191924e-05
000080 21 bd a6 b7 3b 81 33 38 77 43 96 b5 3a 9d 16 b7
       -1.9876812e-05 4.279728e-05 -1.1195506e-06 -8.977304e-06
000090 7c ed dd 37 1a 9c c5 37 df f6 c7 37 e7 59 85 38
       2.645584e-05 2.355692e-05 2.3837607e-05 6.35868e-05
0000a0 8d 2a 90 37 db 1d 22 38 a3 3c df 33 18 eb 2e b4
       1.7185952e-05 3.8651615e-05 1.03952765e-07 -1.629054e-07
0000b0 a1 c1 8d 35 18 2d 80 38 bf 83 1e b7 d6 ee f1 35
       1.0561672e-06 6.111915e-05 -9.448208e-06 1.802541e-06
0000c0 a2 10 a9 34 13 31 88 37 6e c3 f6 b6 01 69 7c 37
       3.1490805e-07 1.6235315e-05 -7.3541223e-06 1.5044819e-05
0000d0 c0 e8 1e 36 68 71 a3 36 4f 85 12 38 d9 f8 b8 37
       2.3679313e-06 4.870981e-06 3.4933266e-05 2.2050388e-05
0000e0 40 06 23 38 3e b6 0a b6 68 7b d1 36 4e 37 a3 34
       3.886805e-05 -2.0669681e-06 6.2430518e-06 3.0401355e-07
0000f0 e8 8e a8 35 dd f5 9e 36 5a 8a 74 37 8a a4 0a b7
       1.2558567e-06 4.737389e-06 1.4575746e-05 -8.263751e-06
000100 b9 57 a1 35 50 de a4 b7 dc 3d ed b6 ef 63 b1 b7
       1.2020965e-06 -1.9653846e-05 -7.070352e-06 -2.114658e-05
000110 23 5a 7c b7 04 b7 50 b7 17 1f 52 37 6f 5f cf b7
       -1.5041357e-05 -1.2440378e-05 1.2524214e-05 -2.4720763e-05
000120 6e 42 5b 37 19 90 2c 37 2b 6d 81 b7 7e a2 d1 35
       1.3068884e-05 1.0285549e-05 -1.5428834e-05 1.5619005e-06
000130 d9 c1 bc 36 35 48 67 b7 dd 85 c3 b7 09 73 04 36
       5.6254034e-06 -1.3785485e-05 -2.3308146e-05 1.9736492e-06
000140 56 8f 31 37 03 09 3a 38 64 86 35 b7 a0 3a 56 b6
       1.0583395e-05 4.435425e-05 -1.0819731e-05 -3.192261e-06
000150 86 3c 2d b6 fe 58 3d 37 9f b6 27 b7 03 8e 8d 38
       -2.5814238e-06 1.1285998e-05 -9.9964955e-06 6.749856e-05
000160 56 51 fc b4 61 2c d8 35 fa 46 b9 38 16 0b 47 37
       -4.6997837e-07 1.610617e-06 8.834708e-05 1.18639055e-05
000170 0b bc 8d 34 f7 2d 03 36 22 c9 17 36 df 31 6f b5
       2.6400116e-07 1.9547276e-06 2.2617828e-06 -8.910701e-07
000180 7f f9 32 37 e1 48 25 b7 cb 78 54 b6 11 b3 30 38
       1.0667717e-05 -9.851735e-06 -3.1660772e-06 4.212844e-05
000190 f6 82 4d b7 50 44 a9 36 06 dd bd 37 ed 67 7b b5
       -1.2249444e-05 5.044545e-06 2.2633478e-05 -9.365602e-07
0001a0 95 d6 a4 37 bb f7 47 34 0f 8a cb 33 16 58 0d b7
       1.9650246e-05 1.8623443e-07 9.478037e-08 -8.424764e-06
0001b0 ce 09 c5 37 47 8e ad b6 78 08 27 b7 4f 42 55 38
       2.3488796e-05 -5.172365e-06 -9.9559475e-06 5.0844912e-05
0001c0 ae d5 e9 b6 5e f7 57 33 21 bb 13 38 47 03 82 b7
       -6.9688167e-06 5.0283568e-08 3.522181e-05 -1.5498734e-05
0001d0 7b f1 a4 36 1c 9d b1 38 19 e0 17 b6 8b f1 e7 35
       4.915693e-06 8.4692816e-05 -2.2631195e-06 1.728114e-06
0001e0 ae 7d 0b 34 cc b4 83 36 b8 d1 f8 36 6f c2 1c 38
       1.2991106e-07 3.9251518e-06 7.4153904e-06 3.737438e-05
0001f0 2b 6e 80 b6 33 13 a2 b5 ea b5 76 37 73 7c 87 36
       -3.8275225e-06 -1.2075528e-06 1.4705098e-05 4.0378013e-06
000200 91 c4 aa 37 35 aa 7e b7 9c a0 1f 36 06 0b 98 b7
       2.0357113e-05 -1.5179209e-05 2.3786333e-06 -1.8124945e-05
000210 c0 e1 85 36 75 82 9b 37 54 a7 21 38 57 00 a0 b5
       3.9899896e-06 1.8538189e-05 3.8541228e-05 -1.1921028e-06
000220 46 6d 27 36 dd cc f2 b6 d8 e6 c6 37 b9 43 ef 36
       2.4948545e-06 -7.2360112e-06 2.3710934e-05 7.130639e-06
000230 5f af 88 b7 83 a3 7d 37 f4 29 19 34 04 d9 35 36
       -1.6294127e-05 1.5118046e-05 1.4264498e-07 2.7097421e-06
000240 32 3a 9b 35 67 3c 0c b4 bd 8c a6 b6 ce ec 33 36
       1.1565337e-06 -1.306049e-07 -4.9635696e-06 2.6810917e-06
000250 f9 21 a7 b5 df 6a e6 36 5c cd 2e 36 b8 65 b9 37
       -1.2452357e-06 6.8669756e-06 2.6047555e-06 2.2101085e-05
000260 56 5c 1d 38 22 c5 62 b7 70 fc 02 b7 f5 fe 04 b7
       3.751771e-05 -1.3516548e-05 -7.807379e-06 -7.927175e-06
000270 57 80 b3 37 01 1e df 36 a5 01 82 37 e8 9c 2b 33
       2.1398226e-05 6.649411e-06 1.5497973e-05 3.9956745e-08
000280 e4 db 44 36 98 0b 49 37 98 87 62 36 87 9f a9 37
       2.933427e-06 1.1983233e-05 3.375555e-06 2.0220656e-05
000290 a6 aa 02 38 f5 81 9d b6 ce 6e 7a 37 37 46 a6 b7
       3.1153344e-05 -4.6940936e-06 1.492696e-05 -1.9821438e-05
0002a0 38 1c 54 b6 bc 8c 9f 36 55 4a 63 37 c5 0d d1 b7
       -3.1606887e-06 4.754953e-06 1.3547561e-05 -2.4921153e-05
0002b0 66 1a ba b6 d2 00 0e b8 17 32 d7 38 3b 9d 08 37
       -5.546305e-06 -3.3856202e-05 0.00010261329 8.14284e-06
0002c0 6f 09 85 37 5d 4f 25 38 47 ad 2d b7 40 33 1d 37
       1.5859228e-05 3.941298e-05 -1.0351948e-05 9.369862e-06
0002d0 33 b4 ae 38 ae 5c 5b 36 c4 93 01 b7 40 15 16 38
       8.330531e-05 3.268749e-06 -7.7234035e-06 3.5782577e-05
0002e0 f7 a3 f3 36 96 bf 11 38 0c 6c 25 37 87 fc 0e 36
       7.2610524e-06 3.4749122e-05 9.859923e-06 2.130664e-06
0002f0 a2 36 39 37 2d 35 20 37 d7 08 a3 b5 e5 f2 e2 36
       1.10395795e-05 9.549124e-06 -1.2147019e-06 6.7636015e-06
000300 ad 59 b8 b4 02 4d 4d 37 a9 52 ca 37 09 ed 81 38
       -3.4337918e-07 1.2236882e-05 2.4118768e-05 6.1953506e-05
000310 02 31 bd 36 7e af 0e 37 f3 d2 6d 37 32 49 05 b5
       5.638344e-06 8.5047195e-06 1.4175416e-05 -4.9652874e-07
000320 46 dc 02 38 8e 98 4d 34 a6 e8 b2 b7 7e 38 82 b7
       3.119956e-05 1.9147612e-07 -2.1327589e-05 -1.5523514e-05
000330 62 dd 6f 37 e5 66 a2 b6 a3 23 80 b7 94 45 85 b7
       1.4297055e-05 -4.8399547e-06 -1.5275384e-05 -1.5887235e-05
000340 42 b3 aa b6 1a 98 00 37 d5 a2 35 35 f0 51 5e b7
       -5.087263e-06 7.664808e-06 6.7664706e-07 -1.3251309e-05
000350 14 de 3a 36 41 9d 60 37 b4 06 96 37 47 fd dd 37
       2.7845426e-06 1.3388054e-05 1.7884515e-05 2.6463194e-05
000360 bc 25 4e 38 01 32 42 35 d5 17 b0 37 9e a4 f8 37
       4.914937e-05 7.2343397e-07 2.0991933e-05 2.964056e-05
000370 90 99 4d 36 8a 53 0f 37 0e d3 d4 b6 e8 10 e9 35
       3.0636766e-06 8.542915e-06 -6.3426623e-06 1.7364773e-06
000380 6c 7d 29 b7 bc 75 8b b5 24 8d 1c 37 32 dc 1b b7
       -1.0102387e-05 -1.0390572e-06 9.331186e-06 -9.289988e-06
000390 73 e9 ee 36 67 9e 38 b7 56 90 98 36 c6 74 b6 35
       7.12013e-06 -1.1004136e-05 4.546756e-06 1.3594042e-06
0003a0 8f 35 3a 37 e7 17 05 38 3e c2 5b b6 91 9f 8f 36
       1.1098934e-05 3.173193e-05 -3.2746607e-06 4.280308e-06
0003b0 2b 40 cf 37 bd 9f ad 35 80 fa f3 36 f1 3d 87 37
       2.4706203e-05 1.2935994e-06 7.2711264e-06 1.6122098e-05
0003c0 ea c3 39 b6 77 2f ea b5 83 50 16 37 ec 7f ca b6
       -2.7681185e-06 -1.7448173e-06 8.959442e-06 -6.034961e-06
0003d0 bc bc 35 36 cc c1 c4 37 c1 1a 28 b6 db ce 89 37
       2.708096e-06 2.3455264e-05 -2.5049524e-06 1.6427997e-05
0003e0 3c 7f 77 b7 64 12 a1 b5 76 9d e7 b6 6d 91 11 b7
       -1.4751971e-05 -1.2000787e-06 -6.9026673e-06 -8.676533e-06
0003f0 98 d1 c7 b6 1c dc 02 37 b5 d8 a4 37 80 6a ca 37
       -5.955062e-06 7.799852e-06 1.9651236e-05 2.412987e-05
